etc/old3/models/best_model_AUC_0.8990.pt (torch, 517537 bytes, 144 tensors)

encoder.convs.0.convs.<user___healthness___food>.att_src f4 [1, 1, 58]
0	0x3d409d6c	0.04702513
1	0xbea0bd9d	-0.31394663
2	0x3d020017	0.031738367
3	0x3dc020de	0.09381269
4	0x3e4b7f3c	0.19872755
5	0xbb62a2b8	-0.0034581851
6	0x3ebdbe32	0.3705917
7	0xbe3c9fd6	-0.18420348
8	0x3d8e28a0	0.06941342
9	0x3eb21574	0.34781992
10	0x3eca7535	0.39542547
11	0x3dc28d16	0.09499566
12	0x3ec49c31	0.38400415
13	0x3de68b39	0.11257023
14	0x3e0e2f66	0.13885269
15	0x3db289e4	0.08717707
16	0x3ee5491f	0.4478235
17	0x3ee5a677	0.44853565
18	0x3e733f55	0.23754628
19	0xbe651245	-0.2237025
20	0xbc4f4d3c	-0.012652691
21	0xbe8cd75a	-0.2750805
22	0x3c2f2909	0.010690936
23	0x3da81f58	0.08209103
24	0xbeacaa1c	-0.33723533
25	0xbe368df4	-0.17827588
26	0xbd988622	-0.07447459
27	0xbe7a9c84	-0.24473768
28	0xbcd81332	-0.02637634
29	0x3e3a85c4	0.1821509
30	0xbeb1ec09	-0.34750393
31	0xbe0f4327	-0.1399046
32	0x3e175406	0.14778146
33	0x3ce23dee	0.027617421
34	0xbd240aaf	-0.04004925
35	0xbd4bc1f3	-0.04974551
36	0xbcd0041b	-0.025392583
37	0xbe0f5d33	-0.14000396
38	0xbd5c8be2	-0.05384434
39	0xbc095d1e	-0.008384017
40	0xbafccc1d	-0.0019286905
41	0x3b45e717	0.0030197555
42	0xbe8d011c	-0.2753991
43	0x3dde0e7f	0.10842609
44	0xbe36bd98	-0.17845762
45	0xbe8d1b04	-0.27559674
46	0xbb1c78f0	-0.0023875795
47	0x3e4aece8	0.19816935
48	0xbeb186dd	-0.34673205
49	0xbecc157e	-0.39860147
50	0xbe76db1b	-0.2410702
51	0x3e829eba	0.25511724
52	0x3e2d1b41	0.16904928
53	0x3d37b5ef	0.04485124
54	0x3dea238a	0.1143256
55	0x3e7b8d50	0.24565625
56	0x3e6c95cc	0.23104018
57	0x3e89f53e	0.26944917

encoder.convs.0.convs.<user___healthness___food>.att_dst f4 [1, 1, 58]
0	0xbd98ad46	-0.07454924
1	0x3ceee481	0.029161694
2	0x3e87a3ae	0.26492065
3	0x3e9a4166	0.3012802
4	0x3e052f1b	0.1300625
5	0xbcab4373	-0.020906186
6	0xbdaba50b	-0.08381089
7	0xbe654b44	-0.22391993
8	0xbd8b9a34	-0.06816521
9	0xbe68b463	-0.22725062
10	0xbe5a709c	-0.2133202
11	0x3e7eaedf	0.24871396
12	0x3ea286e7	0.31743547
13	0x3eb22697	0.34795067
14	0xbeb5cdc7	-0.35508558
15	0xbe2f3a04	-0.17111975
16	0xbb1eb760	-0.0024218187
17	0xbe9e9c46	-0.30978602
18	0xbe5d7dee	-0.2163007
19	0xbc207e69	-0.0097957635
20	0x3c186a09	0.0093026245
21	0xbe57cc07	-0.21073924
22	0xbccf4664	-0.02530212
23	0x3dadaf06	0.08480649
24	0x3e7720b6	0.24133572
25	0x3d0a9e41	0.03384233
26	0xbc60a5e9	-0.013711431
27	0xbeb8bdc9	-0.36082295
28	0xbe5b413f	-0.21411608
29	0x3d8c2361	0.068426855
30	0x3ec88684	0.39165127
31	0x3e2b1315	0.16706498
32	0xbea0399b	-0.3129395
33	0x3e0bb974	0.13644964
34	0xbefb7dc1	-0.4911938
35	0xbea66006	-0.32495135
36	0xbdaf8d5a	-0.085718825
37	0x3d05db81	0.03268004
38	0xbea2ebf8	-0.31820655
39	0x3e282b3d	0.16422744
40	0xbdf51df6	-0.11968605
41	0xbd2122c3	-0.039339792
42	0xbecd36b5	-0.400808
43	0xbd832b1f	-0.06404709
44	0x3dfa5b44	0.12224439
45	0x3d968458	0.07349461
46	0x3ea4e801	0.32208255
47	0xbe811722	-0.2521296
48	0x3ea0912b	0.31360754
49	0xbd546e0e	-0.05186277
50	0xbec2d627	-0.3805401
51	0xbedf3c79	-0.43600824
52	0x3ea53980	0.32270432
53	0x3db297bd	0.08720348
54	0xbe21b433	-0.15791397
55	0xbe5247c6	-0.20535192
56	0x3e724123	0.2365766
57	0xbe1c4b05	-0.15262993

encoder.convs.0.convs.<user___healthness___food>.att_edge f4 [1, 1, 58]
0	0xbe6ee8f4	-0.23331052
1	0x3e62c794	0.22146446
2	0xbe0c01bf	-0.13672541
3	0x3e3c0640	0.18361759
4	0xbe609034	-0.21930009
5	0xbd834af0	-0.064107776
6	0xbe32f0f4	-0.17474729
7	0x3c5e63a0	0.013573557
8	0xbd1a7a70	-0.03771442
9	0x3dc2d880	0.0951395
10	0xbe7d49d4	-0.24735194
11	0xbe9001d7	-0.28126404
12	0x3e81da30	0.25361776
13	0xbe7a0848	-0.24417222
14	0x3ddc390c	0.10753068
15	0xbe8dcd2d	-0.276956
16	0x3d7e89e8	0.062143236
17	0xbbde5580	-0.0067850947
18	0xbe20948a	-0.15681663
19	0xbbd72dc0	-0.006566733
20	0x3d205ed0	0.03915292
21	0x3c1235a0	0.008923918
22	0x3e770ba8	0.2412554
23	0xbe3b0bdf	-0.18266247
24	0x3e13deb2	0.1444042
25	0x3e96608a	0.29370528
26	0xbe6a8d18	-0.22905385
27	0xbe7fc544	-0.24977595
28	0x3ddcbb68	0.107779324
29	0xbde7d906	-0.11320691
30	0xbbebaa80	-0.007191956
31	0xbe984e94	-0.2974745
32	0x3e477780	0.1947918
33	0xbcac7a80	-0.021054506
34	0x3ca09c10	0.019605666
35	0xbde3061e	-0.11085151
36	0x3de2b808	0.110702574
37	0xbbab5d00	-0.0052295923
38	0xbe02249f	-0.12709282
39	0x3da23c60	0.07921672
40	0xbdf27f62	-0.118407026
41	0x3df2611c	0.118349284
42	0xbe9c6197	-0.30543205
43	0xbdfcb452	-0.12339081
44	0xbe5fbe50	-0.21849942
45	0x3e0aee44	0.13567454
46	0xbe654ee9	-0.22393383
47	0x3e7d0378	0.24708354
48	0x3d9f05c4	0.077647716
49	0x3e48228c	0.19544429
50	0xbe550384	-0.20802122
51	0xbe84a243	-0.25905046
52	0xbd565988	-0.052331477
53	0xbe336d15	-0.1752208
54	0xbddd3766	-0.10801582
55	0x3e86366a	0.2621339
56	0x3e2e88fe	0.17044446
57	0xbdc0f6c4	-0.09422067

encoder.convs.0.convs.<user___healthness___food>.bias f4 [58]
0	0x354b4713	7.572682e-07
1	0x34b90b1d	3.446702e-07
2	0xb584fcec	-9.908376e-07
3	0xb5c49536	-1.4646564e-06
4	0x351f83fd	5.9424184e-07
5	0x35405e47	7.1662765e-07
6	0x36c16a80	5.7642465e-06
7	0xb61f983b	-2.3781456e-06
8	0x36857756	3.9776014e-06
9	0x309a796f	1.1239488e-09
10	0xb522b7f5	-6.0617396e-07
11	0xb3c4b6c7	-9.160208e-08
12	0x358a06b9	1.0283758e-06
13	0xb50abe27	-5.1685714e-07
14	0xb58b0abe	-1.0359433e-06
15	0xb5a74a4d	-1.2464094e-06
16	0xb4b43644	-3.3567096e-07
17	0xb5856343	-9.938161e-07
18	0xb6549ade	-3.1680606e-06
19	0xb44e911d	-1.9238037e-07
20	0x34b7c092	3.422652e-07
21	0x34d97d16	4.0510412e-07
22	0xb5b90eb2	-1.3787851e-06
23	0x35448056	7.3202443e-07
24	0xb4cf4963	-3.861015e-07
25	0x3539b889	6.9186405e-07
26	0x366ae3ed	3.5001387e-06
27	0xb389cca5	-6.416784e-08
28	0xb592ec35	-1.0946593e-06
29	0xb6e67d8a	-6.869149e-06
30	0x356601c4	8.5684246e-07
31	0x350c1b5d	5.2193883e-07
32	0xb5087d38	-5.0846165e-07
33	0xb49d89c6	-2.9343772e-07
34	0x36d7238c	6.4116375e-06
35	0xb5a94ff1	-1.2614747e-06
36	0x35e2beff	1.6893899e-06
37	0xb5bc2416	-1.4017594e-06
38	0xb40a48e5	-1.287877e-07
39	0xb5a39bf8	-1.2189839e-06
40	0xb58dcbc0	-1.0564618e-06
41	0x341c6bcc	1.4567848e-07
42	0x339f75f2	7.4254686e-08
43	0x351d714e	5.865194e-07
44	0x35971f11	1.1259418e-06
45	0x3591e70f	1.0870589e-06
46	0x34a1bae1	3.012456e-07
47	0xb5915af4	-1.0829813e-06
48	0xb503a1fb	-4.9037016e-07
49	0xb3a42f83	-7.6454874e-08
50	0x3455aa1d	1.9899058e-07
51	0xb4a2c09a	-3.0314987e-07
52	0xb652e712	-3.142694e-06
53	0xb5dad052	-1.6302895e-06
54	0xb4ffc493	-4.7640478e-07
55	0xb4c13863	-3.5990078e-07
56	0xb57e1f4c	-9.4667917e-07
57	0x350d351e	5.260389e-07

encoder.convs.0.convs.<user___healthness___food>.lin_src.weight f4 [58, 29]
0	0x3e44da19	0.19223823
1	0xbcc0a476	-0.023515921
2	0xbd8222e5	-0.06354312
3	0xbe4d0f42	-0.20025352
4	0xbd863105	-0.065523185
5	0xbe000bb9	-0.12504472
6	0x3d8957a5	0.0670617
7	0x3bea778f	0.007155366
8	0xbd866c13	-0.06563582
9	0xbd31e0cf	-0.043427285
10	0x3e836d82	0.25669485
11	0x3e635ad5	0.22202618
12	0xbe817b81	-0.25289539
13	0x3dcccdad	0.10000167
14	0x3eaac361	0.33352187
15	0xbe608b0e	-0.21928045
16	0xbe04ac7a	-0.1295642
17	0x3e09c073	0.1345232
18	0x3ecc9f23	0.39965162
19	0xbd02f2bc	-0.03196977
20	0xbf304760	-0.6885891
21	0x3ed59cb6	0.41721123
22	0x3f2363c8	0.6382413
23	0xbd9cddb7	-0.07659476
24	0x3980b0b5	0.0002454572
25	0x3dbe3594	0.09287563
26	0xbef3dc39	-0.47628954
27	0xbd52337c	-0.05131863
28	0x3e81d4da	0.25357705
29	0xbda2aac6	-0.07942729
30	0xbedd0c83	-0.43173608
31	0x3df2f1fc	0.11862561
32	0x3d9d06ce	0.076673135
33	0x3d2649fe	0.04059791
34	0xbeab12c9	-0.3341277
35	0xbcd6dbaa	-0.02622779
36	0x3dc49884	0.095994025
37	0xbdb40dd4	-0.087917
38	0xbe96189d	-0.29315653
39	0x3ea5fe2a	0.32420474
40	0x3d6c8fb5	0.057754237
41	0xb9535fed	-0.00020158263
42	0x3e2acf58	0.16680658
43	0x3e2a2c4a	0.16618457
44	0x3e6202ce	0.22071382
45	0xbd0c81af	-0.034303363
46	0xbdad6072	-0.08465661
47	0x3eb1bf42	0.3471623
48	0x3daa47b9	0.08314461
49	0xbe8fe75c	-0.281062
50	0x3e2b9be2	0.16758683
51	0x3eb8f4b5	0.36124197
52	0x3ef76eb8	0.4832666
53	0x3ea45555	0.32096353
54	0xbe8b48f6	-0.27204102
55	0xbdf152f7	-0.117834024
56	0xbe19e5cd	-0.15029068
57	0xbe57401c	-0.2102055
58	0x3d871fc5	0.065978564
59	0xbe5d888b	-0.21634118
60	0x3e1297cb	0.14315717
61	0xbe819961	-0.2531233
62	0xbe294122	-0.16528752
63	0xbe61aeef	-0.22039388
64	0xbe886160	-0.2663679
65	0x3d9de605	0.07709888
66	0x3d9b4816	0.07582109
67	0xbe3f2fab	-0.18670528
68	0xbe00e266	-0.12586364
69	0xbd9ac005	-0.07556156
70	0x3ed9e24b	0.4255546
71	0x3c09ae38	0.008403353
72	0xbe9f2afc	-0.31087482
73	0xbe7411f3	-0.23834972
74	0x3ef77acc	0.48335874
75	0xbea441de	-0.32081503
76	0xbe3cb7c1	-0.18429472
77	0x3eb3ceb6	0.35118645
78	0x3dfecaaa	0.12440999
79	0xbda9ee36	-0.08297388
80	0xbcf9dab9	-0.030499803
81	0x3e99bad9	0.30025366
82	0x3e1b7a64	0.15183407
83	0xbe867d0e	-0.26267284
84	0x3f0f26a6	0.5591835
85	0xbe3894a0	-0.18025446
86	0xbde29daa	-0.11065228
87	0xbe1fe9a9	-0.15616478
88	0x3f085da6	0.53267896
89	0xbef1c61e	-0.47221464
90	0x3e01e370	0.12684417
91	0x3d8b9b8a	0.06816776
92	0x3cab2015	0.020889321
93	0x3ead5f37	0.33861706
94	0xbe6ee978	-0.23331249
95	0xbeb9ab37	-0.3626344
96	0x3e188f96	0.14898524
97	0xbcf8993f	-0.030346511
98	0xbe763947	-0.24045287
99	0xbe618aac	-0.22025555
100	0x3d36360f	0.044485148
101	0x3d1a9d65	0.03774776
102	0xbe014799	-0.12624969
103	0x3c84a924	0.016193934
104	0xbe49b12f	-0.19696496
105	0xbea484c8	-0.32132554
106	0xbeab4c0f	-0.33456466
107	0x3f09b7ac	0.53795886
108	0xbe2c25ab	-0.16811244
109	0x3cf829ea	0.030293424
110	0xbf0aae6d	-0.541724
111	0xbee01373	-0.4376484
112	0x3edcf8a5	0.4315845
113	0xbdc9089b	-0.098160945
114	0x3f13c8e1	0.5772839
115	0x3ece238d	0.40261498
116	0x3d65d826	0.05611434
117	0x3e331ef3	0.17492275
118	0xbd9fbd9c	-0.07799837
119	0x3cfbba4a	0.030728478
120	0xbe8507e7	-0.25982592
121	0x3e87be0b	0.2651218
122	0x3ebe1489	0.37125042
123	0xbc9dc5f5	-0.019259432
124	0xbe5b5467	-0.21418916
125	0xbcfc7391	-0.030816825
126	0x3cb0d4c8	0.021585837
127	0xb8ce74e2	-9.8446166e-05
128	0x3e00c365	0.12574537
129	0x3da3a5fd	0.07990644
130	0xbcd8ebf9	-0.026479708
131	0xbe0c66b0	-0.13711047
132	0x3d295074	0.04133649
133	0xbe75706a	-0.23968664
134	0xbec421a6	-0.38306922
135	0xbf05e34d	-0.5229996
136	0x3dd40b5f	0.10353731
137	0xbe70391d	-0.23459287
138	0xbe76addf	-0.24089764
139	0xbd313810	-0.043266356
140	0xbe2e60ea	-0.17029157
141	0x3e80942c	0.25113046
142	0xbd9cc50b	-0.076547705
143	0x3cd947b8	0.026523456
144	0x3c73067b	0.014833088
145	0xbd90b6e5	-0.07066134
146	0x3e9b5279	0.3033636
147	0x3d98004a	0.0742193
148	0x3d4982de	0.04919707
149	0xbe9df61a	-0.30851823
150	0x3e47bb2f	0.19504999
151	0x3e81523b	0.2525805
152	0xb97997d1	-0.00023803046
153	0xbe674a33	-0.22586899
154	0x3c4fab47	0.012675113
155	0xbd827472	-0.063698664
156	0x3e7366e7	0.23769723
157	0x3d7ee6ea	0.062231936
158	0x3e0b91ad	0.1362979
159	0xbedb3bed	-0.42819157
160	0x3d58f714	0.052970007
161	0x3e885d96	0.266339
162	0xbe57d170	-0.21075988
163	0xbdfe0e7f	-0.12405109
164	0xbe3b9d20	-0.18321657
165	0x3eb490f3	0.35266837
166	0xbe7fce5a	-0.2498106
167	0xbe8b58dd	-0.27216235
168	0xbe558826	-0.20852718
169	0x3c7ce8fe	0.015436409
170	0x3e863779	0.26214197
171	0x3e70e66b	0.23525397
172	0x3e9e722c	0.3094648
173	0xbd633cc6	-0.05547788
174	0x3e606b9d	0.21916051
175	0x3ecc2c85	0.39877716
176	0xbea7c3da	-0.3276661
177	0xbd3a12f7	-0.045428243
178	0xbeb558c4	-0.35419285
179	0x3b992046	0.0046730367
180	0x3dc8fa1b	0.09813329
181	0xbdae6acc	-0.08516464
182	0xbc94f4d3	-0.018183148
183	0x3e8c39c6	0.27387828
184	0xbeded1a1	-0.4351931
185	0xbd3dbb3f	-0.04632115
186	0x3ca9049a	0.020632077
187	0x3c34f9f5	0.0110459225
188	0xbe125ae2	-0.14292482
189	0x3e6b6295	0.22986825
190	0x3e93feba	0.28905278
191	0xbe8b1cfe	-0.27170557
192	0xbd9ba576	-0.075999185
193	0xbd7128de	-0.058876865
194	0x3eb1abc6	0.34701365
195	0xbea81c6e	-0.3283419
196	0x3cef38f0	0.029201955
197	0xbe882e27	-0.2659771
198	0xbdd88b2e	-0.105734214
199	0xbd9b10d0	-0.07571566
200	0x3dfc86ee	0.12330423
201	0x3e7cb8fd	0.24679942
202	0x3e247c61	0.16063072
203	0xbda7abee	-0.0818709
204	0xbebf3e36	-0.3735215
205	0x3eff36e4	0.49846566
206	0xbd708685	-0.058722038
207	0x3de0b8ea	0.109727696
208	0xbe07b7f8	-0.13253772
209	0xbe9d013c	-0.30665004
210	0x3d9ee650	0.077587724
211	0x3d43fde2	0.047849543
212	0xbe1bb1fa	-0.15204611
213	0x3ee4b95c	0.44672668
214	0xbe41b52d	-0.1891677
215	0x3e948564	0.2900802
216	0x3d124ed2	0.0357197
217	0x3ee4f56b	0.4471849
218	0xbe6a98f7	-0.22909914
219	0x3da8fc1e	0.082512125
220	0x3d873840	0.06602526
221	0x3e96e498	0.29471278
222	0x3f0abd79	0.5419536
223	0xbf180e3f	-0.5939674
224	0x3ea3872f	0.31939074
225	0x3dd6d335	0.10489503
226	0x3e51a2b3	0.20472221
227	0x3e433f8b	0.19067208
228	0xbdfdb852	-0.12388672
229	0xbd9692c0	-0.07352209
230	0xbe8174ac	-0.25284326
231	0x3dad9f55	0.08477656
232	0x3e009c6c	0.1255967
233	0x3e52a136	0.2056931
234	0xbd4106c4	-0.047125593
235	0xbe15cac3	-0.14628129
236	0xbb96de31	-0.004604124
237	0xbe8f0684	-0.2793466
238	0xbc0bc00f	-0.008529677
239	0x3c2faa9b	0.010721828
240	0xbe30f365	-0.17280348
241	0x3e2af7da	0.1669611
242	0x3e824506	0.25443286
243	0x3e73c747	0.23806487
244	0xbe85f4c3	-0.261633
245	0x3e91e5b2	0.28495556
246	0x3e5f6687	0.21816455
247	0xbd1cf349	-0.038317952
248	0xbe6f6cd3	-0.23381357
249	0x3dc53fc9	0.09631307
250	0x3f0e57d5	0.5560277
251	0x3ea2f25e	0.31825536
252	0xbe1f4477	-0.15553461
253	0x3e994b5a	0.299403
254	0x3eb08eaa	0.34483844
255	0xbdaa65fe	-0.08320235

encoder.convs.0.convs.<user___healthness___food>.lin_dst.weight f4 [58, 17]
0	0x3e87c289	0.26515606
1	0xbe39bb9e	-0.18137977
2	0x3d184f1b	0.037184816
3	0x3c41339a	0.011792088
4	0x3e113662	0.14180902
5	0x3d73f6e0	0.05956161
6	0x3e8873d8	0.26650882
7	0x3e6f07f9	0.23342885
8	0x3e191ca6	0.14952335
9	0x3dbde84a	0.09272821
10	0x3cd464ee	0.025927033
11	0xb9dbf1af	-0.00041951003
12	0x3d55fd6f	0.052243646
13	0xbe11e373	-0.14246921
14	0x3d84f783	0.064925216
15	0xbe8639e1	-0.26216033
16	0x3de5d8d7	0.112229995
17	0xbe3a6ae4	-0.18204838
18	0x3e473625	0.19454248
19	0x3d94ebc0	0.07271528
20	0xbc0973c1	-0.008389414
21	0x3e09650e	0.13417456
22	0xbe01fbb6	-0.12693676
23	0x3e6cbd02	0.23118976
24	0x3db99011	0.090606816
25	0x3daa2c4c	0.0830923
26	0xbdc4623b	-0.095890485
27	0xbe8a2194	-0.26978743
28	0xbe4ecbfa	-0.20194998
29	0xbe7bd718	-0.2459377
30	0xbd4a1879	-0.049339745
31	0x3d72c413	0.059269022
32	0x3e3da3a8	0.18519461
33	0x3dcfe53f	0.10151147
34	0x3d51b0f5	0.05119415
35	0xbe51b4f5	-0.20479186
36	0x3e08351a	0.13301507
37	0x3c4d394a	0.012525866
38	0x3ddb0d9e	0.10695957
39	0xbdb48672	-0.08814706
40	0xbe8dba64	-0.27681267
41	0x3e694593	0.22780447
42	0xbe60e754	-0.21963245
43	0xbe07d614	-0.13265258
44	0x3de9df05	0.11419491
45	0xbe38a89b	-0.18033068
46	0x3e104fd3	0.1409295
47	0xbe7f3a49	-0.24924578
48	0x3ef30c51	0.47470334
49	0x3decb693	0.11558261
50	0xbe6f99b2	-0.23398474
51	0xbd96c61e	-0.073620066
52	0xbe5ba91b	-0.21451227
53	0xbe220c4b	-0.15825002
54	0xbe43ba9e	-0.19114158
55	0xbd886b6a	-0.066611126
56	0x3e45c7c8	0.19314492
57	0x3df9c47b	0.12195679
58	0x3e244d63	0.16045146
59	0x3e4ff4f8	0.20308292
60	0xbde7e68f	-0.113232724
61	0x3dad20f7	0.08453553
62	0x3e7134ef	0.23555349
63	0xbd3a168a	-0.04543165
64	0xbbeed4d6	-0.0072885556
65	0x3efda383	0.49538812
66	0x3e84452c	0.25834024
67	0xbe3c38f9	-0.18381108
68	0x3df07b13	0.117422245
69	0x3e218bbf	0.15775965
70	0x3e2a945f	0.16658162
71	0xbe47f06d	-0.19525309
72	0x3e8e8f54	0.27843726
73	0x3d9c1874	0.076218516
74	0xbbe0be9a	-0.006858659
75	0x3dd132d7	0.10214775
76	0x3e4336de	0.19063899
77	0xbcc23839	-0.02370845
78	0x3e641ff1	0.2227781
79	0x3dca86af	0.0988897
80	0xbdf2ad7f	-0.11849498
81	0xbe4dad66	-0.20085678
82	0x3ea77cc5	0.3271238
83	0x3e1d76a4	0.15377289
84	0xbd842fde	-0.064544424
85	0x3e43d65d	0.19124742
86	0x3df1ee4b	0.11813029
87	0x3e873bc9	0.264128
88	0xbd90b126	-0.070650384
89	0x3e7d42a3	0.24732451
90	0xbe33dc75	-0.17564566
91	0xbe2351be	-0.15949151
92	0x3d4121a1	0.04715121
93	0xbe1797bc	-0.14803976
94	0xbdc00069	-0.09375078
95	0xbd20461e	-0.03912937
96	0x3d410bc6	0.04713037
97	0xbd604bae	-0.054759674
98	0xbe74162e	-0.23836586
99	0xbd8aae75	-0.06771556
100	0x3e918617	0.28422615
101	0x3dd85d82	0.1056471
102	0xbe86967e	-0.2628669
103	0xbdf8cc1b	-0.12148305
104	0x3a045218	0.00050476333
105	0x3d86637b	0.06561943
106	0xbdd97999	-0.10618896
107	0xbe38f89e	-0.1806359
108	0xbd1b570b	-0.037924808
109	0xbe31f501	-0.17378618
110	0xbcd3de9f	-0.02586299
111	0x3da98bac	0.082785934
112	0xbe591310	-0.21198678
113	0xbe85ecad	-0.26157132
114	0x3e5dd9a4	0.21665055
115	0x3e6cea4d	0.23136254
116	0xbe4fa029	-0.2027594
117	0x3da79dfc	0.0818443
118	0xbd31c5a3	-0.04340137
119	0x3cf94e65	0.03043289
120	0xbc230641	-0.0099502215
121	0xbe2e35e5	-0.17012747
122	0x3e8ecc25	0.27890125
123	0xbe3d1add	-0.18467279
124	0xbbcf30ad	-0.0063229413
125	0xbe3eddd9	-0.18639316
126	0xbe33b5b1	-0.17549779
127	0x3e2575b7	0.16158186
128	0x3e49fe29	0.1972586
129	0xbe8dd609	-0.27702358
130	0x3e63aea5	0.2223459
131	0xbde59188	-0.112093985
132	0xbe675ed5	-0.2259477
133	0xbe6cae4a	-0.23113361
134	0xbe964402	-0.2934876
135	0x3d7c71f5	0.061632115
136	0x3e84347e	0.25821298
137	0x3c687a3e	0.014189301
138	0x3e067c45	0.13133343
139	0x3d84187f	0.06449985
140	0x3e44bc0c	0.19212359
141	0xbe8188d3	-0.252997
142	0xbd08502c	-0.033279583
143	0xbe1b270b	-0.15151612
144	0xbd0e6e7c	-0.034773335
145	0x3e921120	0.2852869
146	0x3bf58fd2	0.0074939514
147	0xbe483272	-0.19550493
148	0xbe449f80	-0.1920147
149	0xbe39b21d	-0.18134351
150	0xbd9b81c8	-0.07593113
151	0x3dd818ba	0.10551591
152	0xbdc26b9b	-0.0949318
153	0xbd9ae2b2	-0.0756277
154	0x3e66ee0f	0.2255175
155	0xbe3abb85	-0.18235596
156	0xbdc13197	-0.09433287
157	0xbe089edc	-0.1334185
158	0xbe3a8efc	-0.18218607
159	0xbddbeb36	-0.10738222
160	0xbe1a06fe	-0.1504173
161	0x3df6be4a	0.120480135
162	0x3e2eec42	0.17082313
163	0x3e139c69	0.14415134
164	0x3e413328	0.18867171
165	0xbe5fce02	-0.2185593
166	0xbe1b0688	-0.1513921
167	0xbe521c03	-0.20518498
168	0xbe8dd37e	-0.27700418
169	0xbe73adec	-0.23796815
170	0x3e2509b4	0.16116983
171	0xbd4afdf4	-0.049558595
172	0x3e8f879f	0.28033158
173	0xbe70f27d	-0.23530002
174	0x3e8cbe50	0.27488947
175	0x3e901d4b	0.2814735
176	0xbd9c0e0e	-0.07619868
177	0xbe761086	-0.2402974
178	0xbdacf30f	-0.08444797
179	0x3e35305a	0.17694226
180	0xbe43fbd2	-0.1913903
181	0x3e0d87b6	0.13821301
182	0x3e852865	0.2600738
183	0xbe35b764	-0.17745739
184	0xbea26b1b	-0.3172234
185	0x3dc9284e	0.09822141
186	0x3e328548	0.17433655
187	0x3d469b00	0.048487663
188	0xbdc70e04	-0.0971947
189	0xbe154c5f	-0.14579915
190	0x3c19cd63	0.009387347
191	0xbe230a9e	-0.15922019
192	0x3c09a57b	0.00840127
193	0xbd43c49c	-0.047794923
194	0x3e2d249f	0.16908501
195	0x3d9666e8	0.073438466
196	0xbe2f0248	-0.17090714
197	0x3c97e30b	0.01854088
198	0xbd7e6747	-0.06211021
199	0x3db22cdd	0.08699963
200	0x3dd6ab7b	0.10481926
201	0x3e7e54ef	0.24837087
202	0x3dd3de0f	0.10345089
203	0x3d3f72fe	0.046740524
204	0x3e842bc7	0.2581465
205	0xbd534d8e	-0.051587634
206	0x3c408900	0.011751413
207	0xbe1b8320	-0.15186739
208	0xbe10acdc	-0.1412844
209	0x3e717848	0.2358104
210	0x3da1cc39	0.079002805
211	0x3e04790d	0.12936802
212	0x3e776576	0.24159798
213	0x3e634221	0.22193195
214	0xbe7a700d	-0.24456806
215	0x3dd26a5c	0.10274193
216	0x3e5e7fca	0.21728435
217	0x3d79ff98	0.06103477
218	0x3ef9c59e	0.48783582
219	0x3e62337c	0.22089952
220	0xbd7a3972	-0.06108994
221	0x3e7e7f65	0.24853285
222	0xbd016723	-0.0315925
223	0xbe6450c9	-0.22296442
224	0x3e352f1d	0.17693754
225	0xbe854763	-0.26031026
226	0xbe24bc09	-0.16087355
227	0x3d6c34ce	0.057667546
228	0xbd821d13	-0.06353202
229	0xbd9fb7ed	-0.07798753
230	0x3e3f0d3a	0.1865739
231	0xbcc6aae5	-0.02425141
232	0xbe3b6310	-0.18299508
233	0x3e7dd18a	0.24786964
234	0x3dfc21d5	0.123111404
235	0x3ec01197	0.3751342
236	0x3de75484	0.11295417
237	0x3e6b3972	0.22971132
238	0x3e545b78	0.20738018
239	0x3e3051b3	0.17218666
240	0xbdae43bd	-0.08509014
241	0xbe604967	-0.21903001
242	0x3e3396a0	0.17537928
243	0x3de56b44	0.112021
244	0x3d275edd	0.040861953
245	0x3e0b0d06	0.13579187
246	0xbe5dbc06	-0.21653756
247	0xbd75bf1b	-0.059996706
248	0x3b1254be	0.0022328342
249	0x3dd1a3ee	0.10236345
250	0x3e5be3f6	0.21473679
251	0x3cd54e2f	0.026038257
252	0xbed20c57	-0.4102504
253	0xbc905053	-0.017616427
254	0xbe824322	-0.25441843
255	0x3e2b2383	0.16712765

encoder.convs.0.convs.<user___healthness___food>.lin_edge.weight f4 [58, 1]
0	0xbda67338	-0.08127445
1	0x3da752c8	0.08170086
2	0x3d914a80	0.07094288
3	0xbcef3320	-0.029199183
4	0x3e697d50	0.22801709
5	0x3e61f80c	0.22067279
6	0x3e7cc280	0.24683571
7	0x3e6aa5ac	0.22914761
8	0x3c2407a0	0.010011584
9	0xbc7b91a0	-0.015354544
10	0x3e7a5d7c	0.24449724
11	0x3d2f8ae0	0.04285705
12	0x3e8baf4e	0.27282184
13	0x3c55d0a0	0.013050228
14	0xbe7898c6	-0.24277028
15	0xbe5f4830	-0.21804881
16	0x3e16b98a	0.14719215
17	0x3e4e797c	0.2016353
18	0x3dd84fb0	0.10562074
19	0x3e7f88c4	0.24954516
20	0x3e981bfc	0.2970885
21	0xbe0c93c7	-0.13728248
22	0x3dc1be24	0.094600946
23	0x3d5b9c00	0.05361557
24	0xbd1f1a38	-0.038843364
25	0xbe88d659	-0.26726034
26	0xbe7c2769	-0.24624409
27	0x3e0f70e2	0.14007905
28	0xbe0d63d9	-0.1380762
29	0xbdfd7004	-0.12374881
30	0xbe332ab4	-0.17496759
31	0xbe09d18e	-0.13458845
32	0x3e102a08	0.14078534
33	0xbe6822d8	-0.22669542
34	0x3e11b8f8	0.14230716
35	0xbce76090	-0.028244287
36	0x3e2726ea	0.16323438
37	0xbe2e0d95	-0.16997369
38	0x3de7e698	0.11323279
39	0x3d9027e0	0.070388556
40	0x3e7398cc	0.23788756
41	0x3e4bff08	0.19921505
42	0x3cd20e10	0.025641471
43	0x3e8a407a	0.27002317
44	0xbe7493a2	-0.23884442
45	0xbddd7382	-0.10813047
46	0x3e095c48	0.13414109
47	0x3e3333b4	0.17500192
48	0xbe697e16	-0.22802004
49	0xbdbe6d38	-0.092981756
50	0x3e8158fc	0.25263202
51	0xbe8c77ce	-0.27435154
52	0x3e0faa8a	0.14029899
53	0x3ea1d0f2	0.31604725
54	0xbdf253c6	-0.11832385
55	0xbd124a18	-0.035715193
56	0x3da596b0	0.08085382
57	0x3e15e9e8	0.1464001

encoder.convs.0.convs.<user___eats___food>.att_src f4 [1, 1, 58]
0	0x3e84ccf9	0.25937632
1	0xbec3a548	-0.38212037
2	0xbc579c21	-0.013159783
3	0x3e93b540	0.2884922
4	0x3e8f099d	0.27937022
5	0xbe8f2d74	-0.27964365
6	0xbec7a4d3	-0.38992938
7	0xbdd6b3e9	-0.10483534
8	0x3e13ee91	0.14446475
9	0x3f069c43	0.52582186
10	0x3ece56d7	0.4030063
11	0xbeb9aabf	-0.3626308
12	0x3ed06359	0.40700796
13	0xbdb3c018	-0.08776873
14	0xbddc6499	-0.10761375
15	0xbdfe3e73	-0.12414255
16	0xbe4c04ad	-0.19923659
17	0xbe23a0a1	-0.15979244
18	0xbea9971a	-0.33123094
19	0xbc81920f	-0.015816716
20	0xbe145162	-0.1448417
21	0x3d57f0d7	0.052719917
22	0x3ec668c5	0.38751808
23	0xbeb4b912	-0.35297447
24	0x3ebf29bf	0.37336537
25	0xbd036efa	-0.032088257
26	0xbe90ec86	-0.28305453
27	0x3d9e1a24	0.0771983
28	0x3dbe4ddb	0.092921935
29	0xbd8ce1f8	-0.068790376
30	0xbec6717e	-0.38758463
31	0xbec175b6	-0.3778512
32	0x3ecab818	0.39593577
33	0x3d930c7e	0.07180117
34	0xbcfc7ccf	-0.030821232
35	0xbd82b27e	-0.06381701
36	0xbe3c1936	-0.18368992
37	0xbd93b259	-0.072117515
38	0x3e1eede0	0.1552043
39	0xbe22788a	-0.15866295
40	0xbe0e6f6c	-0.13909692
41	0x3eb9de89	0.36302593
42	0xbea967f0	-0.3308711
43	0xbefc36d2	-0.49260575
44	0xbef780a8	-0.48340344
45	0xbcea3ba6	-0.028592896
46	0xbeaf6a94	-0.34261
47	0x3d15d4ae	0.03657978
48	0xbe256716	-0.16152605
49	0x3e1057da	0.14096013
50	0xbe135c73	-0.14390735
51	0x3e539033	0.20660476
52	0x3d84ca06	0.064838454
53	0x3d0b9c18	0.03408441
54	0xbeb80e40	-0.35948372
55	0x3ee46be7	0.44613573
56	0x3ed0bc44	0.40768635
57	0xbf02f0ed	-0.51148874

encoder.convs.0.convs.<user___eats___food>.att_dst f4 [1, 1, 58]
0	0x3d97c768	0.074110806
1	0xbb84aa34	-0.00404861
2	0xbe907892	-0.28216988
3	0x3e1eab04	0.15494925
4	0x3d8f591b	0.069994174
5	0x3de5f44a	0.11228235
6	0x3cdc8fbf	0.026924012
7	0xbdd11143	-0.102083705
8	0xbe9364e6	-0.28787917
9	0xbe0ef0c5	-0.13959034
10	0xbd2d02ec	-0.042239115
11	0x3e17d92b	0.14828937
12	0xbd53bf2d	-0.05169599
13	0x3c8390ea	0.016060311
14	0xbe06d40a	-0.13166824
15	0x3e15cbf7	0.14628588
16	0xbdeb943a	-0.11502881
17	0x3e043a1d	0.12912793
18	0xbe1f1a98	-0.15537488
19	0x3e9678b6	0.2938897
20	0xbe5be5ac	-0.21474332
21	0x3c0b5d97	0.0085062
22	0xbe2bd31c	-0.1677975
23	0x3ca7c602	0.02048016
24	0xbecd3339	-0.40078142
25	0x3e4bd46b	0.1990525
26	0xbea51788	-0.32244515
27	0x3eba9fec	0.36450136
28	0x3c9fdbfe	0.01951408
29	0x3e312a9d	0.17301412
30	0xbd31c65b	-0.043402057
31	0xbe64aaa6	-0.22330722
32	0xbdb79690	-0.089642644
33	0x3ebb3f6c	0.36571825
34	0xbe570826	-0.20999202
35	0xbe457bda	-0.19285527
36	0x3d1957b4	0.037437156
37	0x3e5bb6c5	0.2145644
38	0x3d8500c3	0.06494286
39	0xbea92de0	-0.33042812
40	0x3d454002	0.048156746
41	0xbea68c88	-0.32529092
42	0xbd23dbe7	-0.040004637
43	0xbe06d14d	-0.1316578
44	0xbd0c3e32	-0.034239
45	0x3da5d896	0.08097951
46	0xbdbeb5e2	-0.09312035
47	0x3dc4c761	0.09608341
48	0x3e71dbee	0.23619053
49	0xbd1b63eb	-0.037937086
50	0xbe099c9f	-0.13438652
51	0x3e015478	0.12629879
52	0x3da004ad	0.07813392
53	0xbd454a32	-0.04816646
54	0x3e819fc1	0.25317195
55	0xbab88e94	-0.0014080578
56	0xbe2c4ef2	-0.1682699
57	0xbecd3c49	-0.40085056

encoder.convs.0.convs.<user___eats___food>.bias f4 [58]
0	0x354b4713	7.572682e-07
1	0x34b90b1d	3.446702e-07
2	0xb584fcec	-9.908376e-07
3	0xb5c49536	-1.4646564e-06
4	0x351f83fd	5.9424184e-07
5	0x35405e47	7.1662765e-07
6	0x36c16a80	5.7642465e-06
7	0xb61f983b	-2.3781456e-06
8	0x36857756	3.9776014e-06
9	0x309a796f	1.1239488e-09
10	0xb522b7f5	-6.0617396e-07
11	0xb3c4b6c7	-9.160208e-08
12	0x358a06b9	1.0283758e-06
13	0xb50abe27	-5.1685714e-07
14	0xb58b0abe	-1.0359433e-06
15	0xb5a74a4d	-1.2464094e-06
16	0xb4b43644	-3.3567096e-07
17	0xb5856343	-9.938161e-07
18	0xb6549ade	-3.1680606e-06
19	0xb44e911d	-1.9238037e-07
20	0x34b7c092	3.422652e-07
21	0x34d97d16	4.0510412e-07
22	0xb5b90eb2	-1.3787851e-06
23	0x35448056	7.3202443e-07
24	0xb4cf4963	-3.861015e-07
25	0x3539b889	6.9186405e-07
26	0x366ae3ed	3.5001387e-06
27	0xb389cca5	-6.416784e-08
28	0xb592ec35	-1.0946593e-06
29	0xb6e67d8a	-6.869149e-06
30	0x356601c4	8.5684246e-07
31	0x350c1b5d	5.2193883e-07
32	0xb5087d38	-5.0846165e-07
33	0xb49d89c6	-2.9343772e-07
34	0x36d7238c	6.4116375e-06
35	0xb5a94ff1	-1.2614747e-06
36	0x35e2beff	1.6893899e-06
37	0xb5bc2416	-1.4017594e-06
38	0xb40a48e5	-1.287877e-07
39	0xb5a39bf8	-1.2189839e-06
40	0xb58dcbc0	-1.0564618e-06
41	0x341c6bcc	1.4567848e-07
42	0x339f75f2	7.4254686e-08
43	0x351d714e	5.865194e-07
44	0x35971f11	1.1259418e-06
45	0x3591e70f	1.0870589e-06
46	0x34a1bae1	3.012456e-07
47	0xb5915af4	-1.0829813e-06
48	0xb503a1fb	-4.9037016e-07
49	0xb3a42f83	-7.6454874e-08
50	0x3455aa1d	1.9899058e-07
51	0xb4a2c09a	-3.0314987e-07
52	0xb652e712	-3.142694e-06
53	0xb5dad052	-1.6302895e-06
54	0xb4ffc493	-4.7640478e-07
55	0xb4c13863	-3.5990078e-07
56	0xb57e1f4c	-9.4667917e-07
57	0x350d351e	5.260389e-07

encoder.convs.0.convs.<user___eats___food>.lin_src.weight f4 [58, 29]
0	0x3e1303d4	0.14356929
1	0xbdb922df	-0.09039854
2	0xbe45479e	-0.19265601
3	0xbdf90088	-0.121583045
4	0xbdc576a8	-0.096417725
5	0x3c369ff1	0.011146531
6	0x3e3180ee	0.17334339
7	0x3c78fed6	0.015197476
8	0x3da6b167	0.081393056
9	0xbe83846e	-0.25686973
10	0x3dddf457	0.1083762
11	0xbe12d1bf	-0.14337824
12	0xbc4fafb7	-0.012676171
13	0xbabe5a63	-0.0014522787
14	0xbe19c7af	-0.1501758
15	0x3e1face0	0.1559329
16	0xbe13814a	-0.14404789
17	0x3e1b683d	0.15176482
18	0xbe96748b	-0.2938579
19	0xbdafe52c	-0.08588633
20	0x3ed1c31c	0.4096917
21	0xbe87e626	-0.26542777
22	0xbd100fd4	-0.035171345
23	0xbe959909	-0.2921832
24	0x3d3f4e09	0.04670528
25	0xbd96f374	-0.07370654
26	0x3e0f0a3f	0.13968752
27	0xbe877cae	-0.2646231
28	0x3e400fee	0.18756077
29	0xbe8dddd4	-0.27708304
30	0xbe97edec	-0.29673707
31	0xbd18f501	-0.03734303
32	0xbd0956d8	-0.033530086
33	0xbe464e5c	-0.19365829
34	0x3e6acf57	0.22930656
35	0xbd7761ec	-0.06039612
36	0x3dbd928a	0.09256466
37	0xbe458c6e	-0.19291851
38	0xbca9d377	-0.020730717
39	0xbc90d355	-0.017678896
40	0xbe61597b	-0.2200679
41	0x3dbdac0c	0.09261331
42	0xbea47e0a	-0.3212741
43	0x3e6d70bf	0.2318754
44	0x3d2ec943	0.042672407
45	0xbb91c17f	-0.0044481154
46	0x3e9a581c	0.30145347
47	0x3e9cdb11	0.30635884
48	0x3e9a92e5	0.30190197
49	0xbe9f9cf2	-0.31174427
50	0x3ea16bf9	0.3152769
51	0xbced9b91	-0.029004844
52	0x3e1fd63b	0.15609066
53	0xbe1830fc	-0.14862436
54	0xbe1c2862	-0.1524978
55	0xbdc55510	-0.09635365
56	0x3e101258	0.14069498
57	0xbec00e67	-0.37510988
58	0x3e6b8995	0.23001702
59	0x3de044b9	0.10950608
60	0xbe97a046	-0.29614466
61	0x3da1f8e4	0.079088
62	0xbe94154a	-0.28922492
63	0x3e1116df	0.14168881
64	0x3cacca66	0.021092605
65	0xbcbf09d6	-0.02332012
66	0x3dbe03b3	0.09278049
67	0xbba9de0f	-0.005183942
68	0xbd057feb	-0.032592695
69	0x3cc80c83	0.024420029
70	0xbda4be1e	-0.080440745
71	0xbdc1c469	-0.094612904
72	0xbce9cb43	-0.028539306
73	0x3d6fad87	0.058515098
74	0xbe76ba69	-0.24094547
75	0x3e101269	0.14069523
76	0x3e8c44fe	0.27396387
77	0x3ddd4235	0.108036436
78	0xbe91425b	-0.28370938
79	0xbd66e47a	-0.056370236
80	0x3df2a9d0	0.118487954
81	0x3d9ab5f0	0.07554233
82	0x3d320503	0.04346181
83	0x3d8cd0f4	0.06875792
84	0xbe390bc3	-0.18070893
85	0x3d9a8846	0.07545523
86	0xbcf2570e	-0.029582527
87	0x3e4f34c1	0.20234968
88	0x3e37f9f1	0.17966439
89	0xbd01b489	-0.031666312
90	0xbe4029ff	-0.1876602
91	0x3e20f849	0.15719713
92	0xbe39b9c2	-0.18137267
93	0x3d98d03e	0.07461594
94	0xbe78e3b1	-0.24305607
95	0x3d8c260f	0.068431966
96	0x3c6998b3	0.014257598
97	0x3d6663cf	0.05624753
98	0xbe4eed08	-0.20207608
99	0x3cf4a8f4	0.02986572
100	0xbe3a0286	-0.18165025
101	0xbe40f754	-0.18844348
102	0x3cd27609	0.02569105
103	0x3e8e9664	0.27849114
104	0xbeb6cb00	-0.35701752
105	0xbe8d5c5e	-0.27609533
106	0xbe8eaeec	-0.2786783
107	0x3e286bdd	0.16447397
108	0xbeacd9d5	-0.33759943
109	0xbe95a5a8	-0.29227948
110	0x3d26ec33	0.0407526
111	0x3e3a57a6	0.18197498
112	0xbe83fc5d	-0.25778475
113	0x3e6581ad	0.22412749
114	0x3e339bbb	0.17539875
115	0x3e926660	0.2859373
116	0x3eda5d43	0.42649278
117	0x3e62b9e4	0.22141224
118	0xbe849b53	-0.25899753
119	0xbd1e0cc9	-0.03858641
120	0x3e752f6f	0.23943876
121	0xbe6ac445	-0.22926433
122	0x3dd8622c	0.105656
123	0xbe30fcd7	-0.17283951
124	0x3e5c745c	0.21528763
125	0xbe0816da	-0.13289967
126	0xbe1f06da	-0.15529957
127	0xbe35e3ae	-0.17762634
128	0xbc6a514a	-0.014301607
129	0x3e9e04c9	0.30863026
130	0xbaff8c0a	-0.0019496691
131	0xbd246fa2	-0.040145524
132	0xbd8f7d8b	-0.07006367
133	0xbd6780c9	-0.056519303
134	0xbdca7b00	-0.09886742
135	0xbe431de6	-0.19054374
136	0xbd5bf616	-0.053701483
137	0x3ca89751	0.020579966
138	0xbe819ceb	-0.2531503
139	0xbe4da696	-0.20083079
140	0x3e3033f7	0.17207323
141	0xbe80e28d	-0.25172845
142	0x3d06a2e7	0.0328702
143	0x3e0e550f	0.13899635
144	0x3ea0fc5c	0.31442535
145	0xbe9869b6	-0.2976815
146	0xbe24ac3d	-0.16081329
147	0x3d83f08e	0.064423665
148	0xbe7fb47c	-0.24971193
149	0xbd701ef4	-0.05862327
150	0x3e361dc0	0.17784786
151	0xbe45bf21	-0.19311191
152	0xbdd7c463	-0.10535505
153	0x3e3623b2	0.17787054
154	0x3ea1b39a	0.31582338
155	0xbd0327b2	-0.03202028
156	0x3e69b899	0.22824325
157	0x3e413a8b	0.18869989
158	0xbe9e0a96	-0.3086745
159	0xbd01c611	-0.03168303
160	0xbb2def23	-0.0026540242
161	0xbe4b93d2	-0.19880608
162	0x3cbdd081	0.023170711
163	0x3e1702f1	0.14747216
164	0x3e87353e	0.26407808
165	0xbe381e08	-0.17980206
166	0x3e5d3c1d	0.21604963
167	0x3e4aeced	0.19816943
168	0x3dc0266d	0.09382329
169	0xbdb8a202	-0.090152755
170	0x3e25919a	0.16168824
171	0x3d26d7f7	0.040733304
172	0x3e75300f	0.23944114
173	0xbc57b915	-0.013166686
174	0xbe006312	-0.12537792
175	0xbdd1956e	-0.102335796
176	0x3d739fd2	0.05947859
177	0xbd052f85	-0.03251602
178	0xbe46b2aa	-0.19404092
179	0x3dd970b0	0.106171966
180	0xbe6522e2	-0.22376588
181	0xbd97291f	-0.0738089
182	0x3e1d6dd7	0.15373932
183	0xbe0255b7	-0.1272801
184	0x3ceaf0ba	0.02867924
185	0xbce7e32c	-0.028306566
186	0xbd9c8777	-0.07643025
187	0x3cc5bfd8	0.02413933
188	0x3d8b4b19	0.06801433
189	0x3e6dc144	0.23218256
190	0xbe9d4679	-0.3071783
191	0x3d9f08d2	0.07765354
192	0x3e62b33a	0.22138682
193	0x3eac1893	0.336125
194	0xbec7bcd9	-0.39011267
195	0x3e09ec08	0.13468945
196	0x3dcd173a	0.10014196
197	0xbd8428fa	-0.06453128
198	0xbe6e6b73	-0.23283176
199	0x3e60a622	0.21938375
200	0x3cf37b29	0.029721813
201	0x3d98c35f	0.07459139
202	0x3d3f95b4	0.046773627
203	0xbe2a7547	-0.166463
204	0x3e20f3f3	0.15718059
205	0x3eb20f8e	0.34777492
206	0xbe671f5c	-0.22570556
207	0x3eb18b52	0.34676605
208	0xbebdcbd9	-0.37069586
209	0xbbad5bc0	-0.0052904785
210	0xbd668539	-0.056279395
211	0x3ec1e84c	0.3787254
212	0xbe8da829	-0.2766736
213	0x3e208ec2	0.15679458
214	0xbe2c35de	-0.16817424
215	0x3b369478	0.002785949
216	0x3df6c16c	0.12048611
217	0xbe07290f	-0.13199256
218	0x3e22e561	0.15907814
219	0x3d4a8d69	0.049451265
220	0xbe8b82a5	-0.2724811
221	0x3df5eb07	0.120077185
222	0xbe95676e	-0.29180473
223	0x3e736cec	0.23772019
224	0xbe553db3	-0.20824318
225	0xbdd1614e	-0.102236375
226	0x3d8cb0a0	0.06869626
227	0x3dbb59a9	0.09147961
228	0xbe65405c	-0.22387832
229	0x3d33bee1	0.04388321
230	0x3dc40fe2	0.09573342
231	0x3e0b49a0	0.13602304
232	0xbe5d61a2	-0.21619275
233	0x3e998a6e	0.29988426
234	0x3e4ac958	0.19803369
235	0x3de96de1	0.11397911
236	0xbde1f4ed	-0.11033044
237	0xbe27d842	-0.1639109
238	0x3e001a3a	0.12510005
239	0x3db67bb6	0.08910315
240	0x3dba5392	0.09097971
241	0x3d943ac7	0.072377734
242	0xbcff9f3b	-0.031203857
243	0x3da6fe50	0.08153975
244	0x3e39fed7	0.1816362
245	0xbd0d607b	-0.03451584
246	0xbd88d81a	-0.06681843
247	0xbce3b1d6	-0.02779476
248	0x3cd4dca2	0.025984112
249	0x3d44ac1d	0.048015703
250	0xbdd5bea7	-0.10436755
251	0xbdbd0d05	-0.09230999
252	0xbca94ed0	-0.020667464
253	0xbd8eb734	-0.06968537
254	0x3dac6ffb	0.08419796
255	0xbeaab6bb	-0.33342537

encoder.convs.0.convs.<user___eats___food>.lin_dst.weight f4 [58, 17]
0	0xbdc34285	-0.09534172
1	0x3e0f1679	0.13973416
2	0xbe7963a7	-0.2435442
3	0xbdf575d8	-0.119853675
4	0x3a28060b	0.0006409592
5	0xbe501af8	-0.20322788
6	0x3d2b7d2e	0.041867428
7	0x3e3e725b	0.1859831
8	0xbd3617cb	-0.044456284
9	0xbe5befd7	-0.2147821
10	0xbe03d833	-0.12875442
11	0x3ccf8639	0.025332557
12	0x3e8aab97	0.27084038
13	0xbe38ba17	-0.18039738
14	0x3d36e26a	0.04464952
15	0xbdbc4628	-0.09193069
16	0xbd1ea6b9	-0.038733218
17	0xbd510793	-0.051032614
18	0xbd5cbb15	-0.053889353
19	0x3e38f153	0.18060808
20	0xbe8d6192	-0.27613503
21	0xbe7dbea9	-0.24779762
22	0x3e858cad	0.2608389
23	0xbe401129	-0.18756546
24	0x3d515bb7	0.051112857
25	0x3e85a3ed	0.26101628
26	0x3cd12b75	0.025533417
27	0xbda8f17c	-0.082491845
28	0x3e5bdb34	0.21470338
29	0x3e3d39fb	0.18479149
30	0xbd120e63	-0.03565825
31	0x3dca7f8c	0.09887609
32	0x3d55143e	0.052021258
33	0xbdeae1e6	-0.11468868
34	0xbe533895	-0.20627053
35	0xbeb2cbde	-0.34921163
36	0xbddfed8b	-0.109339796
37	0xbd605c6b	-0.054775637
38	0x3d8cef75	0.0688161
39	0xbe092a47	-0.13395034
40	0xbe05df93	-0.13073568
41	0x3d0fc69c	0.035101518
42	0x3dc7dc28	0.09758788
43	0x3d5fe8a9	0.05466524
44	0xbc679d1a	-0.014136577
45	0x3e010325	0.12598856
46	0xbe82e259	-0.25563315
47	0x3e7e0cc0	0.24809551
48	0xbe0bc34b	-0.13648717
49	0x3d084baf	0.033275302
50	0x3e546472	0.20741442
51	0x3dc69ed8	0.09698266
52	0x3eb40d4c	0.35166395
53	0xbdbff5b5	-0.09373037
54	0x3da0be1a	0.07848759
55	0xbcedb380	-0.029016256
56	0x3e3d377c	0.18478197
57	0xbe2ff4cc	-0.17183226
58	0x3d616bcd	0.055034447
59	0x3d71e763	0.05905856
60	0x3e2e3994	0.17014152
61	0xbd43abaa	-0.047771133
62	0xbdeec1a3	-0.11658027
63	0xbbaa5f45	-0.0051993453
64	0xbe38caaf	-0.18046068
65	0xbe2cee8e	-0.16887876
66	0xbe530fb2	-0.20611456
67	0xbe18ff30	-0.14941096
68	0x3e243b9c	0.16038364
69	0x3da4a56c	0.08039364
70	0xbddd8099	-0.10815544
71	0x3e6772a8	0.22602332
72	0x3e886f3f	0.26647374
73	0xbc53c401	-0.012925149
74	0xbe8d4a00	-0.2759552
75	0xbe204928	-0.15652907
76	0xbb27d1ad	-0.0025607154
77	0x3de06db8	0.10958427
78	0x3e673d60	0.22582006
79	0xbdc54137	-0.09631579
80	0xbd0337ad	-0.03203552
81	0x3d464586	0.048406146
82	0xbd948c85	-0.072533645
83	0xbe022b53	-0.1271184
84	0x3db5b815	0.088730015
85	0x3e751fd2	0.2393792
86	0xbd24b16a	-0.040208258
87	0x3d8bd328	0.06827384
88	0x3e17fec2	0.14843276
89	0x3acf924f	0.001583645
90	0x3dc07ffc	0.09399411
91	0xbe4f75be	-0.20259759
92	0x3e67fb86	0.22654542
93	0x3d94d6c2	0.07267524
94	0xbe21b56d	-0.15791865
95	0xbe8e4ca5	-0.2779285
96	0xbe0bd096	-0.13653788
97	0x3e88ec74	0.267429
98	0xbd25f1ff	-0.04051399
99	0x3e5b5756	0.21420035
100	0x3e08c458	0.13356149
101	0x3e0ca8b9	0.13736238
102	0x3d97320a	0.07382591
103	0x3d364fc8	0.04450968
104	0x3dcd8485	0.10035042
105	0x3c5527d3	0.013009983
106	0x3e679e01	0.22618867
107	0xbd9bf149	-0.07614381
108	0xbe00de85	-0.12584884
109	0xbe82a1a4	-0.25513947
110	0x3c6aec79	0.014338606
111	0x3e698553	0.22804765
112	0xbe78acde	-0.24284694
113	0xbc749f02	-0.014930489
114	0x3db290dd	0.08719037
115	0x3dece7ca	0.11567648
116	0xbdb038bf	-0.086045735
117	0x3d9b9b39	0.07597966
118	0xbdc5564c	-0.096356004
119	0xbe13f737	-0.14449774
120	0xbddc0a5a	-0.10744162
121	0xbe82b642	-0.25529677
122	0xbd0183d1	-0.03161985
123	0x3e647648	0.22310746
124	0xbd8980a1	-0.06713987
125	0x3ddc6ef6	0.107633516
126	0x3e88bdd5	0.2670733
127	0xbdfe7d4d	-0.12426243
128	0x3e8ff978	0.28120017
129	0xbe7604e6	-0.24025306
130	0xbe27f0cb	-0.16400449
131	0x3e2816af	0.16414903
132	0x3e8525ca	0.26005393
133	0xbd8c3601	-0.06846238
134	0xbd03e2b0	-0.032198608
135	0xbe56c08b	-0.20971887
136	0xbe702954	-0.23453265
137	0xbed4ed53	-0.41587314
138	0x3e814636	0.2524888
139	0xbe4bdbd4	-0.19908077
140	0x3d2e6b01	0.042582516
141	0x3e0ec466	0.13942108
142	0x3e8e191b	0.2775353
143	0xbe770e4f	-0.24126552
144	0xbc83684b	-0.016040942
145	0xbe27713b	-0.16351788
146	0xbe364df4	-0.17803174
147	0x3d55fae3	0.052241217
148	0x3d7b2def	0.061323103
149	0xbcc94754	-0.024570145
150	0x3e5d042b	0.21583621
151	0x3e47f59a	0.19527283
152	0x3e1cad13	0.15300398
153	0x3e05f778	0.13082683
154	0x3ce2ead3	0.027699864
155	0xbe3806ce	-0.17971346
156	0x3e3d2b95	0.18473656
157	0xbe4097a5	-0.18807848
158	0x3cffd07a	0.031227339
159	0x3e51c6ff	0.20486067
160	0x3e0fb3de	0.14033458
161	0x3e69ef4a	0.22845188
162	0x3c2aa752	0.010415869
163	0x3d80b488	0.062844336
164	0xbdb45fd3	-0.088073395
165	0xbe07395e	-0.13205478
166	0xbd9fc50b	-0.07801255
167	0xbe1c8ffb	-0.15289299
168	0x3e4cddee	0.20006534
169	0xbda18440	-0.07886553
170	0xbe87a3e7	-0.26492235
171	0x3d0fcfc0	0.035110235
172	0xbe52eb94	-0.20597678
173	0x3e699852	0.22812012
174	0xbe87476d	-0.2642168
175	0x3e1bc3e0	0.15211439
176	0xbe7add58	-0.24498498
177	0xbe7e895b	-0.24857084
178	0x3de55741	0.11198283
179	0x3e457809	0.19284071
180	0xbe9164f9	-0.2839735
181	0x3e296632	0.1654289
182	0xbe8a285a	-0.2698391
183	0xbe3243e5	-0.17408712
184	0x3dd0f451	0.1020285
185	0x3d70bc18	0.05877313
186	0x3d7f1fa4	0.062286034
187	0xbe0e55fa	-0.13899985
188	0x3e661aad	0.22471114
189	0x3e653652	0.22384003
190	0x3e0ef460	0.13960409
191	0xbe38277c	-0.17983812
192	0xbe673078	-0.22577083
193	0xbe63a9c2	-0.22232726
194	0x3e2282b1	0.15870167
195	0x3e53b3d6	0.2067407
196	0x3e0089c9	0.12552561
197	0xbd2af2d9	-0.041735504
198	0xbe402515	-0.18764146
199	0xbe1c2f79	-0.15252484
200	0x3e83283b	0.2561663
201	0xbca07a4c	-0.019589566
202	0x3e394dc7	0.18096076
203	0x3e804ee2	0.25060183
204	0xbceaf86a	-0.028682906
205	0xbd2b2cf7	-0.04179093
206	0xbe8cf13b	-0.27527794
207	0xbe031a02	-0.1280289
208	0xbd98b0a1	-0.07455564
209	0xbdc80fd7	-0.09768646
210	0xbdd1d31d	-0.10245345
211	0x3ddd7694	0.108136326
212	0xbd9136ec	-0.07090554
213	0x3dbfbea2	0.09362532
214	0xbe903346	-0.2816412
215	0xbd8a620b	-0.067569815
216	0x3e3f28d5	0.1866792
217	0xbe64ca43	-0.22342782
218	0xbd132290	-0.035921633
219	0xbe034f0d	-0.12823124
220	0xbbbed37f	-0.005823552
221	0xbd2caccf	-0.04215699
222	0x3c922e68	0.017844394
223	0x3dcd933e	0.1003785
224	0x3dd6c6a1	0.10487104
225	0xbde176a9	-0.11008961
226	0x3d9d3aab	0.07677206
227	0x3cb8e3b0	0.022569507
228	0x3e6390bd	0.22223182
229	0xbdc405fa	-0.095714524
230	0x3d7d3979	0.06182239
231	0x3e8d349e	0.27579206
232	0x3ca2ec7e	0.019888159
233	0xbcfd5cb1	-0.030927988
234	0xbe10a62e	-0.14125893
235	0x3d26484c	0.04059629
236	0x3e005e3f	0.12535952
237	0xbe2f6473	-0.17128162
238	0xbe2e526d	-0.1702363
239	0xbe972ad6	-0.2952487
240	0x3d3f8de0	0.046766162
241	0x3e8a6b42	0.27034956
242	0x3dd1a4bd	0.102364995
243	0x3d5d090d	0.05396371
244	0x3e61252e	0.21986839
245	0xbe2c5bc9	-0.16831888
246	0x3e875160	0.26429272
247	0x3e594636	0.2121819
248	0x3d5c99ea	0.05385772
249	0xbd1d1530	-0.038350284
250	0x3e23e281	0.16004373
251	0x3e7d2eb7	0.24724852
252	0x3dda037e	0.10645197
253	0xbc9ecf0c	-0.019385837
254	0x3d87054a	0.06592806
255	0x3e21180b	0.15731828

encoder.convs.0.convs.<food___contains___ingredient>.att_src f4 [1, 1, 58]
0	0xbe1af4de	-0.15132472
1	0xbeb7cd4c	-0.35898817
2	0x3e4459d0	0.19174886
3	0xbd4fcc97	-0.05073222
4	0xbd731549	-0.05934647
5	0x3dccad50	0.09993994
6	0xbd7e743a	-0.06212256
7	0xbd3e2d7a	-0.04643009
8	0x3e93a52e	0.2883696
9	0xbbdbc2b8	-0.006706562
10	0x3e30084f	0.1719067
11	0x3d165998	0.036706537
12	0x3df31219	0.11868686
13	0x3e93c773	0.28863105
14	0xbe3687ab	-0.1782519
15	0x3e98fd80	0.29880905
16	0xbe044ad9	-0.12919177
17	0xbd3c41d9	-0.045961235
18	0xbe015bbd	-0.12632652
19	0xbed158c9	-0.4088805
20	0x3e1e0ff4	0.15435773
21	0x3e35bccd	0.17747803
22	0xbcc1c0d7	-0.023651524
23	0xbd86d244	-0.06583074
24	0xbe40cc59	-0.18827952
25	0xbe61389c	-0.21994251
26	0x3d8ab7b0	0.06773317
27	0x3ebeb900	0.3725052
28	0x3edf9511	0.43668416
29	0x3e61893e	0.2202501
30	0xbdc6e5a5	-0.0971177
31	0xbdc2b624	-0.09507397
32	0x3e1cabd0	0.15299916
33	0xbea3b639	-0.31974962
34	0x3edacfe6	0.4273674
35	0xbe7803de	-0.24220225
36	0x3eb4795c	0.3524884
37	0xbd8c9f57	-0.06866329
38	0x3e1fcd09	0.15605558
39	0x3ea35d4e	0.31907123
40	0x3d9609fe	0.073261246
41	0x3ed41040	0.41418648
42	0x3e20c7d2	0.15701225
43	0x3d1ce5dc	0.03830515
44	0xbdf7209c	-0.120667666
45	0xbec02634	-0.37529147
46	0xbebea47c	-0.37234867
47	0xbe534b31	-0.20634152
48	0x3d70ffc1	0.058837656
49	0x3e9bce0d	0.30430642
50	0xbd0fcb9b	-0.035106283
51	0x3e0e87be	0.13918969
52	0xbe17452a	-0.14772478
53	0x3e762982	0.24039271
54	0xbc74316b	-0.01490436
55	0xbec7a178	-0.38990378
56	0xbe43f2ac	-0.1913554
57	0x3e1ce04a	0.15319934

encoder.convs.0.convs.<food___contains___ingredient>.att_dst f4 [1, 1, 58]
0	0x3ee8ce05	0.4546968
1	0x3ecefc59	0.404269
2	0xbec2afa2	-0.38024622
3	0x3deb4711	0.11488164
4	0x3f0dbf5a	0.55370104
5	0xbe2a3b82	-0.16624263
6	0x3ebee15e	0.37281317
7	0xbf048cac	-0.5177715
8	0x3f184799	0.5948425
9	0xbebc46d4	-0.36772788
10	0xbeab9816	-0.3351447
11	0xbe57eec1	-0.21087171
12	0xbeb3a823	-0.35089216
13	0x3e563d56	0.20921835
14	0x3f16ab37	0.58855003
15	0x3ef739c0	0.48286247
16	0x3dee96c9	0.11649854
17	0x3edea2cd	0.43483582
18	0x3ee86e9c	0.45396888
19	0xbe6f6083	-0.2337666
20	0xbeffad83	-0.49937066
21	0x3ed8cd85	0.423443
22	0x3ed787da	0.42095834
23	0xbda559cd	-0.08073769
24	0xbd7d701f	-0.061874505
25	0x3ed68ba5	0.41903415
26	0xbed90a88	-0.42390847
27	0x3f2be8dd	0.67152196
28	0xbf11b09a	-0.569101
29	0x3e7ecc21	0.24882556
30	0x3ed3d2f7	0.4137189
31	0xbf2744a4	-0.6533911
32	0xbee0ad86	-0.43882388
33	0x3ee4f16a	0.44715434
34	0x3ed0a16b	0.40748152
35	0xbeca9403	-0.3956605
36	0x3f1acd87	0.6046986
37	0x3f1cce2a	0.6125208
38	0x3e872f5b	0.26403317
39	0xbee140e2	-0.43994814
40	0xbf08a407	-0.53375286
41	0xbed3599b	-0.412793
42	0x3ea96d11	0.33091024
43	0x3e95e214	0.29274046
44	0x3de6c7e0	0.11268592
45	0xbed22ab2	-0.410482
46	0x3f1cc694	0.61240506
47	0x3ecdfa00	0.40229797
48	0x3ecb001f	0.3964853
49	0xbeddb557	-0.43302414
50	0xbee7273d	-0.45147124
51	0xbe27706c	-0.1635148
52	0x3f14264d	0.5787094
53	0x3f1dd9bf	0.6166038
54	0xbec40e07	-0.38291952
55	0xbf135590	-0.57552433
56	0xbebc8116	-0.36817235
57	0xbee5950d	-0.4484028

encoder.convs.0.convs.<food___contains___ingredient>.bias f4 [58]
0	0xb8ca6b94	-9.6521486e-05
1	0x3709c185	8.210894e-06
2	0xb70816a7	-8.111506e-06
3	0x37002074	7.636951e-06
4	0x37caa009	2.4154799e-05
5	0xb8b1d8c1	-8.480391e-05
6	0x37ad9b7f	2.0695616e-05
7	0xb6543ed7	-3.162704e-06
8	0xb7f59080	-2.9273564e-05
9	0xb6966adb	-4.482788e-06
10	0xb53bffca	-7.003515e-07
11	0xb803809d	-3.1352614e-05
12	0x37212eca	9.607242e-06
13	0x35d69196	1.5986614e-06
14	0x368e7e1a	4.24661e-06
15	0x370f94d2	8.558114e-06
16	0x37a98c25	2.021163e-05
17	0x36649b90	3.4065197e-06
18	0x379fd5b5	1.9053792e-05
19	0xb823b8b0	-3.9034232e-05
20	0x376905ed	1.3889262e-05
21	0x38681ba1	5.533884e-05
22	0xb62573df	-2.4654362e-06
23	0x38325d46	4.2525375e-05
24	0x35ae9ef6	1.3010274e-06
25	0x37601e49	1.3358492e-05
26	0xb8135b22	-3.5132405e-05
27	0xb6509349	-3.1080147e-06
28	0x3725208a	9.8423425e-06
29	0x36d43193	6.3238635e-06
30	0x391c0017	0.00014877353
31	0xb9112ae4	-0.00013844256
32	0xb68d4989	-4.210688e-06
33	0x36e72231	6.888317e-06
34	0x36bbc189	5.5955647e-06
35	0xb7a79056	-1.9975163e-05
36	0xb6b2ce5f	-5.328838e-06
37	0xb6c7a4e5	-5.9498584e-06
38	0xb5705556	-8.953115e-07
39	0xb7901949	-1.7177912e-05
40	0x371564f0	8.904593e-06
41	0xb6ced92d	-6.164561e-06
42	0xb66ae66e	-3.5002845e-06
43	0xb730d8ff	-1.0540941e-05
44	0x38a6e644	7.958387e-05
45	0xb552c1e0	-7.851322e-07
46	0xb80f2b75	-3.413433e-05
47	0x38b03607	8.402397e-05
48	0x35ef89ba	1.7846971e-06
49	0x36e051bd	6.685236e-06
50	0x35d74d1d	1.6041191e-06
51	0x35c370e9	1.4561493e-06
52	0xb6766377	-3.6714753e-06
53	0x378139b6	1.5404872e-05
54	0xb6e9747f	-6.957503e-06
55	0xb69ac78f	-4.6127893e-06
56	0x37029a92	7.7845925e-06
57	0x36103321	2.1487433e-06
