etc/old3/models/best_model_AUC_0.9411.pt (torch, 944353 bytes, 144 tensors)

encoder.convs.0.convs.<user___healthness___food>.att_src f4 [1, 1, 84]
000000 5e a8 56 3e 13 1e 75 be b9 6e 7d be 9d 58 5e 3e
       0.20962664 -0.23937254 -0.24749269 0.21713491
000010 25 f2 b0 3e 2c f7 51 be 65 21 61 3e 57 05 e9 bd
       0.34559742 -0.20504445 0.21985395 -0.113779716
000020 a4 70 e1 3e bd 9b 73 bd 3e f5 ef bd cd 24 70 be
       0.4403125 -0.059474695 -0.11716698 -0.23451538
000030 02 6f 14 3c a8 30 99 bd ec 5f 43 3e 9c a5 01 3c
       0.009059669 -0.074799836 0.1907956 0.0079130195
000040 a8 29 83 3e e7 03 3a 3d 08 6b 11 3d 74 2e bf be
       0.2561772 0.045413878 0.035502464 -0.37340128
000050 69 76 85 be 12 f9 d9 3d af 81 74 3e 53 7d 02 be
       -0.26066902 0.106432095 0.23877595 -0.1274312
000060 26 ed 40 bd ec df 59 bc 3b 38 23 be 8a 43 93 be
       -0.047101162 -0.013298016 -0.15939419 -0.28762466
000070 7f ff 80 3e ea c4 4a be f8 af a6 bc e3 81 e4 3e
       0.25194928 -0.19801679 -0.02034758 0.44630346
000080 44 a8 12 be 13 22 20 3d 29 e2 a5 3e c9 55 71 3d
       -0.14322 0.039094996 0.3239911 0.0589197
000090 a6 24 32 be 2b 33 35 3d 98 7d ca be c3 a4 8b be
       -0.17396793 0.04423825 -0.39548945 -0.2727414
0000a0 38 1a a0 3e 7e fc ca 3d b1 1f a5 be 9b 70 30 3c
       0.31270003 0.0991144 -0.3225074 0.010769035
0000b0 49 b0 d8 3d 13 50 13 3e c9 e8 ef bd 48 26 3a 3e
       0.10580499 0.14386015 -0.11714322 0.18178666
0000c0 14 b9 dd bd 31 de d3 bd 98 fc b2 3d 1a f5 33 3e
       -0.108263165 -0.10345114 0.08739585 0.17573968
0000d0 90 3c 70 be 8c ed 0d 3e ca b7 db be 89 9c 74 3e
       -0.23460603 0.13860148 -0.42913657 0.23887838
0000e0 00 7b 16 be 14 41 3e 3e 5f cc 1e be d4 4f 85 be
       -0.14695358 0.18579513 -0.15507649 -0.26037467
0000f0 e9 74 6b 3e 03 7b ea bb 66 96 07 bb 68 c8 66 3e
       0.22993816 -0.0071557774 -0.002068901 0.22537386
000100 b5 95 f8 bd 32 b4 9e 3e a9 2c 81 be ea d7 8f 3e
       -0.12137929 0.30996853 -0.25229385 0.28094417
000110 1e 12 86 be 42 92 f1 3c 50 07 f7 bd 48 b2 a8 3c
       -0.26185697 0.029488686 -0.120619416 0.020592824
000120 62 fa e0 bd 65 04 55 be 6b d2 86 be 34 98 cd bd
       -0.10985257 -0.20802458 -0.2633241 -0.10038796
000130 74 74 49 bd 88 4f 15 be 0c c6 d6 3d 0a 01 8d 3e
       -0.049183324 -0.1458112 0.10486993 0.27539855
000140 bc ca 0c 3e a8 aa e6 3e cd 0a 78 3e 49 4b 95 3d
       0.13749212 0.45052075 0.2422287 0.0728975

encoder.convs.0.convs.<user___healthness___food>.att_dst f4 [1, 1, 84]
000000 ff 95 44 be 7e 90 93 3d 64 61 5e be d7 c6 fc bd
       -0.19197844 0.07205294 -0.21716839 -0.12342613
000010 11 57 0b be fb ff 50 3a f0 b4 d2 bd 10 11 41 bd
       -0.13607432 0.00079727144 -0.10288417 -0.047135413
000020 af 21 9e bb 89 a0 d4 3d 77 4f 99 bd 86 08 2e be
       -0.0048257927 0.10382182 -0.0748586 -0.16995439
000030 bd 89 13 bc 6f 3a 1f 3e e7 4f 25 3e 17 bc 4b be
       -0.009005007 0.15549634 0.16143762 -0.1989597
000040 b4 5e 06 be 74 98 72 be c3 19 2b be aa 51 46 be
       -0.13122064 -0.23690969 -0.16709046 -0.1936709
000050 8b 7c ad 3d 8a d9 f3 3a 8e f6 69 3d fd 91 03 3e
       0.0847102 0.001860426 0.0571199 0.12848659
000060 71 9f d4 bd 2e 6d 06 be d6 1d 09 3e 64 b1 26 3e
       -0.103819735 -0.13127586 0.13390288 0.16278607
000070 78 ca 78 be a3 24 18 be fc 77 1c bd a0 e2 61 3d
       -0.24295986 -0.14857726 -0.038200364 0.055147767
000080 30 12 23 3b f6 eb c7 bc 7e a0 c1 bd f5 2f 77 3e
       0.0024882667 -0.024404507 -0.094544396 0.24139388
000090 5f 25 78 3e eb b5 36 3d e0 33 6c 3c b9 5a aa bd
       0.24233006 0.044607084 0.014416665 -0.08318085
0000a0 d1 df 0e 3e b9 1a fb 3d af 41 98 3d e8 aa 0f 3d
       0.13952567 0.12260956 0.07434403 0.0350751
0000b0 d5 7b ad bd cb 19 13 be 0f 32 b5 bd 79 96 ea 3d
       -0.08470885 -0.14365308 -0.088474385 0.11454482
0000c0 6f 69 59 3d b8 f5 63 3d 0f 78 d4 3d ae 17 9d 3d
       0.053079065 0.055654258 0.10374462 0.07670532
0000d0 db e0 62 be 2f 33 11 be fc 4e 02 be b7 9d 84 3c
       -0.22156088 -0.14179681 -0.12725443 0.016188486
0000e0 c0 87 16 3d 8c 41 5a 3c 9c bf 04 bd 7a 61 1f bd
       0.036750555 0.013321292 -0.032409295 -0.03891132
0000f0 f2 e3 1e be 0b 49 c8 bd d8 19 dd 3d e4 70 99 3d
       -0.15516642 -0.09779557 0.10795945 0.07492235
000100 5c aa 7f 3d 09 5d 89 bd 9a 4b 22 3e ab d3 0a 3e
       0.062418327 -0.06707198 0.15849152 0.13557307
000110 38 0c db bc a9 5d d4 bd 46 05 8f bd 15 18 5d 3d
       -0.026739225 -0.10369427 -0.06983428 0.053978045
000120 f9 b0 ca bc 03 df 09 3e e8 87 64 be a7 fc 83 bd
       -0.02474259 0.13463978 -0.22317469 -0.06444674
000130 39 0a 41 3e db 82 64 bd 8c 78 da 3d a2 d3 2f 3e
       0.18851556 -0.055788856 0.10667524 0.17170575
000140 a4 8f 4e bd 44 18 cd 3c 23 d2 df 3d 3c b9 d8 bd
       -0.050429955 0.025035985 0.10928752 -0.10582206

encoder.convs.0.convs.<user___healthness___food>.att_edge f4 [1, 1, 84]
000000 98 63 1e bd 5e 65 7b be 74 ea b6 3d 70 47 ff 3c
       -0.0386692 -0.24550387 0.08931437 0.031161994
000010 76 5a 54 be c4 6b 75 bd 34 bd be 3d 82 07 2c be
       -0.20737633 -0.059917226 0.093134314 -0.16799739
000020 88 a4 db 3d cd 25 45 be e0 c4 67 3c 30 67 11 bd
       0.10724741 -0.19252701 0.01414606 -0.035498798
000030 0c 60 48 be dc 35 2e bd d7 5d 01 be 2c 2d 44 bd
       -0.19567889 -0.042531833 -0.12633453 -0.04789464
000040 b0 db f7 3c 54 29 2c bd d0 52 f7 bc 0e 84 59 3e
       0.030256122 -0.0420316 -0.030190855 0.21241781
000050 e0 fb 51 3e 99 8f 0c be 60 ce 0f 3d 30 61 cc 3d
       0.20506239 -0.13726653 0.035108924 0.099794745
000060 10 e9 91 3c c0 ae aa 3c 04 f3 d0 bd d0 cf 46 3d
       0.017811328 0.02083528 -0.102026016 0.04853803
000070 6e dc 1d be 94 bf 67 bd 2a ad ee bd e0 2f ba 3d
       -0.15416119 -0.056579188 -0.11654122 0.09091163
000080 2c e2 bd 3d c6 20 69 be b1 8c 56 be c0 af a3 3b
       0.092716545 -0.22766408 -0.20952107 0.0049953163
000090 84 8d a3 3d 4a 4f 82 be e0 da a9 3c 6b a8 22 be
       0.07985976 -0.25451118 0.02073425 -0.15884559
0000a0 1c c3 6a be e6 a1 6e 3e de 79 2e be 12 c2 01 be
       -0.22925991 0.23303947 -0.17038676 -0.12671688
0000b0 85 7a 83 3e 26 c2 22 be 4c e5 dd bd c2 64 24 be
       0.25679412 -0.15894374 -0.108347505 -0.16054061
0000c0 5b ca 0e be d0 ae ff 3c b6 dd 0d 3e e4 9d b1 3d
       -0.1394438 0.031211287 0.13854107 0.08672693
0000d0 2c 14 9d bd 58 07 90 3d b6 0f 48 be 9c b9 4c 3e
       -0.07669863 0.07032651 -0.19537243 0.1999268
0000e0 b9 72 42 be f0 d8 f9 3d cf dc 51 be 7a 3a e7 bd
       -0.18989076 0.12199581 -0.20494388 -0.112904504
0000f0 8b 87 77 be f8 e7 21 3d 18 43 07 3e 28 8d 3c be
       -0.241728 0.039527863 0.13209188 -0.18413222
000100 94 e0 c7 3d 94 10 7e bd d8 cf 60 3d 6c ea 39 be
       0.09759632 -0.06202753 0.054885715 -0.18155831
000110 b0 a2 49 be 6c 52 1e bd f4 17 d9 3d c2 95 84 be
       -0.19690967 -0.038652822 0.10600272 -0.25895506
000120 2e 28 32 be fa 68 4e be 00 f7 39 bd f4 47 43 be
       -0.1739814 -0.20157233 -0.045401573 -0.19070417
000130 3c 90 12 be 98 05 fa bd 0c 9f 38 be 72 c0 1f be
       -0.14312834 -0.12208098 -0.18029422 -0.15600756
000140 9a af ed bd f6 d7 92 bd 6e d7 5b 3e 60 e0 34 bc
       -0.11605759 -0.071700975 0.21468899 -0.011039823

encoder.convs.0.convs.<user___healthness___food>.bias f4 [84]
000000 90 ce 45 34 fb d1 df 35 a4 5b 26 b3 bf bb e1 b5
       1.8422202e-07 1.6675907e-06 -3.8733234e-08 -1.6818448e-06
000010 5d 31 49 35 35 93 8a b3 12 5e 86 36 8e 77 41 b2
       7.495017e-07 -6.4529026e-08 4.0044624e-06 -1.1261262e-08
000020 d7 e4 33 34 57 b6 f4 34 23 47 57 b5 f0 3e 57 36
       1.6753926e-07 4.558121e-07 -8.019726e-07 3.207413e-06
000030 03 ef 61 b5 b7 c5 0f 36 a8 cc fd b6 ce 05 74 b6
       -8.416684e-07 2.1423746e-06 -7.5638127e-06 -3.6362212e-06
000040 0f 79 db b5 3d d0 fc 34 d6 0e 46 b6 c0 4b 86 b4
       -1.6352004e-06 4.709017e-07 -2.9512935e-06 -2.501456e-07
000050 7b 87 7e b7 ce f3 b8 34 94 5f cb 35 99 b9 01 36
       -1.5171124e-05 3.4450062e-07 1.5152496e-06 1.933053e-06
000060 99 2f 12 b5 9c 32 82 35 a2 56 8f 35 d7 7b 72 35
       -5.44585e-07 9.700484e-07 1.0679544e-06 9.0332236e-07
000070 45 3b b0 35 a2 3c a0 b7 de 79 6d b8 27 a1 cd b5
       1.3130272e-06 -1.910172e-05 -5.66187e-05 -1.5320592e-06
000080 1a a9 46 36 61 7c d5 35 43 4b fa b5 96 c5 f4 36
       2.960273e-06 1.5905936e-06 -1.8648356e-06 7.2947687e-06
000090 c1 3b af b5 79 07 07 b5 3c 95 50 34 90 33 ad 35
       -1.3055907e-06 -5.0302293e-07 1.94258e-07 1.2904511e-06
0000a0 06 79 30 b6 15 6d 83 b5 93 cb 29 35 89 74 06 b6
       -2.6296489e-06 -9.792008e-07 6.3253646e-07 -2.0035388e-06
0000b0 11 38 97 34 00 84 c0 36 b6 58 4a 36 a4 6a 14 b6
       2.8166735e-07 5.7374127e-06 3.0151982e-06 -2.2115792e-06
0000c0 15 9a 36 35 ed ac 0b 35 bd 37 12 35 09 43 bd b6
       6.80245e-07 5.2033175e-07 5.447035e-07 -5.640443e-06
0000d0 d9 95 21 37 63 f6 c5 34 2f 1c bb 34 bc ad f2 34
       9.631237e-06 3.687338e-07 3.485197e-07 4.520242e-07
0000e0 19 f2 29 34 9d d9 1b b6 97 a8 5d 35 6b 3c d2 34
       1.5827426e-07 -2.3223467e-06 8.2574246e-07 3.9159508e-07
0000f0 42 69 be 36 50 14 9c b6 86 35 00 35 fd 6f aa 36
       5.674695e-06 -4.651527e-06 4.77616e-07 5.079432e-06
000100 d5 58 0d b7 ac e8 d9 b3 20 19 ae b4 87 04 eb 35
       -8.424938e-06 -1.0147173e-07 -3.2428306e-07 1.7510182e-06
000110 05 d1 85 b6 27 47 1a b6 8d 69 31 b6 f9 00 a6 34
       -3.988042e-06 -2.2989204e-06 -2.6436494e-06 3.0920617e-07
000120 a7 a8 88 b8 8b 6a 0e b6 c0 f6 30 37 40 b8 8a 35
       -6.516399e-05 -2.1221665e-06 1.0547868e-05 1.0335425e-06
000130 9d 5d 76 b6 41 dc f6 b4 6b 16 1c 37 d2 47 fa b4
       -3.6711347e-06 -4.5981326e-07 9.303544e-06 -4.6618385e-07
000140 b4 67 0f 34 72 95 76 b7 c5 dc 25 b6 eb 52 4b b7
       1.335564e-07 -1.4697538e-05 -2.471542e-06 -1.2119049e-05

encoder.convs.0.convs.<user___healthness___food>.lin_src.weight f4 [84, 29]
000000 ff de 02 3c bd 81 b2 be 9d 9c 32 3c f0 e5 3b be
       0.007987737 -0.34864607 0.010901597 -0.18349433
000010 69 63 14 be 7e e0 ac bc 19 08 c7 3c d2 cd 2a 3d
       -0.14491047 -0.02110314 0.024295853 0.04170019
000020 6c f1 fa bd 83 34 8a 3c 61 4f 14 3c 07 77 47 3e
       -0.12253079 0.016870743 0.0090521285 0.19478999
000030 68 62 8e 3e 4a 6c b9 be 41 94 9c 3d 88 ff 44 be
       0.27809453 -0.3621543 0.07645465 -0.19238102
000040 94 79 9b 3d ae 59 89 bd 0d b3 09 3e 9f 37 6d be
       0.075915486 -0.06706558 0.13447209 -0.23165749
000050 80 4b 8b be 39 75 1a 3f ba 05 b0 3e a9 0d 8b be
       -0.2720604 0.6033512 0.3437937 -0.2715886
000060 74 8a 7b be 12 c4 a4 3d 76 54 32 bd e8 77 2b be
       -0.24564534 0.0804521 -0.04353758 -0.1674496
000070 d1 d2 f3 3d 5f 76 d2 bd c6 11 a0 bd e5 6e 2c be
       0.119054444 -0.10276484 -0.0781589 -0.16839178
000080 a1 fd d7 3c 2d c6 e3 bd 80 db 15 be 90 da 7a 3e
       0.026366057 -0.111217834 -0.14634514 0.24497437
000090 bf 3f 3c be 75 7a f3 ba f5 d6 a0 be b2 3d f9 3c
       -0.18383692 -0.0018575924 -0.31414 0.030424926
0000a0 c5 8a 4f 3d 85 fa 4b be b4 88 bd 3e 83 9d dd bd
       0.05066945 -0.19919784 0.3701836 -0.108210586
0000b0 2e 49 46 3e 71 16 10 3e 4b 06 57 be 95 1e 4f 3d
       0.19363853 0.1407106 -0.20998494 0.050566275
0000c0 53 4c 81 bd b8 0d bd 3d fb 9c 26 bf 92 db 80 3d
       -0.06313386 0.09231132 -0.65083283 0.0629188
0000d0 03 32 93 3e 1d 45 5a 3e d2 68 63 be 64 b2 a2 be
       0.28749093 0.21315427 -0.22207955 -0.31776726
0000e0 af dd 9e 3e 57 da 18 3d 3b 83 92 be 35 88 95 3e
       0.31028506 0.0373176 -0.28615746 0.2920548
0000f0 4a f4 e7 bd 4a 85 65 be fc 57 64 be 99 6a f5 bd
       -0.11325891 -0.22414127 -0.22299188 -0.119832225
000100 14 0f 3e bd 65 fe ff bd b9 e2 f6 3d 37 80 4d be
       -0.0464011 -0.12499694 0.12054963 -0.20068441
000110 72 88 09 bd 4c c4 87 bd 56 50 74 bd e0 e0 b0 3e
       -0.03357739 -0.066292375 -0.059646927 0.34546566
000120 2d 98 48 be 37 21 56 be 0a 87 88 3e 7b 45 04 be
       -0.195893 -0.20911108 0.26665527 -0.1291713
000130 ed c0 ad bd 79 aa 56 3e 78 d8 ce 3d f5 04 27 bf
       -0.08484063 0.20963468 0.10099882 -0.6524194
000140 30 29 4d 3d a4 2d 28 3e 28 b4 4a 3e 2f af 53 bd
       0.050088108 0.1642366 0.19795287 -0.05168074
000150 40 c0 8e 3c 69 0a 3f 3e 23 f3 6e bd da 6d c3 3e
       0.017425656 0.18656315 -0.058337342 0.38169748
000160 98 9b c4 ba ed df 36 bd fc 32 1e 3e 2a 0e 4b 3e
       -0.0014999984 -0.044647146 0.15449136 0.19829622
000170 33 a0 f3 bd 61 58 e7 3b fe bf b1 3d 11 c8 b4 be
       -0.1189579 0.007060096 0.08679198 -0.3530889
000180 5c e6 14 3e 7e 1d 77 3e e0 04 58 be 30 d7 0c 3e
       0.14541 0.24132344 -0.2109561 0.13753963
000190 51 0a 95 be 24 25 9a 3e 6e d7 e2 bd f7 62 01 be
       -0.29109433 0.3010646 -0.11076246 -0.12635408
0001a0 34 1e 89 bd 1a bc 64 bc 02 5b 3b bd 89 05 17 3e
       -0.06695214 -0.0139608625 -0.04574109 0.14748205
0001b0 ad 0f 14 3f ef cb 96 3e ef b6 68 be c7 8a a5 be
       0.5783642 0.29452464 -0.22726034 -0.3233244
0001c0 a5 b9 63 3e 37 d7 9e 3e b6 22 8e 3d 51 1d be 3d
       0.22238787 0.3102357 0.06940214 0.092829354
0001d0 14 a4 92 3c 35 8b 25 be 16 32 5b 3e b3 d6 b1 3d
       0.017900504 -0.16166385 0.21405825 0.08683529
0001e0 d8 27 a4 bd 6e 46 ae 3d f2 ae 88 3d 5f 3c 78 3e
       -0.08015412 0.08509527 0.06673993 0.2424178
0001f0 e4 23 84 be 8f 3c bc 3c 43 a4 9c 3e 5e 21 b5 b8
       -0.25808632 0.022978095 0.30594072 -8.636968e-05
000200 ff 82 9c 3e 59 0b 1e be 08 0d 87 3e 15 5b f6 bd
       0.30568692 -0.15434016 0.2637713 -0.12029091
000210 6b 2f 0d be c5 08 97 bd e5 02 49 bd 51 63 b5 be
       -0.1378762 -0.073747195 -0.049075026 -0.35427335
000220 44 70 8c be dd d4 22 3f b8 f1 9a 3d 7f 2e 89 3d
       -0.27429402 0.63606054 0.075656354 0.066983216
000230 76 0a 92 bd c1 cc 50 3e 6e 16 1d 3e 3a f7 eb be
       -0.071309015 0.20390607 0.15340587 -0.46087056
000240 59 e5 58 be 1b c4 22 be 01 b5 a8 3e a9 4d 21 3e
       -0.21181239 -0.15895121 0.32950595 0.15752281
000250 87 60 3a 3d cd 9f 27 be 9f 5b 82 3d 34 6c 2d 3e
       0.045502212 -0.16369553 0.063651316 0.16935807
000260 b4 9a 52 3d 30 3a 66 bd e5 94 f8 bd 91 96 75 3d
       0.051417068 -0.056207836 -0.121377744 0.059958044
000270 28 8b 55 3e 71 ba 1d be cb 3d aa 3e 69 07 85 be
       0.20853865 -0.15403153 0.3325027 -0.25982216
000280 8d 59 3e 3d 44 66 cf 3d b3 e7 68 bd 9a ac e5 3b
       0.04647212 0.101269275 -0.05686159 0.007009101
000290 e2 92 0b 3e e3 5d 93 3c fe 3b c6 be 4e c4 fb bd
       0.1363025 0.017989105 -0.38717645 -0.122933015
0002a0 8d 7e ea 3d ed 5b 9b 3e 0a d2 96 3d 0a b6 ca 3a
       0.11449919 0.3034357 0.073642805 0.0015465629
0002b0 8b 71 a0 3e c1 bc 45 bd 55 63 c2 3d 21 4f 5d 3d
       0.31336626 -0.048275713 0.09491602 0.05403054
0002c0 00 8c 3d bc 3e bf 13 bc 5e 24 28 be 59 ef 12 be
       -0.011569023 -0.009017764 -0.16420123 -0.14349116
0002d0 c9 c8 38 be 49 3d 43 3e d1 7a af bd 01 6c 94 3e
       -0.18045343 0.19066347 -0.08568347 0.2898865
0002e0 4b 2a 0f be f6 74 26 bd 78 31 6d 3e 93 1d 6b be
       -0.13980977 -0.040638886 0.23163402 -0.229605
0002f0 e9 ce ee 3d 98 82 4e 3e ef 5f b0 3d df 04 e2 bd
       0.11660559 0.20167005 0.08612048 -0.11036085
000300 72 87 33 3e 28 54 d6 3d f7 d3 02 bd 51 be ed 3e
       0.17532137 0.1046527 -0.031940427 0.46434262
000310 28 05 89 3e da cb 9c bd 64 74 94 bc c2 d1 d4 bd
       0.26761746 -0.07656069 -0.018121906 -0.10391571
000320 c8 bd ae 3e 2d a3 63 be b8 9a b8 bd c9 15 1b 3e
       0.34129167 -0.22230215 -0.09013885 0.15145029
000330 83 71 9d bc 82 03 2c 3e 79 73 a5 bd e7 4f 26 bd
       -0.019219166 0.16798213 -0.08078665 -0.040603545
000340 73 25 b0 3c 44 04 f1 bb a9 f7 44 be de c2 eb 3d
       0.021502232 -0.007355245 -0.192351 0.11511777
000350 9d 8a 3d be 01 51 e3 3d fc f1 29 be 2a a8 28 3d
       -0.18509908 0.11099435 -0.16596216 0.041176
000360 90 de 8b 3e be 23 e4 3d b3 d1 4d be 2e 40 77 3e
       0.2731824 0.1113963 -0.20099525 0.24145576
000370 82 ed 8d bd 46 45 b7 bc a7 75 a1 3e 10 ac 25 be
       -0.06930067 -0.0223719 0.31535074 -0.16178918
000380 14 40 c7 be 2f 70 41 be 91 de 9b 3c f9 fa af 3d
       -0.38916075 -0.18890451 0.019027026 0.08592791
000390 35 0c 7f bd 93 ae 98 be fd 3e 65 3e ca 08 96 3e
       -0.0622675 -0.2982069 0.2238731 0.2930358
0003a0 21 e9 c5 3e ab 67 67 bd a4 53 a9 3d 58 15 3e 3a
       0.38654426 -0.05649535 0.08267906 0.0007251105
0003b0 e1 5d 9f bd 8a 55 2d be fa df c0 bc 08 98 e7 3c
       -0.07781578 -0.16927162 -0.0235443 0.028270736
0003c0 7f 1a 7c be 8c 4b 72 3e fd 16 83 3c ba df 55 3e
       -0.24619482 0.23661631 0.016002173 0.20886126
0003d0 3b 9d 39 3e 6d 3f 0f be ad 92 81 bc 73 b2 09 bd
       0.18126385 -0.13989039 -0.01581701 -0.033617448
0003e0 74 0a ff bc 39 09 94 bd d1 aa 8f 3e 89 39 b5 3d
       -0.031132914 -0.072283216 0.2806001 0.088488646
0003f0 3c 61 34 3e 4b 5e 10 3f f3 35 c3 3d ae 6a 87 be
       0.17615217 0.5639388 0.09531774 -0.26448578

encoder.convs.0.convs.<user___healthness___food>.lin_dst.weight f4 [84, 17]
000000 6a 5c 7e 3e 93 e7 86 be e0 50 e6 3c da b0 1b 3c
       0.2483994 -0.26348552 0.028114736 0.009502614
000010 20 45 ef 3d 86 5f 37 3d 66 b2 66 3e 72 f2 44 3e
       0.116831064 0.044768833 0.22528991 0.1923311
000020 af 52 0a 3e 02 90 c0 3d c2 48 b8 3c 6b 6f 7a 3b
       0.13508104 0.09402467 0.022495631 0.0038213383
000030 6b 34 25 3d d9 e7 ea bd 15 f2 30 3e 59 a1 f4 bd
       0.040333193 -0.11470003 0.17279847 -0.11944837
000040 ea 24 b7 3d 7c 46 25 be c5 83 06 3e 6c 4b 7c 3d
       0.08942588 -0.16140169 0.13136204 0.061595365
000050 c7 6a 20 bc 0d 74 ed 3d f2 5a de bd 72 97 4c 3e
       -0.009791083 0.115944006 -0.1085719 0.19979647
000060 b8 15 a2 3d 83 67 8e 3d bf d6 af bd d6 78 6d be
       0.07914299 0.06953337 -0.085858814 -0.23190627
000070 76 24 32 be 24 fd 58 be 8b af 33 bd 28 94 30 bc
       -0.17396721 -0.21190315 -0.043868583 -0.010777511
000080 6e 75 17 3e f5 60 93 3d 92 ab 48 3d 99 9c 8e be
       0.1479089 0.071962275 0.048991747 -0.2785385
000090 0e 59 e8 3d 95 b4 1b 3c 68 07 bb 3d ca 33 99 bd
       0.11345111 0.009503503 0.09132272 -0.07480581
0000a0 a4 b1 73 be 7a 19 4b 3e 56 5f 44 be 36 f0 c8 bd
       -0.23798233 0.19833937 -0.19176993 -0.098114416
0000b0 0d 31 c8 3d 3d b9 21 be 7c 82 f5 3d 5b de 59 be
       0.09774981 -0.15793319 0.119877785 -0.21276228
0000c0 0d 64 5b 3e af b2 a8 3d ef 9f 49 be aa 27 93 bd
       0.21424885 0.08237206 -0.19689916 -0.071853
0000d0 74 f6 83 be 3f 00 0b be 1e 10 2a be 02 89 63 bd
       -0.25773966 -0.13574313 -0.1660771 -0.055550583
0000e0 3f 64 2e 3e 9b 16 dc 3d 86 8b 12 3e a6 20 2d 3e
       0.17030428 0.10746499 0.14311036 0.16906986
0000f0 53 06 be bd 04 8b 94 3d 31 a8 4c 3e 6d 7d 1b bd
       -0.0927855 0.072530776 0.19986035 -0.037961412
000100 6a 4c 14 bc c1 16 3d 3e b9 36 25 3e 31 5e 1c be
       -0.009051422 0.18465711 0.16134156 -0.15270306
000110 ae e5 e6 3d 68 79 49 3d ad e0 0e 3e bf 04 30 be
       0.11274277 0.049188048 0.13952895 -0.1718931
000120 33 74 72 3e e4 b1 82 3d ad 00 ed bb 7a 41 b1 3d
       0.23677139 0.06381586 -0.0072327466 0.08655067
000130 b3 10 28 3e c3 0c 9e bb 6a 8c 44 3e 85 fe ad 3d
       0.1641262 -0.0048232987 0.19194189 0.084958114
000140 36 ec d8 bd 36 bf 2c be 8b be 4c 3e 71 93 2d 3e
       -0.10591929 -0.16869816 0.19994561 0.16950776
000150 c3 ef 6d bd 25 84 31 3e fe 40 80 3d e2 74 66 3e
       -0.058089983 0.17335565 0.06262396 0.22505525
000160 47 91 81 bd 49 45 58 3e 69 41 1c be 22 8a 0d be
       -0.063265376 0.2112018 -0.15259327 -0.13822225
000170 da 6c 24 3d b6 b6 01 be f5 9a 94 bd a2 b7 09 bd
       0.04014287 -0.12667355 -0.07256118 -0.03362239
000180 b8 79 25 3d d7 68 4b bd a8 39 4f be 4b f6 b9 bd
       0.040399283 -0.04966053 -0.20236838 -0.0908018
000190 cb d5 8b 3e 24 7b 89 3d f6 11 60 be ea a6 b6 bd
       0.2731155 0.0671294 -0.21881852 -0.08918555
0001a0 4a ab bc 3a 5b e0 71 3d d0 2e bc bd 68 d5 1f be
       0.001439431 0.059051853 -0.09188616 -0.15608752
0001b0 84 40 07 bd bf f7 18 be 8b bf a0 bc fe 7d 9e 3d
       -0.03302051 -0.14938258 -0.019622585 0.07738875
0001c0 5d cd 3b be 77 f1 67 be 00 aa 3e 3e 23 61 4e 3e
       -0.18340059 -0.22650705 0.18619537 0.20154242
0001d0 fe 4b 5c be 12 87 90 3d 99 d8 44 bd 39 13 f8 3c
       -0.21513364 0.070570126 -0.048058126 0.030282604
0001e0 7f b3 14 3e 2e 6f 15 be 12 62 78 3e 90 94 23 be
       0.14521597 -0.14593193 0.24256161 -0.15974641
0001f0 79 68 fa bb 36 cf 25 be 6c e5 1d be a1 d0 12 3e
       -0.0076418486 -0.16192326 -0.15419549 0.14337398
000200 cb 16 29 3e 2f 58 74 be 96 3b 46 3e b5 de c5 bd
       0.16512601 -0.23861764 0.19358668 -0.096616186
000210 90 0c 46 be 56 8f a2 3c 5f 71 64 be 1e 19 6a 3d
       -0.1934073 0.019843739 -0.22308873 0.05715286
000220 79 a9 60 3e 21 5f 49 3e f5 32 ec 3d d5 61 6c 3d
       0.21939649 0.19665195 0.11533157 0.057710487
000230 99 29 2b 3e 23 bf 5d be d3 05 e3 bc a8 4d 03 be
       0.16715087 -0.21654944 -0.027712738 -0.12822592
000240 a0 76 f3 bc aa 38 76 3e 4a 39 c6 3b 64 de 2d be
       -0.02971965 0.24045053 0.00604931 -0.16979367
000250 a6 cf 27 be 55 f1 21 be a4 93 6d bd cf 09 56 3d
       -0.16387805 -0.15814717 -0.05800213 0.052255448
000260 2a cd 94 bd 26 95 58 bd 63 f4 2b 3d c9 10 24 be
       -0.072656944 -0.052876614 0.041981112 -0.16022028
000270 1e a5 a8 bd fb 0f f3 bd f9 a2 26 be 9f da c4 bd
       -0.082346186 -0.118682824 -0.16273107 -0.09612011
000280 f5 7e 0c be ce 34 e1 3d 56 2b 16 3e 76 00 00 3e
       -0.13720305 0.109964 0.14664969 0.12500176
000290 2b 5a 2b 3e dd f4 43 be da a5 00 be 50 ad 14 bd
       0.16733615 -0.19136377 -0.12563267 -0.036298096
0002a0 3c 77 13 be 09 c3 6e be a5 ac 1d 3e 10 54 59 bd
       -0.14400953 -0.23316588 0.1539789 -0.053058684
0002b0 b7 21 77 3e 8a 95 4c be ad 06 70 3e 9a 7e 74 3e
       0.24133955 -0.1997892 0.23440047 0.2387642
0002c0 57 8b 8b bd df 67 58 be e1 1b 88 bd a2 a2 23 3e
       -0.06813686 -0.21133374 -0.066459425 0.15980008
0002d0 bd 6c 29 be 9a dd f6 3d 62 7c 63 3e 03 35 17 be
       -0.16545387 0.12053986 0.22215417 -0.14766316
0002e0 60 bd ea bd 3c 75 17 3e 07 1b 10 3e b8 15 44 3d
       -0.11461902 0.14790815 0.1407281 0.047872275
0002f0 f7 85 17 be d5 c4 00 be 60 b7 04 3c 09 d2 0c be
       -0.14797197 -0.12575085 0.008100361 -0.13751997
000300 75 dc 16 3c 1f 8c 24 bd 2b 0e 19 3e 5b 11 7a 3d
       0.0092078345 -0.040172692 0.14946811 0.061051708
000310 c2 cd 03 be 43 f9 72 3c 7d 0c 6c bd 12 fc 96 3d
       -0.12871459 0.014829936 -0.057629097 0.07372297
000320 b7 4e bd 3d 58 76 08 3d 4b f0 65 3d 2c 52 2f 3d
       0.09243529 0.033315986 0.056137364 0.042802975
000330 c8 7e 54 3e 73 d9 b7 bd 50 8f 24 3c be 88 09 be
       0.20751488 -0.08977022 0.010043934 -0.13431069
000340 33 67 f4 bd fb ac 54 3e a2 43 91 3d ed 31 ef 3d
       -0.11933746 0.20769112 0.07092978 0.116794445
000350 c7 fa 4c 3e 91 09 42 3e 0e 87 57 be d0 f1 af 3d
       0.20017539 0.18948962 -0.21047613 0.08591044
000360 04 68 41 3e 77 1a 43 3d ac 5c 4e 3e c3 c8 f0 3d
       0.18887335 0.04763266 0.20152539 0.11757042
000370 ca fd 2f bd ee 07 3e 3e a6 d2 1d 3c 3f 38 42 be
       -0.04296664 0.18557712 0.009632742 -0.18966769
000380 f9 03 19 3e c0 ac 5f be 8a 54 05 be 9b ed 61 3d
       0.14942922 -0.21843243 -0.1302053 0.05515824
000390 e1 97 37 bd 73 f7 a1 bd ef 9a 17 3e c0 cd a7 bc
       -0.044822577 -0.07908525 0.14805196 -0.020483851
0003a0 f8 d1 25 be 39 c8 5f 3e 24 ec c3 3d a2 cd 04 3e
       -0.16193378 0.21853723 0.095665246 0.12969068
0003b0 c9 b5 a2 bc 00 25 61 3e 26 91 39 3e 58 3a 7f 3e
       -0.019862073 0.2198677 0.18121776 0.249246
0003c0 80 ac 94 bd 27 4d 3e be a2 b4 19 3e bb b1 bc 3d
       -0.07259464 -0.18584119 0.15010312 0.09213587
0003d0 b2 59 05 3d 46 2e e2 3d 00 52 38 be d2 24 89 bd
       0.032556243 0.11043982 -0.1800003 -0.06696476
0003e0 d7 74 23 3b d9 9d be 3d e1 dd 3d 3e 8d 07 be 3c
       0.0024941468 0.09307451 0.18541671 0.02319696
0003f0 3a 2b 0d be 67 5a 18 3d bc c9 5b be c0 90 26 3e
       -0.13786021 0.03719559 -0.21463674 0.16266155

encoder.convs.0.convs.<user___healthness___food>.lin_edge.weight f4 [84, 1]
000000 a6 22 7b be f3 55 85 3e b4 00 e5 3d 59 35 69 be
       -0.24524936 0.26042137 0.11181775 -0.22774257
000010 24 01 54 3e f6 1a 41 be 38 27 73 bd 42 cb ae bd
       0.2070356 -0.18857941 -0.059363574 -0.08534862
000020 12 a3 b7 bd 28 fa 2d 3d 80 6c 3d 3d 0c 72 ae 3d
       -0.0896665 0.042474896 0.04624605 0.085178465
000030 10 d3 15 3d f2 4a 60 be 78 7c 15 3d e0 6a 40 bc
       0.036578238 -0.2190359 0.036495656 -0.011744231
000040 10 18 86 bd 6c ea 6a be 69 2d 7b be ee 00 3c 3e
       -0.06547558 -0.22940987 -0.24529041 0.1835973
000050 69 f5 0b be 72 f6 15 3e 10 7e 39 3e 40 55 bf 3d
       -0.13667835 0.14644793 0.18114495 0.09342432
000060 6a 1b bd bd 3f 19 04 be de 23 63 3e 7e 0c 55 3e
       -0.092337444 -0.12900256 0.22181651 0.20805547
000070 88 21 20 3e 34 59 6b 3e 55 c4 58 be d0 55 cf 3c
       0.15637791 0.22983247 -0.21168645 0.025309473
000080 5e cc 67 be 44 cf 89 3d a0 68 11 3c b5 c7 7c be
       -0.22636554 0.06728986 0.008875042 -0.24685557
000090 92 0f 86 bd 68 7c 8a bc 5c c7 11 bd 1a ea 20 3e
       -0.065459386 -0.016905025 -0.035590515 0.15714303
0000a0 5e b2 5d be 12 20 30 be ba 1c 81 bd 5e 4a 2a 3e
       -0.21650073 -0.17199734 -0.06304307 0.16629931
0000b0 dd e6 61 be 24 ff 28 3e 2c 7e d4 3d 38 92 31 3e
       -0.22060724 0.16503578 0.10375628 0.17340934
0000c0 8e c0 ff bd d2 1e 37 be 68 ce a9 3d 60 54 91 3d
       -0.12487899 -0.17882851 0.08291322 0.070961714
0000d0 ae 89 5b 3e e0 d4 d2 3c e8 c8 fe 3d d8 5e 97 bd
       0.2143924 0.025736272 0.124406636 -0.07391137
0000e0 34 89 4e bd c4 8e 23 be cc 99 0f 3e f8 42 d2 3d
       -0.050423816 -0.1597243 0.14023513 0.102666795
0000f0 a4 5e 42 be d0 18 a4 3d 2c 67 2c 3e 78 f7 0e 3e
       -0.18981415 0.08012545 0.16836232 0.1396159
000100 b2 68 05 3e ab 8a 80 be 30 99 b4 3d 56 2b 20 3e
       0.1302822 -0.25105795 0.08818281 0.15641531
000110 2c c3 c6 bd 7a c0 88 bd 22 ac 9a bd 86 2d 36 3e
       -0.09705195 -0.06677337 -0.07552363 0.17790803
000120 b6 c9 04 be 80 8d 0d 3d 45 8f 83 3e 0e 23 62 3e
       -0.12967572 0.034558773 0.25695243 0.22083685
000130 88 6f e0 3d 90 4f 49 3e 57 42 4f be 40 df b6 3c
       0.10958773 0.19659257 -0.2024015 0.02232325
000140 40 d8 33 be de 91 e1 bd e0 97 5d 3e 18 cd 55 3e
       -0.17562962 -0.1101415 0.21639967 0.20879018

encoder.convs.0.convs.<user___eats___food>.att_src f4 [1, 1, 84]
000000 83 2f 07 3e 3c 04 e5 3d e5 91 12 3d bb 15 fb 3b
       0.13201718 0.11182448 0.035783667 0.0076625026
000010 b8 26 cb bd 9d 12 ae 3e f8 a1 01 be 25 b6 bf 3b
       -0.099194944 0.33998576 -0.12659442 0.0058505707
000020 44 1f fd 3d 02 20 d6 3d 0e cc 45 be 14 84 6b 3e
       0.12359479 0.10455324 -0.19316122 0.22999603
000030 6e 27 a4 be 47 21 aa 3e 9f 62 78 bc f1 1b 33 3d
       -0.32061332 0.33228514 -0.015160232 0.04372782
000040 cc 69 9f 3e 61 a2 e7 bb 50 a6 30 be 11 41 c4 bd
       0.31135404 -0.0070689176 -0.17250943 -0.09582723
000050 35 78 9c 3e 11 53 5f bd 9d e3 16 bc a1 06 07 3b
       0.3056046 -0.054522578 -0.009209541 0.0020603316
000060 e2 e7 9a 3d fa 5d af bc 2b fe aa 3e f1 b2 12 3e
       0.075637594 -0.021407116 0.3339704 0.14326073
000070 38 9b 93 bd 9a 72 93 be 6d e9 85 3c b4 cd 1b bd
       -0.0720734 -0.28798372 0.016346658 -0.03803797
000080 66 7f 93 be be b5 1c be a5 ea fb bd 82 cd 9c 3d
       -0.28808135 -0.15303704 -0.12300614 0.07656385
000090 e0 3e 6d 3d 91 8b fd 3d a2 f3 00 be 7e c7 34 be
       0.05792129 0.12380136 -0.12592939 -0.17654225
0000a0 ad 87 d0 3d 57 5a ad bc 66 6a 95 3e c2 a1 12 be
       0.10182128 -0.021161241 0.29182738 -0.14319518
0000b0 6f 06 28 bd ca 3b 9e bd b7 8e b1 3c dc 2d 59 be
       -0.04102176 -0.077262476 0.021674497 -0.212089
0000c0 34 d7 a8 3e 46 9c 91 be 29 57 c9 bd 7c 5e 05 be
       0.32976687 -0.2843954 -0.098310776 -0.13024324
0000d0 cd 27 b4 3c 1e c3 a7 3e 17 31 18 3e 8c da 12 3e
       0.021991635 0.3276605 0.14862476 0.14341182
0000e0 b3 3a c1 bc 2a a5 28 be 91 35 1a 3e 86 a0 37 bd
       -0.02358756 -0.16469255 0.15059496 -0.04483082
0000f0 9d 9a 17 be d1 1c c7 bb d4 48 77 be bf 61 a7 3e
       -0.14805074 -0.006076433 -0.24148875 0.32691762
000100 8a c0 6a be c7 17 b6 3e 57 04 90 3e b7 ee cf 3d
       -0.2292501 0.35565016 0.2812831 0.10152953
000110 7e a3 24 be ea db a2 be f0 20 8a 3e 95 91 7e be
       -0.16077992 -0.31808406 0.26978254 -0.24860223
000120 62 49 97 be 91 39 98 3d f9 97 e3 bd c1 b1 6e be
       -0.29548174 0.07432855 -0.11112971 -0.23309995
000130 bf 20 f8 3d 58 d2 c5 bd 2a ff 2a 3c db 98 34 bd
       0.12115621 -0.096592605 0.010436812 -0.044091087
000140 d3 f7 33 3e dd 13 21 bd cc 95 93 3e 6d 6b 32 be
       0.17575006 -0.039325584 0.28825223 -0.17423792

encoder.convs.0.convs.<user___eats___food>.att_dst f4 [1, 1, 84]
000000 ae fd cf 3c e4 ec 63 be 90 b8 4b 3e fd c8 fc bd
       0.025389519 -0.22258335 0.19894624 -0.12343023
000010 9c aa 3c 3e a6 76 12 bd 11 c1 a0 be d3 9b a9 bd
       0.18424457 -0.035757683 -0.31397298 -0.08281674
000020 84 bf 99 3e 99 96 4a be 78 85 1e bc 33 5e 13 be
       0.30028927 -0.19784011 -0.009675376 -0.14391403
000030 e5 77 7a bd 8f 1d 6e 3d 41 be 19 bd 9c 37 0d be
       -0.061149497 0.058133658 -0.037534956 -0.13790745
000040 52 15 97 3e 9c 7c 85 be b2 42 b3 3b 90 aa 9d 3e
       0.29508454 -0.26071632 0.005470597 0.3079419
000050 41 aa b1 3c a7 03 42 3d 3c ff 85 3e 9d 4a 3b 3d
       0.021687629 0.047366764 0.2617129 0.045725454
000060 fc f2 50 3b 51 d0 cd bd 1a e7 1a 3e 3b 11 b3 bd
       0.0031883111 -0.10049499 0.15127221 -0.08743521
000070 e7 cd 44 3e ce e0 43 bd 37 24 26 be 61 60 88 3e
       0.1921917 -0.047821812 -0.16224752 0.2663603
000080 dc 46 e7 3d 99 6d f6 3c 3d 60 66 3d fb 40 71 3e
       0.11292812 0.030081557 0.056244124 0.23559944
000090 29 07 0e be 69 34 e6 bd 24 09 4c be 33 7b 85 3c
       -0.13869919 -0.11240465 -0.19925362 0.016294098
0000a0 15 b1 a2 be b6 16 8f 3e 90 49 8a be 25 41 15 3d
       -0.31775728 0.27947015 -0.2700925 0.03643908
0000b0 f3 82 4a be 02 22 18 3e 04 3a 83 3d bf 2f 05 bd
       -0.19776516 0.14856723 0.0640755 -0.032516237
0000c0 bc 92 ec 3d 42 eb 89 3e b2 33 4a 3e a6 86 18 be
       0.11551425 0.269373 0.19746283 -0.14895114
0000d0 c0 09 8e bd 55 b7 8a 3e d2 8d 83 3d 63 ce ac bc
       -0.069354534 0.27092996 0.064235345 -0.021094507
0000e0 5b bd a9 bd da ae 1b be 52 e3 d4 3d 43 17 cd 3d
       -0.0828807 -0.1520342 0.103949204 0.100142024
0000f0 fb c5 40 3e ec 88 79 3d ba 36 1b 3e 96 68 a0 3d
       0.18825524 0.060921595 0.15157595 0.07832448
000100 5d 36 1c bd 2d 67 e6 3b 52 3b 84 3e f7 d8 e6 3d
       -0.038137782 0.0070313425 0.25826508 0.112718515
000110 1f 3b 3f 3e c1 89 b6 3d 96 61 3f 3e d6 e0 d4 3d
       0.18674897 0.08912993 0.1868957 0.103944466
000120 f7 e0 72 3e ad 49 5b 3d 59 00 a3 3c 38 d5 d1 3d
       0.2371863 0.05353706 0.019897627 0.102457464
000130 fc 7b 0c 3d 88 0c 1a be 8d 0b 88 bd 30 16 67 bd
       0.03429793 -0.15043843 -0.06642828 -0.056417644
000140 54 2c 82 3e 67 9d 8e 3e be cb 63 3e ed 1b 2a 3e
       0.25424445 0.27854463 0.2224569 0.16612215

encoder.convs.0.convs.<user___eats___food>.bias f4 [84]
000000 90 ce 45 34 fb d1 df 35 a4 5b 26 b3 bf bb e1 b5
       1.8422202e-07 1.6675907e-06 -3.8733234e-08 -1.6818448e-06
000010 5d 31 49 35 35 93 8a b3 12 5e 86 36 8e 77 41 b2
       7.495017e-07 -6.4529026e-08 4.0044624e-06 -1.1261262e-08
000020 d7 e4 33 34 57 b6 f4 34 23 47 57 b5 f0 3e 57 36
       1.6753926e-07 4.558121e-07 -8.019726e-07 3.207413e-06
000030 03 ef 61 b5 b7 c5 0f 36 a8 cc fd b6 ce 05 74 b6
       -8.416684e-07 2.1423746e-06 -7.5638127e-06 -3.6362212e-06
000040 0f 79 db b5 3d d0 fc 34 d6 0e 46 b6 c0 4b 86 b4
       -1.6352004e-06 4.709017e-07 -2.9512935e-06 -2.501456e-07
000050 7b 87 7e b7 ce f3 b8 34 94 5f cb 35 99 b9 01 36
       -1.5171124e-05 3.4450062e-07 1.5152496e-06 1.933053e-06
000060 99 2f 12 b5 9c 32 82 35 a2 56 8f 35 d7 7b 72 35
       -5.44585e-07 9.700484e-07 1.0679544e-06 9.0332236e-07
000070 45 3b b0 35 a2 3c a0 b7 de 79 6d b8 27 a1 cd b5
       1.3130272e-06 -1.910172e-05 -5.66187e-05 -1.5320592e-06
000080 1a a9 46 36 61 7c d5 35 43 4b fa b5 96 c5 f4 36
       2.960273e-06 1.5905936e-06 -1.8648356e-06 7.2947687e-06
000090 c1 3b af b5 79 07 07 b5 3c 95 50 34 90 33 ad 35
       -1.3055907e-06 -5.0302293e-07 1.94258e-07 1.2904511e-06
0000a0 06 79 30 b6 15 6d 83 b5 93 cb 29 35 89 74 06 b6
       -2.6296489e-06 -9.792008e-07 6.3253646e-07 -2.0035388e-06
0000b0 11 38 97 34 00 84 c0 36 b6 58 4a 36 a4 6a 14 b6
       2.8166735e-07 5.7374127e-06 3.0151982e-06 -2.2115792e-06
0000c0 15 9a 36 35 ed ac 0b 35 bd 37 12 35 09 43 bd b6
       6.80245e-07 5.2033175e-07 5.447035e-07 -5.640443e-06
0000d0 d9 95 21 37 63 f6 c5 34 2f 1c bb 34 bc ad f2 34
       9.631237e-06 3.687338e-07 3.485197e-07 4.520242e-07
0000e0 19 f2 29 34 9d d9 1b b6 97 a8 5d 35 6b 3c d2 34
       1.5827426e-07 -2.3223467e-06 8.2574246e-07 3.9159508e-07
0000f0 42 69 be 36 50 14 9c b6 86 35 00 35 fd 6f aa 36
       5.674695e-06 -4.651527e-06 4.77616e-07 5.079432e-06
000100 d5 58 0d b7 ac e8 d9 b3 20 19 ae b4 87 04 eb 35
       -8.424938e-06 -1.0147173e-07 -3.2428306e-07 1.7510182e-06
000110 05 d1 85 b6 27 47 1a b6 8d 69 31 b6 f9 00 a6 34
       -3.988042e-06 -2.2989204e-06 -2.6436494e-06 3.0920617e-07
000120 a7 a8 88 b8 8b 6a 0e b6 c0 f6 30 37 40 b8 8a 35
       -6.516399e-05 -2.1221665e-06 1.0547868e-05 1.0335425e-06
000130 9d 5d 76 b6 41 dc f6 b4 6b 16 1c 37 d2 47 fa b4
       -3.6711347e-06 -4.5981326e-07 9.303544e-06 -4.6618385e-07
000140 b4 67 0f 34 72 95 76 b7 c5 dc 25 b6 eb 52 4b b7
       1.335564e-07 -1.4697538e-05 -2.471542e-06 -1.2119049e-05

encoder.convs.0.convs.<user___eats___food>.lin_src.weight f4 [84, 29]
000000 22 b2 11 3d e6 6c 38 be e5 30 6f be b7 5d 7a be
       0.03557027 -0.18010291 -0.23358496 -0.24449812
000010 93 47 38 be ea 00 ce 3d 54 63 25 3e 72 28 94 bc
       -0.17996053 0.10058768 0.16151172 -0.018085692
000020 33 67 30 bc 48 59 1c be f4 56 21 3e 11 cf 00 be
       -0.010766792 -0.15268433 0.15755826 -0.1257899
000030 8f 65 19 3d ac 36 98 bd fb e0 8d bd 73 16 0c 3e
       0.03745037 -0.07432303 -0.06927677 0.13680439
000040 e6 85 ae be b0 58 90 3e 74 05 48 be c8 63 19 3d
       -0.3408653 0.28192663 -0.1953333 0.037448674
000050 8d 43 6a 3e c6 3c 0b be d8 83 01 3d 4e e4 11 be
       0.22877331 -0.13597402 0.031619877 -0.14247248
000060 2c 05 8a bd d8 c8 e1 bd 38 f4 9a bd 40 88 2c be
       -0.06739268 -0.11024636 -0.07566112 -0.1684885
000070 01 57 10 3e 82 97 0e be 73 65 ff bd 47 6b d9 bc
       0.1409569 -0.13924983 -0.12470522 -0.026540412
000080 26 ab 68 be 90 51 27 be b2 a7 47 3e 5c 57 66 3d
       -0.22721538 -0.16339707 0.19497564 0.056235656
000090 e8 1c d5 bc d1 a9 2d be aa a9 aa bc f2 8a e8 bd
       -0.02601476 -0.16959311 -0.020832855 -0.11354627
0000a0 a9 b4 45 be 50 49 f2 bc 4e 96 81 bd 4c d9 d7 3d
       -0.19307198 -0.029575974 -0.063274965 0.10539493
0000b0 55 58 19 3d e9 cc 92 3d 6f f7 37 3e d2 d6 2e 3e
       0.037437756 0.0716799 0.17965482 0.17074135
0000c0 32 59 18 3e 0b 17 1c be 1e e4 98 3e 8f e4 fc bd
       0.14877775 -0.15243165 0.2986154 -0.123482816
0000d0 5b fd a9 3c 0a dd d7 3e c4 4e 87 be b4 6c c5 be
       0.020750692 0.42160827 -0.2642728 -0.38559496
0000e0 51 96 b4 3d a1 49 11 3e ca cf e7 3d 9e 99 89 3e
       0.08817733 0.14188243 0.113189295 0.26875013
0000f0 55 4c 75 be 7b 2d 86 bd 6c 29 4a be 06 26 8a 3d
       -0.239549 -0.065516435 -0.19742364 0.06745534
000100 36 a7 d8 3d 2c 27 e1 bd e3 ea bf 3d 04 70 61 bc
       0.10578768 -0.109937996 0.09370973 -0.013759617
000110 12 6f 2a be 35 82 af 3c c9 e9 38 bd 41 92 b9 bd
       -0.16643932 0.021424392 -0.04514483 -0.09061099
000120 cf ca 26 be bf 46 52 3d 77 9a 56 be 34 69 fe 3d
       -0.16288303 0.051337 -0.20957361 0.1242241
000130 94 f1 d1 3d 97 71 41 bd 88 40 86 bd 6d ac cc bd
       0.102511555 -0.04722747 -0.06555277 -0.09993825
000140 27 d2 0a bd 7e cc 9a bd cb f9 fe 3d 03 77 94 bc
       -0.033891823 -0.07558535 0.12449988 -0.018123155
000150 e6 8f 73 be 3d d9 f8 3d d1 7a 3b 3e e5 fd c4 3e
       -0.23785362 0.1215081 0.1830857 0.38474956
000160 d0 24 f7 3d e7 1d a0 bd aa a6 80 be 69 32 8c 3d
       0.12067568 -0.078182034 -0.25127155 0.068455525
000170 bf 2e b4 bd c7 f7 9c 3d 4e e0 5d be c5 4a b6 bc
       -0.087979786 0.07664447 -0.21667597 -0.02225245
000180 fb c0 bc 3d a5 b7 cd 3d c7 8a 35 be bd 12 f6 3d
       0.092164956 0.10044793 -0.1772872 0.12015293
000190 09 15 85 be a3 ef e9 bd c2 a4 b8 3c 0e 9c 83 3d
       -0.2599261 -0.1142266 0.0225395 0.064262494
0001a0 55 da 17 be 89 b6 43 be ca 8f d1 bd f8 d6 30 3d
       -0.14829381 -0.191126 -0.10232504 0.04317376
0001b0 1e 42 fe bd a7 40 52 be 73 27 36 3e 7f 96 70 3c
       -0.124149546 -0.20532475 0.17788486 0.014684319
0001c0 31 c3 82 be 29 5c 0c 3d d3 5d 73 3e 58 89 1f 3e
       -0.25539544 0.03426758 0.2376626 0.15579736
0001d0 52 21 58 3e f5 61 78 be 31 16 70 be 54 24 0b 3e
       0.2110646 -0.24256118 -0.23445965 0.13588077
0001e0 27 25 41 3e b3 9a 3f be 43 d4 bf 3d 5f 6b 3c be
       0.18861829 -0.18711357 0.093666576 -0.18400334
0001f0 73 e9 46 3e f1 9f 06 be 73 47 bb 3c a6 93 1f be
       0.19424991 -0.1314695 0.022861218 -0.15583667
000200 da 65 9f 3d 10 26 66 bc 52 2d 21 3e b6 43 10 bd
       0.077830985 -0.014047161 0.15739945 -0.035220824
000210 9b 5b b5 be 72 ad 14 3e 1e 37 94 3d a2 6c ed bd
       -0.35421452 0.14519289 0.07237075 -0.11592986
000220 48 47 75 be ef e2 c4 bc de fe 80 bd a8 f8 ff bd
       -0.23952973 -0.024033992 -0.06298612 -0.12498599
000230 cc 9e cd be 68 52 cf bd 78 68 7d 3e d6 d1 2b 3e
       -0.40160215 -0.101231396 0.24746883 0.16779265
000240 95 c0 45 be 1c ea 74 be 33 65 fe bb ad 8c 6c 3c
       -0.19311745 -0.2391743 -0.0077635287 0.014437837
000250 3f e5 c6 be b8 8c cf bd 0b 66 52 3e 8b d4 83 bd
       -0.38846776 -0.10134262 0.20546739 -0.06437024
000260 5b 6a 4c be 3d 7b 2a 3e 17 5e 89 3e f6 1e 26 be
       -0.19962446 0.16648574 0.26829597 -0.16222748
000270 dc 0c 4d 3e 64 18 ee 3d c5 bf 38 be 69 d1 25 be
       0.20024437 0.11625746 -0.18041904 -0.16193165
000280 f3 98 18 bb d5 3f c4 bd 62 fd 79 bd 37 c4 9b bb
       -0.0023284524 -0.095824875 -0.06103266 -0.0047536152
000290 97 21 7b 3d 2b 70 55 3d 81 9b 56 3e 34 b6 22 3d
       0.06131133 0.052108925 0.20957758 0.039724544
0002a0 47 d4 b3 bd 0e 4a 53 3e aa ae 19 3d 7a f4 35 bd
       -0.08780723 0.20633718 0.03752009 -0.044422604
0002b0 02 88 57 3e c9 72 8b 3e 20 03 7a bc 0a 7e cd 3d
       0.21047977 0.27236012 -0.015259534 0.10033806
0002c0 f6 c7 4f 3d 5c 00 80 3c 05 8e f0 bd d4 fc 81 3d
       0.050727807 0.015625171 -0.11745838 0.06347051
0002d0 32 d8 14 be ed 88 00 bd 97 f4 85 3e e0 7f 58 be
       -0.14535597 -0.031380583 0.2616317 -0.2114253
0002e0 13 25 8c bd 09 71 cb bc e7 38 a0 bd a3 f8 d0 3d
       -0.06843009 -0.024834173 -0.07823353 0.10203674
0002f0 fd ef 0a bd dc 96 50 3e 8d d4 a7 3c 4d 5f f2 bd
       -0.033920277 0.20370048 0.020487094 -0.118345834
000300 2d 1b ce 3d c7 5d 2e 3e 2a 35 02 be 35 bb df 3d
       0.10063777 0.1702796 -0.12715593 0.10924379
000310 ba e2 bb bb fa 6c 3a be 43 5c 22 be c8 eb 52 3e
       -0.005733815 -0.18205634 -0.15855508 0.20597756
000320 92 d6 a1 3e 1d 45 67 3d c4 8d 13 3e 2d f7 b3 be
       0.31609017 0.056462396 0.14409548 -0.35149518
000330 a6 25 99 bc 41 9f 69 3e cc e6 0b be d0 c6 d0 3d
       -0.01869471 0.22814657 -0.13662261 0.101941705
000340 7a dd fc bd e6 38 2e be 45 5c d5 3d 85 8b 8f 3e
       -0.12346931 -0.17013893 0.1041799 0.28036132
000350 ad b6 44 be 98 e6 81 3e cc 15 17 be 0d 7f 5b bd
       -0.1921031 0.25371242 -0.14754409 -0.053587962
000360 ca 1d 20 3e 47 2f b8 39 db e9 0e 3e 7c b2 82 3d
       0.15636364 0.0003513044 0.13956396 0.063816994
000370 93 cc 86 be c2 d0 62 3e 6e 3b cb bd 9e 00 21 3d
       -0.26327953 0.22149947 -0.09923445 0.03930723
000380 c7 82 9b bd 06 bd d8 3c 0e e1 5d 3e 59 a7 02 3e
       -0.07593303 0.02645732 0.21667883 0.1275915
000390 50 70 39 be be 78 c7 3d aa 8a 01 3d 86 f0 2e be
       -0.1810925 0.097398266 0.03162638 -0.1708394
0003a0 12 ac 2d be 90 82 81 3e ee c3 ae 3d 5a cf ca bd
       -0.16960171 0.25294924 0.08533464 -0.099028304
0003b0 54 46 50 be 05 22 0c bd 46 0b 06 3e ee a1 8d 3d
       -0.20339328 -0.03421213 0.13090238 0.06915651
0003c0 f0 3b 0c bd 65 32 30 3e 6a ed 08 3d 1b 82 92 3d
       -0.03423685 0.17206724 0.03342954 0.07153722
0003d0 e6 04 3b 3e bb 02 b9 3b 7a 1e 0f 3b 5a c3 c7 bc
       0.18263587 0.0056460775 0.0021838234 -0.024385143
0003e0 92 5b 70 bd 45 47 11 3e 7c fa fb bc 48 7f 4b 3d
       -0.05868108 0.14187343 -0.030759089 0.04968193
0003f0 72 12 02 be ba f0 66 3e 35 e8 09 3e b1 0d 25 be
       -0.12702349 0.22552767 0.13467486 -0.16118504

encoder.convs.0.convs.<user___eats___food>.lin_dst.weight f4 [84, 17]
000000 34 0b b8 bd 3c 42 43 3e 22 a3 58 be 7b 95 d2 bd
       -0.08986512 0.19068235 -0.2115598 -0.102824174
000010 6b cb c8 ba c3 1c 36 be 0a 3b 0e 3d 76 d1 21 3e
       -0.0015319412 -0.17784409 0.034724273 0.1580256
000020 bd f2 17 bd aa e6 3d be c5 b8 e7 bd bd 61 bc 3c
       -0.037096728 -0.18545023 -0.11314539 0.022995824
000030 bd f8 6c 3e 1c c1 20 be 87 c3 ad bc bf 67 e3 bd
       0.23141761 -0.15698665 -0.021211399 -0.11103772
000040 80 af a6 bd c7 50 0d bd 5f 33 a7 3d 9c 7f 24 3e
       -0.08138943 -0.034500863 0.08164095 0.16064304
000050 31 4a 73 be 4c 87 53 be f4 98 6c 3e a8 cf 20 be
       -0.2375877 -0.2065708 0.23105222 -0.15704215
000060 23 d0 51 3d 6a 48 63 3e af ce b5 3c 23 88 84 bd
       0.051223885 0.22195593 0.022193281 -0.064712785
000070 58 5d 3c 3e d7 9e 29 3e b6 3f da bc 60 85 2b 3e
       0.18394983 0.16564499 -0.026641708 0.16750097
000080 41 2d 73 3d 68 6b 71 bd c0 7c 46 be f0 f8 6c be
       0.05936933 -0.05894032 -0.19383526 -0.23141837
000090 1d 1c c1 bd f1 46 3f bd fe 52 6a 3d dd 9f f0 bd
       -0.0942919 -0.046698514 0.057208054 -0.117492415
0000a0 ee 1f e7 bd 15 4d d6 3c 59 53 ad 3d e0 44 45 3d
       -0.11285387 0.026159802 0.08463163 0.048161387
0000b0 3e 6d 7d bc d5 f2 e5 3d 7b 7e 63 be 53 2c 5b 3e
       -0.01546794 0.11227957 -0.22216217 0.21403627
0000c0 e1 6e 32 be b9 fe 00 bd a5 cb 33 3e 2d 29 b7 3d
       -0.1742511 -0.031492922 0.17558153 0.089434005
0000d0 c1 9f 94 3e 1e 1e a4 bd 20 f1 8a 3d b4 af bb bc
       0.29028133 -0.08013557 0.06784272 -0.02291093
0000e0 79 9a 24 3e d7 d3 16 be dc 9f 4e 3d b2 05 4f 3d
       0.16074552 -0.14729248 0.050445423 0.05054254
0000f0 c4 75 15 3e e4 c5 1e bd 08 a5 d0 bd 3a 78 27 bb
       0.14595705 -0.038762942 -0.10187727 -0.0025553838
000100 7f 07 1f be 3f 6a 00 be 85 64 23 be 31 f8 17 be
       -0.15530203 -0.1254053 -0.15956314 -0.14840771
000110 16 70 fa 3d 25 c8 0c 3e a4 28 ca bd 33 ab 47 3e
       0.1222841 0.13748224 -0.09871033 0.19498901
000120 76 a7 63 3e e0 ee 99 bc a6 6f 78 be 70 05 12 be
       0.2223185 -0.018790662 -0.2426134 -0.14259887
000130 16 84 b7 3a 3b 58 c0 3d 73 e1 3f 3e 2b d7 a4 bd
       0.0014001157 0.093918286 0.18738346 -0.080488525
000140 24 ef 0c bd c1 8d 17 3d a1 66 0d be 06 6c 21 be
       -0.03440775 0.03700042 -0.13808681 -0.15763864
000150 8f 55 55 3c b4 63 62 3e 5a 84 02 be fe e2 6c 3d
       0.013020887 0.22108346 -0.127458 0.057833664
000160 f2 b4 01 3e 3d 3e 54 3a 80 3c a7 3d d5 e3 33 be
       0.12666681 0.00080964324 0.08165836 -0.1756738
000170 60 aa 48 3e 11 ec 7f 3d db ac 0b be 44 74 74 be
       0.19596243 0.06248099 -0.13640158 -0.23872477
000180 3d 8e f7 bd c2 65 6b 3e 8a 25 12 bd ac 36 83 3e
       -0.12087677 0.22988036 -0.03568033 0.2562765
000190 d5 f5 39 3e f4 2c 1f 3e 0d 50 9c 3d 3c de d8 3d
       0.18160184 0.15544492 0.07632456 0.10589263
0001a0 97 eb be 3d 8f c6 42 3c dc 6e 51 3e 73 b5 68 bd
       0.09322279 0.01188816 0.20452446 -0.05681367
0001b0 ff 2a d1 bd e2 a2 56 be ea f0 09 3c 35 4e 49 3e
       -0.10213279 -0.20960572 0.008419255 0.1965874
0001c0 f8 ee 4c be cb 20 75 bc 4f 4a ac 3d 7a 3a d7 3d
       -0.20013034 -0.014961432 0.08412611 0.105092004
0001d0 80 03 95 bd a1 9d a8 3d 49 b3 92 bd d3 a5 03 be
       -0.07276058 0.0823319 -0.07163102 -0.12856226
0001e0 fd 56 aa 3d 38 80 5d be 01 6d d7 bc a6 63 49 3e
       0.08317373 -0.21630943 -0.026297094 0.19666919
0001f0 4e d9 5e bd 0d e0 c4 3d b5 5e 6f 3e 23 78 de bd
       -0.054406457 0.09613047 0.23375972 -0.10862758
000200 c3 9a 78 3e 41 a4 50 be 79 25 0f be 5d 0d 15 3e
       0.24277787 -0.20375158 -0.13979138 0.14555879
000210 ff 79 68 3e 2f ea 12 bd 7f 4e 83 bd f5 73 30 be
       0.22702788 -0.035867866 -0.06411456 -0.17231734
000220 40 a7 62 be e0 44 92 be 8a 05 5c 3e eb 87 2f be
       -0.22134113 -0.28568172 0.21486488 -0.17141692
000230 c2 5f fe 3c c1 03 eb 3d 5c 20 72 3e 5b c7 5c be
       0.03105152 0.114753254 0.23645157 -0.21560423
000240 9c 69 41 bc f7 4d 0f be 42 db 23 be 9d 91 4a 3d
       -0.011804964 -0.13994585 -0.16001609 0.049455274
000250 f8 d9 42 3d 17 77 bc bc 17 3f 16 3e 57 1a dd 3d
       0.047571152 -0.023006005 0.14672504 0.107960396
000260 be 9a 09 3e 64 7e e4 3d 91 65 64 3e 46 2c 16 be
       0.13437936 0.111569196 0.2230437 -0.14665326
000270 5e cc 24 3e c1 2f 1b be 52 08 11 3d 54 8b 3c 3e
       0.16093585 -0.15154935 0.035408325 0.18412524
000280 8c 7d 05 3e e1 7d 45 3e 47 58 1e 3c 0e e7 7f 3d
       0.13036174 0.192863 0.009664602 0.06247621
000290 6d f1 97 bd e9 09 d5 bd a7 73 78 bd 26 e7 cb bd
       -0.07419095 -0.10402281 -0.06065717 -0.099561974
0002a0 59 90 06 3e ef ac 3a bd 97 cc 72 be f9 15 f9 3d
       0.13141002 -0.04557508 -0.23710857 0.12162394
0002b0 c5 81 34 be f3 2c 4a 3e 84 fe 67 be ce 45 06 3e
       -0.17627628 0.1974371 -0.22655684 0.13112566
0002c0 49 e7 56 be ab 0f 5b be 6a 14 c5 3d c2 50 2a 3e
       -0.20986666 -0.21392696 0.09623034 0.16632369
0002d0 39 72 7a be 7f 29 14 3e b8 08 6d be c9 a4 18 be
       -0.24457635 0.14468955 -0.23147857 -0.1490661
0002e0 8a 74 25 3d 3c 21 9d 3b 4a 95 0a 3d b8 23 e3 bd
       0.040394343 0.0047952216 0.03383378 -0.11090797
0002f0 9e 22 2d 3e 2e 6f 46 3e c5 51 f6 3d d2 3f 1c be
       0.16907737 0.19378349 0.12027315 -0.1525872
000300 38 19 45 be ba 30 43 be 50 70 0f 3e 66 ac 35 3e
       -0.19247901 -0.19061556 0.14007688 0.17741546
000310 43 5c dc 3d d9 34 08 bd db 6e 27 be 41 5c 04 be
       0.10759785 -0.033253524 -0.16350882 -0.12925817
000320 a0 88 62 3e 13 16 16 3d 4e e5 3f 3e 3a a2 60 3e
       0.22122431 0.036642145 0.18739817 0.21936885
000330 03 19 78 bc 15 9f d3 bd db 43 70 be cc 85 e2 bd
       -0.015142682 -0.10333077 -0.23463385 -0.11060676
000340 4b 18 79 bd 47 6c a4 bd 5e 60 b0 bd e0 6e c6 3d
       -0.060814183 -0.08028465 -0.086121306 0.096891165
000350 3d 8c 80 bd 45 d6 a5 3d e9 e7 74 be f4 c7 74 bd
       -0.06276748 0.08097509 -0.23916592 -0.059761003
000360 41 f9 27 3e 97 e9 42 be 0c f8 aa 3c 7e 96 9c bd
       0.16403677 -0.1903442 0.020870231 -0.076458916
000370 dd a8 1c 3d b3 24 41 bd 3d 0d be 3d 67 49 ad 3d
       0.038246978 -0.04715414 0.09279869 0.08461266
000380 a1 fd b9 3d 02 ba c7 bd 60 ae 80 3d e1 cb 92 3c
       0.09081579 -0.09752275 0.062832594 0.017919483
000390 7f d7 40 3e bc 10 a6 bd ad 67 59 3d 35 47 70 3e
       0.18832205 -0.081086606 0.05307739 0.23464663
0003a0 52 5f 9c 3c bb ab ee bc df 87 fc bd c4 66 ab bc
       0.019088421 -0.029134622 -0.12330603 -0.020923026
0003b0 ca ba 86 3d 19 cf 41 be 70 d8 10 be 09 dd 2c be
       0.06578596 -0.18926658 -0.14145064 -0.16881193
0003c0 9c 3a 34 3d cd 8d 6e 3e f1 5c bd 3d 70 90 50 3d
       0.044001207 0.2329628 0.09246243 0.050918996
0003d0 6d 35 45 3e 04 99 10 be 9a ff 66 3e 24 f3 3b 3e
       0.19258662 -0.14120871 0.22558442 0.1835447
0003e0 f8 fc 4c 3d e0 02 08 bd dc 41 11 3e 8f 70 5d 3e
       0.050045937 -0.033205867 0.1418528 0.21624969
0003f0 bd 35 28 3e f2 13 13 bc 8e f1 f3 3d 6b 2a 1b 3e
       0.1642675 -0.008976923 0.11911307 0.151529

encoder.convs.0.convs.<food___contains___ingredient>.att_src f4 [1, 1, 84]
000000 36 8a b5 3d 9d 0e 25 3e e1 75 f7 3e 7a 4f e0 3e
       0.08864252 0.16118856 0.48332122 0.43810636
000010 b0 72 47 be 37 8b 5b 3d 1c 62 92 3e a3 bf bc 3e
       -0.19477344 0.053599562 0.28590477 0.36864957
000020 86 72 dc be 79 3b 1b bc 2d 52 ec 3c 6d 95 04 bd
       -0.43056124 -0.009474629 0.028847778 -0.032369066
000030 f3 e2 c0 3e 3a 96 81 3d 0b 66 07 3e ec f6 a3 bd
       0.3767315 0.063274816 0.1322252 -0.08006081
000040 2d 99 06 3e c0 b8 00 be c4 f5 c1 3e 25 f0 6a be
       0.1314437 -0.12570477 0.37882817 -0.2294317
000050 6c 59 cb be a3 12 94 be 08 19 74 3e 33 20 1a 3f
       -0.3971666 -0.2892047 0.23837674 0.6020538
000060 aa 05 0c be a7 e9 cf be 5c cd 8c 3e 00 ae 1a 3e
       -0.13674036 -0.4060795 0.27500427 0.15105438
000070 88 a7 38 bd e2 1b eb bd 59 88 42 be ae ab 90 3e
       -0.045081645 -0.114799276 -0.18997325 0.2825598
000080 e6 ec 15 be f3 37 81 be 71 41 15 3e 43 c7 ac 3d
       -0.14641151 -0.25237998 0.14575745 0.08436444
000090 cf 99 76 3e 2e 53 31 be d3 51 91 3d a9 b3 fb 3e
       0.24082111 -0.17316887 0.07095685 0.49160507
0000a0 da ba da bd 77 03 00 3f ed 0c 9b 3e e4 89 f1 be
       -0.1068017 0.50005287 0.302833 -0.47175515
0000b0 f7 9a 42 be f3 86 bb be e2 6a 11 be ab 7d f8 bd
       -0.19004427 -0.36626396 -0.14200929 -0.12133344
0000c0 5a 98 b1 be 20 9e 4d bc 84 c7 98 bc 68 b3 86 bd
       -0.34686548 -0.012549907 -0.018649824 -0.06577188
0000d0 51 e1 92 bd d9 25 61 be 98 68 0e bf c6 b4 02 bf
       -0.07171882 -0.21987094 -0.5562835 -0.5105709
0000e0 58 b2 19 3e 63 f6 4c 3e 82 c8 a9 3e fd a3 9a 3d
       0.15009439 0.20015864 0.33160788 0.075508095
0000f0 29 94 f1 be c6 15 fe 3e db 5d 63 be f5 ea 77 be
       -0.4718335 0.49625987 -0.22203772 -0.24210723
000100 c6 8f 77 bd a3 cc 10 be 19 fb 41 3e 5d fd eb bd
       -0.060439847 -0.14140563 0.18943442 -0.115229346
000110 5b 68 09 3e 8b b8 30 bf e7 4b 69 3e 62 a7 9f 3e
       0.13418715 -0.6903159 0.2278286 0.3118239
000120 48 46 6d bd 4f c9 8d 3e 98 9b 1f 3f 41 06 a9 3d
       -0.057928354 0.2769265 0.6234679 0.08253146
000130 03 26 c0 3d 2b a2 2e be 27 67 18 be bc 08 45 be
       0.0938225 -0.1705405 -0.148831 -0.19241613
000140 fa 96 b7 be a9 d9 e7 bd 20 15 68 3e 01 af a9 bd
       -0.35857373 -0.11320812 0.22664309 -0.082853325
