etc/old3/models/best_model_AUC_0.9530.pt (torch, 265313 bytes, 144 tensors)

encoder.convs.0.convs.<user___healthness___food>.att_src f4 [1, 1, 36]
000000 27 18 82 be 8b e4 1b be d7 c2 f2 be e2 c8 40 be
       -0.25409052 -0.15223901 -0.47414276 -0.1882663
000010 38 c7 32 be a0 48 bd be 3c 63 93 be 84 3b 94 be
       -0.17458808 -0.3696947 -0.28786647 -0.28951657
000020 1c ad 14 bb 26 78 58 3e e9 af 28 bf 29 25 b4 bd
       -0.002268619 0.21139583 -0.6589342 -0.0879615
000030 78 2e 1a 3f 54 91 8c bd 0e 55 0b 3d 49 b6 93 be
       0.60227156 -0.06863657 0.03401666 -0.2885001
000040 5a 73 1a 3e 27 15 79 3e e0 6c 88 3b a1 1c 74 bd
       0.15083066 0.24324475 0.0041633695 -0.059597615
000050 05 05 43 3e 14 a6 58 be ae 9c ba bd 32 6d 46 ba
       0.19044884 -0.21157104 -0.091119155 -0.0007569372
000060 69 f6 1b be 6d 29 8c 3c 7f 82 65 be 53 73 00 be
       -0.15230717 0.017109597 -0.22413062 -0.12543993
000070 14 45 fb 3d 1f eb b9 3e 55 5d 2e bf ba 65 ac 3e
       0.12269035 0.36312196 -0.68111163 0.3367136
000080 9d 4f c1 bd 65 69 9a 3c c5 12 93 3e 6f c1 0d bf
       -0.09439013 0.018849084 0.28725258 -0.5537328

encoder.convs.0.convs.<user___healthness___food>.att_dst f4 [1, 1, 36]
000000 14 7f 19 be 80 51 3e bd 42 7a 44 be be 12 a0 bb
       -0.14989883 -0.046464443 -0.19187263 -0.0048850467
000010 29 1d 96 be 33 b3 9b 3c 39 fc 1e 3e 9e f1 8b be
       -0.29319122 0.019006347 0.15525903 -0.27332777
000020 62 89 21 3e 97 bf 07 be bd f1 bb bd ab 19 c7 3e
       0.15775064 -0.1325668 -0.09176967 0.3888677
000030 51 64 ab be c3 c3 e2 be 58 4a 87 bd 3f e8 ef bd
       -0.33474973 -0.4428998 -0.06605977 -0.11714219
000040 1f a1 80 be 69 64 7f be d4 d1 2d 3b d2 4a d5 3e
       -0.25122926 -0.24940647 0.0026522772 0.41658646
000050 b0 7a 84 be f6 b2 2e be 19 47 31 be f1 0f d4 be
       -0.25874853 -0.17060456 -0.17312278 -0.41418412
000060 92 dc 2d 3e df f2 cb 3b 6d 3f c1 3e b7 79 fe be
       0.16978672 0.006224021 0.37743703 -0.49702236
000070 02 64 e0 3d 89 2e 8a 3e 70 69 1a 3e 43 60 53 be
       0.10956575 0.26988629 0.15079284 -0.2064219
000080 03 8e 88 3e 03 79 55 be 79 9b 77 3e 8f 84 a6 3b
       0.26670846 -0.20846944 0.24180402 0.00508172

encoder.convs.0.convs.<user___healthness___food>.att_edge f4 [1, 1, 36]
000000 7c 5a 44 3e 62 59 91 3e d0 28 24 3d 28 e6 2e 3d
       0.19175142 0.28388506 0.040077984 0.042699963
000010 e8 39 a7 bd 96 09 bb be e8 b4 2d 3e 04 34 9a 3e
       -0.081653416 -0.3653075 0.16963542 0.3011781
000020 54 6a 2c 3e 08 af 80 bd 3a 90 b8 be 80 1b da bb
       0.16837436 -0.062833846 -0.36047536 -0.0066561103
000030 98 79 d6 3d fe 60 a1 be 7e 52 af 3e c0 bd 2d bc
       0.10472411 -0.31519312 0.34242624 -0.010604322
000040 20 40 e1 3d 5e e3 b5 3e 18 03 33 3e fb 70 5f be
       0.10998559 0.3552503 0.17481649 -0.21820442
000050 48 11 18 3e 30 76 72 3e 98 bb 4d 3e eb bc 41 be
       0.14850342 0.23677897 0.20091093 -0.18919723
000060 60 89 27 3d e2 24 94 be 10 50 39 bd 60 12 8f be
       0.040902495 -0.2893439 -0.04524237 -0.27943707
000070 f8 ba 6b 3e ea ba c9 3e 42 af c7 be 98 a8 40 be
       0.23020542 0.39400417 -0.390009 -0.18814313
000080 e4 6b 2e be 07 5f 90 be 7e 9c bb 3e d3 42 9f be
       -0.17033345 -0.281975 0.36642832 -0.3110567

encoder.convs.0.convs.<user___healthness___food>.bias f4 [36]
000000 b5 e6 01 37 01 5c 97 36 19 2e d7 b5 80 14 b0 b6
       7.742715e-06 4.5108613e-06 -1.6032164e-06 -5.2475953e-06
000010 4b e8 07 36 bf 73 25 b7 8e 00 1c b7 c1 50 62 b5
       2.025178e-06 -9.861716e-06 -9.298454e-06 -8.4309073e-07
000020 19 db 9b b5 40 23 09 36 64 95 82 34 7c ab 12 36
       -1.1612166e-06 2.043511e-06 2.4323083e-07 2.1855512e-06
000030 68 c4 60 b6 cc 35 54 b7 c7 65 25 34 47 db 97 36
       -3.3492925e-06 -1.264871e-05 1.5403849e-07 4.525678e-06
000040 bf 66 dc 35 f6 5a 4a 36 01 64 89 35 f0 49 97 b6
       1.642118e-06 3.0153292e-06 1.02364e-06 -4.508758e-06
000050 e5 49 da 36 ac ee 5a b6 31 c2 6c 37 0c a3 90 b7
       6.5055087e-06 -3.2623457e-06 1.411191e-05 -1.7242062e-05
000060 e5 84 2a 36 02 ea be b6 a1 81 01 b7 53 1f b8 36
       2.5409329e-06 -5.6896833e-06 -7.719181e-06 5.487274e-06
000070 03 19 e6 32 10 12 05 37 97 00 b1 35 0f 2c 44 b6
       2.6786898e-08 7.931623e-06 1.3187699e-06 -2.9231921e-06
000080 04 0b d0 b5 32 70 c6 b5 c7 24 60 b6 3a 4c 9c 35
       -1.5500414e-06 -1.4784803e-06 -3.3400008e-06 1.1645091e-06

encoder.convs.0.convs.<user___healthness___food>.lin_src.weight f4 [36, 29]
000000 74 77 59 3c b8 ab d5 be 84 b3 fa bc 5e 52 37 bc
       0.013273109 -0.41732574 -0.030603178 -0.011189071
000010 48 dd 69 be de 7d 63 3c 4a 63 e1 bd 9e 0d 50 3e
       -0.22838318 0.01388499 -0.11005266 0.20317695
000020 52 e8 4b bd 2b 19 95 bd 2d cf c2 3c 80 35 83 3e
       -0.049782105 -0.07280191 0.02378043 0.25626755
000030 74 9d 47 3e 91 0f a5 be 46 4f e6 3d 28 96 81 be
       0.19493657 -0.3223844 0.11245589 -0.25309873
000040 2a a6 66 bd ed 1f 00 3e ad 50 41 3e e7 a2 5a bf
       -0.05631081 0.12512179 0.18878432 -0.8540482
000050 ba e8 8d be 9b 6e a4 3f ad a7 ed 3e 55 67 68 bf
       -0.2771662 1.2846254 0.4641699 -0.9078267
000060 84 89 04 3e 11 e5 6f be 62 ec 21 be c2 86 26 be
       0.12943083 -0.23427226 -0.15812829 -0.16262344
000070 85 36 a0 3e 3f 0c 8d be 95 68 87 bd 63 b8 4c be
       0.31291595 -0.27548406 -0.06611744 -0.19992213
000080 c8 f1 1c be f1 d0 1e be a9 e7 29 be 4d db 08 3f
       -0.15326607 -0.15509392 -0.16592278 0.53459626
000090 b0 19 e0 be de 89 90 be 24 60 37 be e1 06 1a 3f
       -0.43769598 -0.28230184 -0.17907768 0.60166746
0000a0 af 85 88 3d a0 8c 98 bd fb dd 41 3e 76 ab d6 3e
       0.06666123 -0.07448697 0.18932335 0.4192769
0000b0 01 6f 82 3e 0b 0d e6 3e 37 66 1c bf 77 cf 20 3f
       0.25475314 0.44931826 -0.6109347 0.62816566
0000c0 f3 34 40 be b1 f7 bd be ec 29 cf 3d 80 f8 24 3f
       -0.18770199 -0.37103036 0.10115418 0.6444168
0000d0 fe e3 8a 3e fa a8 a5 be 3b 69 02 be b9 86 6e bd
       0.2712707 -0.3235548 -0.12735455 -0.05823395
0000e0 07 57 85 3e 36 59 12 bd 89 5b a9 be e7 1a c7 3e
       0.2604296 -0.03572961 -0.33077648 0.38887712
0000f0 33 5d 03 be 3b 7f dd be cb dc b1 be 6e 2d d3 bd
       -0.12828521 -0.43261132 -0.34738764 -0.103113994
000100 af d2 38 3e 70 6d cf be 6c 15 2c be f5 02 d7 3b
       0.1804912 -0.40513182 -0.16805047 0.006561632
000110 40 aa 15 3f b1 9d b2 bd 1c 23 7b 3d e6 54 2b 3e
       0.58462906 -0.087214835 0.06131278 0.16731605
000120 d7 fe bd 3e 0b db 8c be 63 e6 1c 3f 80 36 08 bf
       0.3710849 -0.27510867 0.6128904 -0.5320816
000130 5e 66 04 3f 55 ab 45 bd 02 54 e6 be d1 90 a9 3e
       0.517187 -0.048259098 -0.44985968 0.331183
000140 de d7 31 3f 0e 71 e3 bd 3d 69 c3 be d4 f6 cb 3d
       0.6947001 -0.11105548 -0.38166228 0.09959188
000150 f4 58 c9 3e b5 4d 04 3d e2 e1 1b be 76 f9 fe bc
       0.39325678 0.03230067 -0.15222886 -0.031124812
000160 91 ba cd bb 5c 73 e9 bd bf 49 d6 3e 33 f6 6e 3e
       -0.006278344 -0.11398956 0.4185314 0.23336105
000170 f7 d1 04 be cf ec 35 be ab 00 9a 3e 6c 2a 91 be
       -0.1297072 -0.17766117 0.30078635 -0.28352678
000180 ad ba 1b 3d 25 2e a1 3d 3d 19 8e be f8 5c d5 3c
       0.038019825 0.078701295 -0.2775363 0.026045308
000190 2d 98 40 be 86 12 21 3e af 37 15 be 7f 96 b9 be
       -0.1880805 0.15729722 -0.14572023 -0.36247632
0001a0 a6 99 21 3e 9d a9 83 be 20 20 b7 be 0d a4 dd 3e
       0.15781268 -0.25715342 -0.35766697 0.43289223
0001b0 eb cc 5f 3f 02 43 18 3e 6a ae 18 bf f7 52 c3 3d
       0.87422055 0.14869311 -0.59641135 0.09537309
0001c0 f1 57 01 3d c7 88 01 3e 3a 26 0a 3e eb dd 71 3e
       0.031578008 0.12649833 0.13491145 0.23619811
0001d0 1e 26 7c 3e cd c1 33 be 04 1f 97 3e e1 7f a0 3e
       0.24623916 -0.17554398 0.2951585 0.31347564
0001e0 c7 e2 80 bd a2 e1 8d 3d df 1b 02 be 96 e8 08 3f
       -0.06293254 0.06927802 -0.12705944 0.534799
0001f0 b9 53 0f be 07 db 12 be 91 4e 58 3e fe 4b ee b8
       -0.13996781 -0.14341365 0.2112372 -0.00011362879
000200 a4 0f 2a 3e 85 2c 74 3d 3d 7f 1f 3e db 0d 22 be
       0.16607529 0.05961277 0.15575881 -0.15825598
000210 09 32 d7 be 1f c5 44 3e 7b fb 82 be 17 32 5c bf
       -0.4203036 0.1921582 -0.2558249 -0.8601393
000220 56 66 20 be 30 b1 8a 3f 78 db bb bd 08 f0 9c be
       -0.15664038 1.0835323 -0.0917272 -0.3065188
000230 fd e0 d7 3e 76 93 bf 3c 77 b6 a3 bd 96 4b e4 be
       0.4216384 0.023385745 -0.07993787 -0.44588917
000240 19 36 e0 bd 8d ef fb be 27 7f 00 3f c5 17 34 3e
       -0.10947818 -0.492062 0.5019402 0.17587192
000250 2c bd fb bd 36 f5 9a be 3e ad 2e 3e 64 42 ee 3e
       -0.12291941 -0.30265206 0.17058274 0.46535027
000260 0c c8 33 be 35 7c eb be a3 9c 24 3e e5 45 41 3f
       -0.1755678 -0.459932 0.16075377 0.75497276
000270 4f 78 8c 3e 9e 05 33 bd 9a 4f db 3d 08 25 ab 3e
       0.27435538 -0.04370653 0.10708542 0.3342669
000280 17 6d 7a 3d 34 55 d8 3e e9 17 f6 be a5 70 2f 3f
       0.061139192 0.42252505 -0.48065117 0.68531257
000290 07 16 2a be 01 c1 17 bf 7f 18 20 3f 0c ad 03 3f
       -0.16609965 -0.59278876 0.6253738 0.51435924
0002a0 66 31 4b be 4a e3 8b be 2c a6 61 3e 1f d4 bc 3e
       -0.19843063 -0.27321845 0.22036046 0.36880586
0002b0 f3 1e 91 3e 92 21 0d be c7 32 ab be a7 83 ba 3e
       0.28343925 -0.13782337 -0.33437178 0.36428568
0002c0 d8 a5 b8 bc 09 73 85 be 35 b6 25 be 1c c8 75 be
       -0.022540018 -0.26064327 -0.16182788 -0.24002117
0002d0 28 cc 06 3e 51 70 f2 bd 08 0f f3 3c 43 ce 74 3e
       0.13163817 -0.11837829 0.029670253 0.23906808
0002e0 d2 ac f4 3d 0b fe 5a bd fa 01 cd 3c 62 06 9f bd
       0.11947025 -0.05346493 0.025025357 -0.07764889
0002f0 67 e3 e9 3e e6 d7 87 3e 2e 68 ca 3e ec 09 e6 be
       0.45681307 0.26531905 0.39532608 -0.44929445
000300 26 b8 08 3f b9 ef a5 3e 00 dc d5 be c3 49 af 3e
       0.5340599 0.32409456 -0.4176941 0.34235963
000310 e7 cd 27 3f bc 13 ab 3d 5b 21 97 be 5a ad 0b be
       0.6554856 0.083533734 -0.29517636 -0.13640347
000320 04 2e b4 3e 1b 55 ad 3d ad e9 d9 3c c2 a3 b1 be
       0.35191357 0.08463498 0.026600683 -0.3469525
000330 23 e5 c7 3c 00 42 3f 3e 91 50 95 be 74 f2 07 be
       0.024401253 0.18677521 -0.2916303 -0.13276082
000340 a5 57 da 3d eb fd 71 3e 5a 20 00 bf 27 bc 37 be
       0.10661248 0.23632018 -0.50049365 -0.17942868
000350 44 2f 03 3d 4b f2 3f 3f f6 94 5f be 73 58 59 3e
       0.032027498 0.74979085 -0.21834168 0.21225147
000360 c3 46 7c 3d f5 14 40 3f 86 63 87 be 7c a5 17 3f
       0.06159092 0.7503198 -0.26443118 0.59236884
000370 b6 ee f0 be 7d 07 13 3f 71 ad 8c 3e e6 8e 41 bf
       -0.47057122 0.574333 0.27476075 -0.7560867
000380 fb 6e 5d 3e 22 e2 b5 3e 79 c7 f0 bd 8d 39 05 bf
       0.21624367 0.35524088 -0.117567964 -0.5204094
000390 97 13 5a 3d ea 6d 79 bd 4c 53 3e 3e 17 e9 98 3e
       0.05324134 -0.060895838 0.18586463 0.29865333
0003a0 ae 23 16 3f 32 6e 71 3e 25 47 b2 3d 06 f5 88 be
       0.5864819 0.23577192 0.08704976 -0.26749438
0003b0 ff e5 19 bd f4 bc 8f be 6d 93 ab 3e d3 af a7 be
       -0.037572857 -0.28073847 0.33510914 -0.3275133
0003c0 ab 76 04 be 56 4c 04 3e 7d f4 ac 3d f4 af 8c 3e
       -0.12935893 0.12919745 0.0844507 0.27477992
0003d0 46 f1 52 bd b2 26 d2 3d dc 71 2e 3d d7 27 35 bd
       -0.051499628 0.10261287 0.042589054 -0.044227447
0003e0 8e e0 5b 3e 4c f1 b9 be 4d 78 dd 3e 1f 0c 0e 3f
       0.2147238 -0.36316907 0.43255845 0.55487245
0003f0 7f 2a 3c 3d 9f b8 22 be 83 54 41 3e 78 7d b9 3d
       0.045938965 -0.1589074 0.18879895 0.090571344

encoder.convs.0.convs.<user___healthness___food>.lin_dst.weight f4 [36, 17]
000000 86 b6 cf 3e a7 e4 17 be f1 12 b7 3d d5 1e 8e 3d
       0.40568942 -0.14833318 0.0893916 0.069394745
000010 b9 34 43 3e f0 16 98 3d 3e 86 b0 3e 2d a5 6f 3e
       0.19063081 0.0742625 0.3447742 0.23402853
000020 d9 76 68 3e 9b e2 25 3e 5e 85 90 3d 91 fe ad 3d
       0.22701587 0.16199724 0.07056688 0.0849582
000030 63 5f ed 3d 54 4c ef bd 5f 70 ba 3e 77 f4 e9 bd
       0.11590459 -0.1168448 0.36413857 -0.11423581
000040 cc 8a 81 3e 11 5a 88 be 13 cd 65 3e bc f3 92 3d
       0.25301206 -0.26631215 0.22441511 0.07175395
000050 69 ca e0 bc 32 8e 1b 3e d5 13 1c be a9 0d 87 3e
       -0.027440267 0.15190962 -0.1524194 0.2637761
000060 04 a9 ef 3d 16 cd ad 3d d7 cc 09 be f3 08 ab be
       0.11702159 0.08486383 -0.13457046 -0.33405265
000070 aa 89 94 be 15 4c a1 be 36 82 a0 bd cc 2f 7c bd
       -0.2901128 -0.31503358 -0.07837336 -0.06156902
000080 c8 44 fd 3d 88 58 18 3d bf 2b 07 3e 4e 0c 41 be
       0.123666346 0.037193805 0.13200282 -0.1885235
000090 0b 76 57 3e b5 8c 94 3d 6a 09 22 3e 08 ec b5 bd
       0.21041124 0.072534 0.15823904 -0.0888291
0000a0 d8 96 94 be 19 bd 74 3e 7c 0d 61 be 2f 89 cc bd
       -0.29021335 0.2390026 -0.219778 -0.09987103
0000b0 b3 09 36 3e d2 db 0a be 0a 32 6a 3e f9 e1 7e be
       0.17777137 -0.13560417 0.22870651 -0.24890889
0000c0 c2 10 d3 3e f4 05 29 3e 74 c5 17 be a2 63 07 bd
       0.41223723 0.16506177 -0.14821416 -0.033054
0000d0 c4 76 43 be 44 f1 22 be a7 32 48 be 3a 6a 7f bd
       -0.19088274 -0.15912348 -0.19550572 -0.062357165
0000e0 d5 9e 74 3e f6 cf 2a 3e b7 78 37 3e 05 38 84 3e
       0.23888715 0.16680893 0.17917143 0.2582399
0000f0 a0 7a c3 bd f7 eb fc 3d 12 89 ae 3e 7c bc 6d bc
       -0.09544873 0.12349694 0.3408895 -0.01451027
000100 08 3c 96 3c d9 ee dc 3e 50 ed a3 3e b2 77 b9 bd
       0.018339172 0.43150976 0.32016993 -0.09056033
000110 44 53 55 3e 92 e2 a4 3e 58 83 77 3e 7e 43 38 be
       0.20832545 0.3220411 0.24171197 -0.17994496
000120 7d 92 b4 3e a3 f3 cb 3d 5a f0 97 3c 16 e0 bd 3d
       0.35268012 0.099585794 0.018547226 0.092712566
000130 83 6b 87 3e 0c 7c 76 3c 96 2e 98 3e 82 17 43 3e
       0.26449212 0.0150442235 0.29723042 0.19051936
000140 7f aa b8 bd e1 00 4d be 24 91 cb 3e 65 41 88 3e
       -0.090168945 -0.20019867 0.3975917 0.26612392
000150 69 b2 68 3d b3 f3 23 3e 47 8d 0d 3e cc d3 91 3e
       0.05681077 0.16010933 0.13823424 0.284819
000160 61 44 f1 bd a6 c6 8e 3e 9f 07 5a be 97 fa 55 be
       -0.1178062 0.27885932 -0.2129197 -0.20896374
000170 50 e7 9a 3d 32 d0 4e be b8 6e 16 be 73 5e 92 bd
       0.075636506 -0.20196608 -0.14690673 -0.07146921
000180 01 ad 42 bc 78 d7 d4 bd 38 9e a1 be 63 2e 4b be
       -0.011882068 -0.1039266 -0.31566024 -0.19841914
000190 5b 5c 6f 3e 89 a3 b3 3c 50 58 b8 be 9e 84 71 be
       0.23375075 0.021928566 -0.36004877 -0.23585746
0001a0 91 ee 9c bc ae de 54 3d e4 92 08 be a0 22 5d be
       -0.019156726 0.051970176 -0.13337284 -0.2159524
0001b0 bc 29 5e bd 29 43 44 be 5f 7a 49 bd 12 36 9d 3d
       -0.05423902 -0.19166245 -0.049188968 0.07676329
0001c0 0e e8 87 be b3 62 b8 be 96 58 6e 3e 95 37 83 3e
       -0.2654423 -0.36012802 0.2327598 0.25628343
0001d0 6d 98 ce be 58 0e 73 bc 35 a1 34 be ca 40 00 3e
       -0.40350667 -0.014834963 -0.1763962 0.12524715
0001e0 5b 0f c4 3d a0 2d 13 be 9e 94 cb 3e 2c 79 3e be
       0.09573241 -0.14372873 0.39761823 -0.18600911
0001f0 10 e4 8a 3b 00 ea 39 be 53 7e 82 be 77 90 80 3e
       0.004238613 -0.1815567 -0.25487003 0.25110218
000200 12 fa 92 3e fe 26 8f be 99 6d b4 3e b3 80 8b bd
       0.28706414 -0.27959436 0.35239866 -0.06811657
000210 96 ff 56 be da be 1a 3d 45 3a 4e be a1 ee 13 3e
       -0.20995936 0.037779666 -0.20139416 0.14446498
000220 d8 c7 77 3e 7c b3 19 bd 0b 5f fb 3d 98 18 11 3d
       0.24197328 -0.037524685 0.122739874 0.035423845
000230 79 99 5a 3e 0c 15 9c be c9 25 6f bd e8 a7 1e be
       0.21347608 -0.30484807 -0.058385644 -0.15493739
000240 31 79 93 bd 09 8c 9a 3e ca 02 88 bc 54 50 99 be
       -0.0720085 0.30184963 -0.016602892 -0.29944098
000250 e0 ee 88 be a1 e1 7c be 66 af 80 be 60 cf a3 39
       -0.26744747 -0.24695446 -0.25133818 0.0003124429
000260 f9 9a 77 be ee 08 2a bd ec e7 bf 3e 24 76 51 be
       -0.24180211 -0.041512422 0.3748163 -0.20455223
000270 2c 83 bd bd 97 eb 20 be dd fa 62 be ce d5 00 be
       -0.09253535 -0.1571487 -0.22166009 -0.1258156
000280 da 61 49 be be 88 28 3e 37 25 58 3e 70 ed 38 3e
       -0.19666234 0.16458413 0.21107946 0.18059325
000290 b1 ba 88 3e da 22 7b be 94 eb 26 be a2 31 7d 3d
       0.26704934 -0.24525014 -0.16300803 0.06181491
0002a0 0d c8 19 be 26 f0 53 be 22 e5 8a 3e ff 8f 0f 3d
       -0.1501772 -0.20697078 0.2712794 0.035049435
0002b0 9e 6c be 3e fa 37 6e be df 64 b1 3e da 96 ad 3e
       0.37192243 -0.23263541 0.3464727 0.33904153
0002c0 8a 58 84 bd 66 87 a1 be 8a d2 72 bd d8 14 80 3e
       -0.064622 -0.31548613 -0.059282817 0.25015903
0002d0 a5 db 45 be 87 3f 78 3e 8f 13 b7 3e bc aa 2a be
       -0.19322069 0.24242984 0.3575711 -0.16666692
0002e0 dd e6 a9 bd 35 20 86 3e c4 f7 90 3e c4 67 01 bd
       -0.08295987 0.26196447 0.2831403 -0.0315931
0002f0 47 28 6e be 12 73 67 be 58 49 59 bd 6f 41 5c be
       -0.23257552 -0.2260249 -0.05304846 -0.21509336
000300 a3 2d 80 3b 84 e6 b2 bd ac ad 7c 3e b2 3c ec 3c
       0.0039116903 -0.087353736 0.24675626 0.028837536
000310 9a e2 7d be 0e 47 a8 bc 5f 8d 23 be 2f 55 3a 3d
       -0.24793473 -0.020541694 -0.15971898 0.045491394
000320 a0 2a 93 3d db 66 19 bd ac a5 85 bd dc 4d 01 bd
       0.071858644 -0.037451606 -0.0652574 -0.031568393
000330 d3 29 be 3e a5 f0 7f 3c 25 d7 87 3d 90 00 f9 bd
       0.37141284 0.015621339 0.066328324 -0.121583104
000340 67 c9 0d be 0e 4c 97 3e 5e 97 03 3e ea ff fd 3d
       -0.1384636 0.29550213 0.12850711 0.12402327
000350 a6 03 a7 3e 7e 07 a2 3e 18 da 80 be 07 03 49 3e
       0.3261997 0.3164634 -0.25166392 0.19630061
000360 ea 05 a2 3e 2e 9a e8 3d 92 c0 d3 3e 5b 7f 90 3e
       0.31645137 0.113575324 0.41357857 0.28222165
000370 0d 5e 88 3d ba 1e b8 3e f0 9b 6f 3d a9 1c 4f be
       0.06658564 0.35960943 0.058498323 -0.20225777
000380 39 0c 8e 3e 66 fb 8a be a2 f6 2c be 74 0d e5 3d
       0.277437 -0.27144927 -0.16890958 0.111842066
000390 dc 67 de bd 54 87 41 bd 1f bd 8f 3e be 08 8b 3c
       -0.10859653 -0.0472482 0.28073975 0.016971942
0003a0 f2 ef 0f be 5d 18 b9 3e 0d b3 44 3e 6d 74 8e 3e
       -0.14056376 0.361514 0.19208927 0.278232
0003b0 77 07 fa 3d fe 83 cf 3e 0e 09 5f 3e 21 65 f2 3d
       0.12208455 0.4053039 0.21780798 0.11835695
0003c0 aa da ea bd 24 65 8b be ee b5 4a 3e 66 83 fc 3d
       -0.11467488 -0.27225602 0.19795963 0.1232975
0003d0 b7 29 0e 3d d7 34 21 3e 46 42 83 be 19 63 c2 bd
       0.03470775 0.15742813 -0.256365 -0.09491558
0003e0 a7 38 fd bb e3 50 ac 3d e0 24 6e 3e e7 73 ac 3c
       -0.0077277008 0.084138654 0.23256254 0.02105136
0003f0 d1 34 ae be 45 20 8b 3b e1 6e d5 be c2 e8 8f 3e
       -0.3402467 0.00424579 -0.41686156 0.28107268

encoder.convs.0.convs.<user___healthness___food>.lin_edge.weight f4 [36, 1]
000000 7c 82 88 3d d0 8f 38 3e f0 9b f5 3d d0 f5 65 3e
       0.06665513 0.1802361 0.11992633 0.22457051
000010 3c 39 9d bd 7d 22 32 be 28 19 af 3e 3c 64 a4 3e
       -0.07676932 -0.17395969 0.3419888 0.32107723
000020 a8 d2 60 3e ae 31 96 3e 1c f6 49 3e c6 41 b6 3e
       0.21955359 0.29334778 0.1972279 0.35597056
000030 de 5a b3 3e f2 a2 a7 be eb 4b c2 be e3 f0 55 be
       0.35030264 -0.32741505 -0.37948546 -0.20892672
000040 1e a4 9d 3e ee 29 ba 3e 60 32 d7 3c ab 71 98 be
       0.30789274 0.36360115 0.026269138 -0.29774222
000050 ca ce 41 be 18 07 44 3e 10 0e c0 3e f4 bc 9f 3d
       -0.1892654 0.19143331 0.3751073 0.07799712
000060 26 99 87 be 56 9f c3 3e aa 0b b5 3e 42 e6 34 be
       -0.2648403 0.382075 0.3536046 -0.17665961
000070 fb cf 5e be 80 11 6d 3e e0 fd 94 be 02 1a ac 3e
       -0.21759026 0.23151207 -0.2909994 0.33613592
000080 74 7b a6 bd 00 98 b3 bb b8 4b 5c be 9d d4 cb be
       -0.081290156 -0.0054807663 -0.2151326 -0.3981065

encoder.convs.0.convs.<user___eats___food>.att_src f4 [1, 1, 36]
000000 1d 6d e0 be 84 e9 6a 3e d3 4a c8 bd 2e 5d 88 bf
       -0.43833247 0.22940642 -0.097798966 -1.0653436
000010 51 82 83 bf be fc 21 3f e3 c2 25 3f d3 17 be 3e
       -1.0274144 0.6327628 0.647505 0.3712755
000020 fb d7 e3 3e 4c 60 1d bf b5 f5 c9 3e d3 0e ba 3d
       0.44500718 -0.6147506 0.39445272 0.09084859
000030 fa 4a 01 be 90 ee d4 3d 70 1e 3b be 3b ec ff 3e
       -0.12626258 0.10397065 -0.1827333 0.49984917
000040 af c5 ef bc 59 08 7b be 9f 68 1a be 8f a5 73 3e
       -0.029269068 -0.24514903 -0.15078972 0.23793624
000050 fe 6e ce 3e 1c 42 2d 3e 4b 9e 57 bf 33 ec 2b be
       0.40319055 0.1691975 -0.8422591 -0.16789322
000060 09 ca cc be db 11 fb bd 7d a3 85 bf 37 0c a1 be
       -0.3999789 -0.12259265 -1.0440518 -0.31454632
000070 4a 01 ec be dc 19 70 3f f6 a0 51 bc 2e f6 ed bd
       -0.46094733 0.9378946 -0.012794724 -0.11619221
000080 25 23 39 bf 2d 39 56 be 25 1a c0 be a1 75 c3 be
       -0.7231925 -0.20920248 -0.37519947 -0.3817568

encoder.convs.0.convs.<user___eats___food>.att_dst f4 [1, 1, 36]
000000 ba 70 fc be 2d 3a 0f 3e 4f 98 42 3f 4f 8a 32 bf
       -0.49304754 0.13987036 0.76013654 -0.6974229
000010 01 f4 0e bf 62 57 80 3e bc 7b 87 3e ae fc ca 3e
       -0.5584107 0.25066668 0.2646159 0.39645904
000020 20 b1 cd bd cb ff 50 3e b2 94 61 bf d0 57 1e bf
       -0.100435495 0.20410077 -0.88117516 -0.6185274
000030 4e e3 31 3f 1b 76 13 bf 6e 72 c0 3d c3 40 2d bf
       0.69487464 -0.5760209 0.09396826 -0.67676944
000040 58 0d 36 3f b7 87 dc be bd e3 1a 3f 71 d6 ec 3e
       0.7111411 -0.43072292 0.6050375 0.46257356
000050 21 9e f1 bd 13 ae 11 bf 51 32 41 3f 84 42 85 3e
       -0.11797739 -0.5690624 0.754674 0.2602731
000060 d4 c6 8c 3e e6 59 30 bd cf 90 43 3e 29 54 9d bd
       0.27495444 -0.043054484 0.19098209 -0.07682068
000070 f3 d8 13 bf ed 7c a8 be 16 b8 03 3f c1 e6 a1 be
       -0.57752913 -0.3290781 0.5145277 -0.31621364
000080 58 63 a3 be 42 00 21 be 1b 85 ae bd 14 89 3b 3f
       -0.3191173 -0.15722755 -0.085214816 0.7325604

encoder.convs.0.convs.<user___eats___food>.bias f4 [36]
000000 b5 e6 01 37 01 5c 97 36 19 2e d7 b5 80 14 b0 b6
       7.742715e-06 4.5108613e-06 -1.6032164e-06 -5.2475953e-06
000010 4b e8 07 36 bf 73 25 b7 8e 00 1c b7 c1 50 62 b5
       2.025178e-06 -9.861716e-06 -9.298454e-06 -8.4309073e-07
000020 19 db 9b b5 40 23 09 36 64 95 82 34 7c ab 12 36
       -1.1612166e-06 2.043511e-06 2.4323083e-07 2.1855512e-06
000030 68 c4 60 b6 cc 35 54 b7 c7 65 25 34 47 db 97 36
       -3.3492925e-06 -1.264871e-05 1.5403849e-07 4.525678e-06
000040 bf 66 dc 35 f6 5a 4a 36 01 64 89 35 f0 49 97 b6
       1.642118e-06 3.0153292e-06 1.02364e-06 -4.508758e-06
000050 e5 49 da 36 ac ee 5a b6 31 c2 6c 37 0c a3 90 b7
       6.5055087e-06 -3.2623457e-06 1.411191e-05 -1.7242062e-05
000060 e5 84 2a 36 02 ea be b6 a1 81 01 b7 53 1f b8 36
       2.5409329e-06 -5.6896833e-06 -7.719181e-06 5.487274e-06
000070 03 19 e6 32 10 12 05 37 97 00 b1 35 0f 2c 44 b6
       2.6786898e-08 7.931623e-06 1.3187699e-06 -2.9231921e-06
000080 04 0b d0 b5 32 70 c6 b5 c7 24 60 b6 3a 4c 9c 35
       -1.5500414e-06 -1.4784803e-06 -3.3400008e-06 1.1645091e-06

encoder.convs.0.convs.<user___eats___food>.lin_src.weight f4 [36, 29]
000000 9b b4 45 3f 89 c7 c8 3e 23 27 0c be d6 47 09 bf
       0.7722871 0.39214733 -0.13686804 -0.5362524
000010 84 45 58 3e a5 63 9e be c6 5b 04 be d3 e6 b1 3e
       0.21120268 -0.30935398 -0.12925634 0.34746417
000020 50 df 93 3e 8b 92 ac be b1 5f 1e be 53 76 29 be
       0.2888131 -0.33705553 -0.15466191 -0.16549043
000030 97 43 1f 3f 3d 47 e4 be 31 fb e7 be 09 4d 38 3e
       0.6221251 -0.445856 -0.4530883 0.17998137
000040 22 23 1e be e4 de b4 3e 2c 72 1e bf cf c0 d4 ba
       -0.1544309 0.35326302 -0.6189296 -0.0016231778
000050 48 bc 4c 3f 5b b8 f3 be a1 04 a4 be b0 f7 6f be
       0.79974794 -0.4760159 -0.32034782 -0.23434329
000060 99 dd 93 be b2 33 38 bd 3b 66 65 3e a1 67 84 be
       -0.28880003 -0.044971175 0.22402279 -0.25860313
000070 13 6b 8f 3e 05 40 2f 3d de d9 a9 3e d2 44 2c 3d
       0.2801138 0.042785663 0.33174032 0.04205782
000080 ff cb fb be 91 eb 3b 3e eb ce 11 be f7 1f 78 be
       -0.49179074 0.1835158 -0.14239089 -0.24230944
000090 0f 2e 8f 3e 98 76 0c 3d 80 5d 19 be 13 af 0a bf
       0.27964827 0.034292787 -0.14977074 -0.5417339
0000a0 40 0d 82 be 06 7e 2d 3f 81 2c 4a bf fb e3 81 be
       -0.25400734 0.6777042 -0.7897416 -0.25369248
0000b0 00 be 49 3d d8 a6 72 3e 49 22 9a 3e 62 bf 2b be
       0.049253464 0.23696458 0.30104282 -0.16772225
0000c0 ee 57 29 3d b3 c9 c7 3e 50 67 20 be d8 07 0e bf
       0.041343622 0.39021072 -0.1566441 -0.5548072
0000d0 61 a4 f6 bd c3 7f 28 be 21 4c 96 be 1a 70 3e 3e
       -0.120430715 -0.16454987 -0.29354957 0.18597451
0000e0 6d 37 93 3d de 9f 56 bc 25 0a 8e 3e 48 0f 9b be
       0.07188306 -0.013099639 0.27742115 -0.30285096
0000f0 c9 01 9e be 48 10 e4 3e 23 b2 34 bf 32 07 09 3f
       -0.30860737 0.44543672 -0.70584315 0.53526604
000100 9b f6 cb 3e 9d 58 cd be 40 3e 01 be 1f f3 01 bd
       0.39836583 -0.4010667 -0.12621403 -0.031726
000110 5e 1f 68 3e a3 e6 e6 3c d6 40 66 bf bc 92 00 3f
       0.22668216 0.028186148 -0.8994268 0.502239
000120 d6 e9 6c 3e 21 52 8a 3d 02 56 c9 be 7a fa fc bd
       0.23136076 0.06753946 -0.3932343 -0.12352462
000130 c0 9c 14 3f ee 3e a3 3b d4 49 3e bf 4d f9 b5 3e
       0.5805168 0.004981867 -0.743314 0.35541764
000140 1d 58 cd 3e 86 c3 34 bd 71 fd fb 3e 64 d7 41 3e
       0.40106288 -0.04413178 0.49216798 0.18929821
000150 7c 19 9d be 8f fb 2d 3e 65 2e ab be c6 5f 08 3f
       -0.30683506 0.16990493 -0.33433834 0.5327114
000160 32 58 44 3f f9 51 b3 3c 68 7d 20 bf 4b b7 25 3f
       0.76697075 0.021889674 -0.62691355 0.6473281
000170 25 b9 2c bf fb 9f aa be 15 f9 0e 3e 76 ba c4 3e
       -0.6747001 -0.3332518 0.13962205 0.38423508
000180 c1 b4 bd 3a f8 33 5c be b2 d6 6e be eb ff 62 3f
       0.0014473425 -0.215042 -0.23324087 0.8867175
000190 7e 93 5f bf 66 b4 fe be 44 eb f2 3c 33 be e8 3e
       -0.8733443 -0.49747008 0.029653199 0.4545761
0001a0 b1 bd 31 be 7a 40 19 bf 6a 99 83 be 6e 94 0c 3f
       -0.17357518 -0.5986401 -0.25702983 0.54913986
0001b0 ca 66 26 bf ae 08 1e bf 68 57 fc 3d 83 8d a1 be
       -0.65000594 -0.61731994 0.12321359 -0.31553277
0001c0 b6 f6 58 be 25 55 a2 3e ac 21 9b 3e de 1d f5 3e
       -0.21187863 0.31705585 0.30299127 0.4787435
0001d0 9d e4 82 3f 71 73 51 3f b1 b9 68 be ac 0f f0 be
       1.0226017 0.81816775 -0.22727086 -0.46886957
0001e0 d5 68 3e 3f 13 6d 3b bf 34 63 87 be d6 95 3f 3e
       0.7437871 -0.7321331 -0.26442873 0.18709502
0001f0 e1 85 f9 3e 68 c7 02 be dd 50 df be d9 f0 51 be
       0.48734954 -0.1277138 -0.4361638 -0.20502032
000200 e9 ce 51 3f 3a f9 9a be 26 b1 84 be bc cb 3d bd
       0.81956345 -0.3026827 -0.25916404 -0.046336874
000210 67 4e 90 bb b5 4a 5e 3e 71 f7 bd be 55 99 c8 bd
       -0.0044038775 0.21708186 -0.37102845 -0.09794871
000220 ce 64 81 3e f4 0f 91 be 2c 92 0c bf 94 f6 cb bd
       0.2527222 -0.28332484 -0.5491054 -0.099591404
000230 9f e6 ab be e8 2e 91 be d8 05 a0 3d db d2 6a 3e
       -0.33574387 -0.283561 0.078136146 0.22931997
000240 c9 af 07 3f 28 c1 b8 be a6 0f 21 bf 08 27 29 bd
       0.530026 -0.36084867 -0.629145 -0.04129699
000250 0b 8e 2b 3e e6 19 e0 be bd 50 13 3f 2b 8f b4 3d
       0.16753404 -0.4376976 0.5754507 0.088163696
000260 00 61 dd be 3b 27 cb 3d 23 f9 b8 3e f7 98 5c 3e
       -0.43238068 0.09919592 0.36127576 0.21542726
000270 11 e2 86 3e ea a9 da be 6f bb 22 3e 01 ff 5c 3e
       0.2634435 -0.4270776 0.15891813 0.21581651
000280 35 c2 48 bb 9e a3 cf bd fe e9 74 be 2f 5f d8 3e
       -0.0030633335 -0.101386294 -0.23917386 0.4226012
000290 7e 62 0d 3e c3 7b ef be 4b ce ed 3e 01 55 f6 3e
       0.13807103 -0.4677411 0.46446452 0.48111728
0002a0 66 73 81 bd fa 9b 71 3e 46 60 76 3e 6b 8f 01 3d
       -0.06320839 0.23594657 0.24060163 0.031630915
0002b0 34 ca 7f 3e 7b c7 b8 bd 36 f7 28 be c8 55 1a bf
       0.24979478 -0.09022423 -0.16500553 -0.6028714
0002c0 37 46 dd bd ce 27 90 3e 6f 5a 1a bf 59 3e 01 3f
       -0.10804408 0.2815537 -0.6029424 0.5048576
0002d0 6b 76 3c 3e 42 2b 06 bf 27 c0 ce 3b 2e 8d 0b be
       0.18404548 -0.52409756 0.0063095274 -0.13628075
0002e0 a3 83 a2 3e 2c d3 05 bd 38 e1 27 bf 96 59 b2 3e
       0.31741056 -0.032672092 -0.6557803 0.34833974
0002f0 7f c2 b9 3e 03 36 89 3e 8e ee 94 be a0 51 26 be
       0.362812 0.2679902 -0.29088253 -0.16242075
000300 d5 32 0a 3f c0 41 79 3e aa c5 3d bf 29 d5 ac 3e
       0.53983814 0.24341488 -0.74129736 0.33756378
000310 f4 be cc 3e e3 c7 63 be f4 65 a3 3d 6d 15 23 3e
       0.39989436 -0.2224422 0.079784304 0.15926142
000320 8c 2a df 3d 7e 35 69 bd 95 8e 98 3c 68 49 2c bc
       0.10896787 -0.05693578 0.018622676 -0.010515548
000330 0b 6e 66 be 95 8c 9c 3d a1 08 88 3e c7 4e 0d be
       -0.22502916 0.076440014 0.26569083 -0.13799582
000340 7b 86 e9 3d 82 48 d6 bc c2 6d 2d bd 48 91 6c 3e
       0.11402603 -0.026157621 -0.042341 0.23102295
000350 ea 75 99 bd ee 5a 0b be ea c4 46 be 91 8d ff 3e
       -0.074931934 -0.13608906 -0.19411054 0.49912694
000360 12 e6 77 be fe 56 f0 be b1 04 3c 3e 92 f0 e9 3d
       -0.24208859 -0.4694137 0.18361165 0.11422838
000370 60 ce a2 be 96 c0 36 be 81 91 12 be 96 ff c3 3e
       -0.31798077 -0.17846903 -0.14313318 0.38280934
000380 ac 25 1c 3c 46 c1 de be 7f ed 8d 3e 2a 5f be bd
       0.009530466 -0.4350683 0.27720258 -0.09295495
000390 b1 79 43 be 32 dd 9c 3e 74 fe e5 3d b1 f2 64 be
       -0.1908939 0.3063751 0.11230174 -0.22358204
0003a0 06 01 57 bc a6 80 da be 96 f2 a8 3d 67 51 14 3f
       -0.013122803 -0.42676276 0.082493946 0.5793671
0003b0 39 06 1e bf e1 3f 9a 3e a5 bb b2 3e 80 3a cf bd
       -0.61728245 0.3012686 0.34908786 -0.1011858
0003c0 cc 2d 47 be d0 2b 56 3e 82 0a f8 3e 6c bf c0 3d
       -0.19451064 0.2091515 0.48445517 0.09411511
0003d0 16 d7 d1 be 56 27 c5 3e 87 fe e2 3e b7 67 03 bd
       -0.4098441 0.38506573 0.44334814 -0.032081332
0003e0 92 f6 63 be 2d 85 80 3d df cd cc 3e 46 83 29 3e
       -0.22262028 0.06275401 0.40000817 0.16553983
0003f0 03 f9 3b bf d3 09 d6 3e a1 1e 1e 3f 21 0a f3 bd
       -0.73426837 0.4180437 0.61765486 -0.11867166

encoder.convs.0.convs.<user___eats___food>.lin_dst.weight f4 [36, 17]
000000 a4 45 ee bd 2f 9c 2c 3f 24 50 93 be 94 bf 0f be
       -0.11634377 0.6742582 -0.2877208 -0.14037925
000010 8d 8d fe 3a 0c ee 76 be b4 31 4f 3d 58 ab 62 3e
       0.0019420848 -0.24114245 0.05058451 0.22135675
000020 11 5d 59 bd ba 02 82 be 67 0e 1c be 31 2e f3 3c
       -0.05306727 -0.25392705 -0.15239869 0.029685112
000030 2a 3d a5 3e 49 9a 5b be 76 98 33 3e a1 71 0c be
       0.32273227 -0.21445574 0.17538628 -0.13715221
000040 cd 31 77 bd ad 30 80 bd 1e 7a 29 bd a9 42 5b 3e
       -0.060350228 -0.06259284 -0.041376226 0.21412148
000050 b2 9c a8 be a4 3e 96 be dc c9 9e 3e 47 48 63 be
       -0.3293205 -0.29344666 0.3101338 -0.2219554
000060 db 68 7c 3d e5 59 9e 3e 92 7a f3 3c e7 d6 c6 bd
       0.061623435 0.3092796 0.029721532 -0.09708958
000070 24 f6 82 3e 26 f2 60 3e ca 7c 29 bd da 48 62 3d
       0.25578415 0.21967372 -0.041378774 0.055245258
000080 86 ed 70 3d f9 5c 1e be 09 d4 85 be bb 0f 3c bf
       0.05882027 -0.15465154 -0.26138332 -0.734615
000090 d9 c9 01 be f3 6d 91 bd 9e b5 b4 3d 2f 70 1c be
       -0.12674655 -0.07101049 0.08823703 -0.1527717
0000a0 8f cc 18 be b0 40 47 3d 93 25 e5 3d d6 d5 7c 3d
       -0.14921783 0.048645675 0.11188807 0.061727367
0000b0 c2 62 2d bc 4b 29 20 3e e2 9f 98 be b3 8a 9a 3e
       -0.010582628 0.15640752 -0.2980948 0.30183944
0000c0 00 38 df be 86 e2 bf bc ce ba 39 3e d7 63 fd 3d
       -0.43597412 -0.023423444 0.18137667 0.123725586
0000d0 61 b9 50 3f 40 09 e3 bd 51 0b cd 3d 95 14 18 bd
       0.81532866 -0.11085749 0.10011924 -0.037129004
0000e0 93 1c 5d 3e 37 98 53 be b2 2b 7a 3d 00 ad 94 3d
       0.21592931 -0.20663534 0.061076827 0.0725956
0000f0 37 48 52 3e 46 45 77 bd 55 3e 12 be 17 f5 00 bc
       0.2053536 -0.0603688 -0.1428159 -0.007870934
000100 27 e3 5f be 13 86 a9 3c 4c db 69 be c7 3f 06 be
       -0.21863995 0.020693814 -0.22837561 -0.13110267
000110 58 4d 41 3e 6d 5f 30 3f 0a 31 01 be 02 68 8b 3e
       0.1887716 0.6889561 -0.12616363 0.2722779
000120 24 7a a2 3e 58 4f 7e bc 41 4f a7 be 6f 82 3e be
       0.3173381 -0.015521847 -0.32677653 -0.18604444
000130 74 20 3b bb b8 4d 07 3e 1c 14 89 3e a7 3f ec bd
       -0.002855328 0.13213241 0.26773155 -0.11535578
000140 51 ec 15 bd 80 0a 68 3d 19 da c6 3d 53 5c 3b be
       -0.036602322 0.05665064 0.097095676 -0.18296938
000150 10 1e fa 3d e2 10 98 3e 31 7d 84 be 86 f0 9b 3d
       0.12212765 0.2970038 -0.25876763 0.076142356
000160 9d ec 32 3e 09 03 7f bb 90 c9 dc 3d ba 27 7b be
       0.17473073 -0.0038911721 0.107806325 -0.24526873
000170 e9 6e 87 3e 1f 73 b5 3d 31 68 40 be 3f d3 aa be
       0.26451805 0.08859848 -0.18789746 -0.33364293
000180 dd 32 29 be 19 bc 9f 3e 9d 37 54 bd 07 d4 8b 3e
       -0.16523309 0.31198195 -0.05181085 0.27310202
000190 e2 ad 6e 3e 3f ae 3d 3e 9f e9 ad 3d a4 05 96 be
       0.23308519 0.18523501 0.08491825 -0.29301178
0001a0 38 2a f2 3d f1 30 61 3c 34 cd 89 3e 10 57 b8 bd
       0.11824459 0.013744579 0.2691437 -0.09000981
0001b0 1e 9e 18 be e4 2b 9a be 7f 4c 8a 3c 12 b8 89 3e
       -0.14904067 -0.3011161 0.01688218 0.26898247
0001c0 35 eb 92 be 43 c3 89 bc 62 c2 d4 3d 6c 13 0d 3e
       -0.28695074 -0.01681674 0.10388638 0.1377694
0001d0 ba 86 a1 be 2d e2 a5 3d 70 55 39 be d3 8c 3a be
       -0.315481 0.0809978 -0.18098998 -0.18217783
0001e0 7b a2 b7 be 35 ca 99 be 1b 4f 1f bd c1 ee 89 3e
       -0.3586615 -0.30037084 -0.0388938 0.26939967
0001f0 af 1c 9c bd 1a a5 06 3e fe 8e a4 3e c1 c9 18 be
       -0.076226585 0.13148919 0.32140344 -0.14920713
000200 ee 3c aa 3e 01 0a 90 be ba 76 43 be 04 8a 4b 3e
       0.3324961 -0.28132632 -0.1908826 0.19876868
000210 45 0b a0 3e ea a0 94 be 6f 54 c1 bd 43 93 99 be
       0.31258598 -0.29029018 -0.094399326 -0.29995164
000220 50 c3 8e be 05 70 17 3e 8a 63 9d 3e 62 29 69 be
       -0.27883387 0.14788826 0.30740005 -0.22769693
000230 85 01 5d 3d eb 30 2c 3e 36 44 aa 3e 5f 72 93 be
       0.053956527 0.16815536 0.33255166 -0.28798196
000240 b8 7e 9d bc 5a aa 40 be 4c 13 59 be 2c 9f 80 3d
       -0.019225463 -0.18814984 -0.21198767 0.062803596
000250 ed 12 9d 3d fa 6f d8 bc 2c c8 fd 3e f6 98 3b 3e
       0.076696254 -0.026420582 0.49566782 0.18320069
000260 bd a0 ad 3e 56 e8 08 3e 60 31 74 be 02 3b 57 be
       0.33911696 0.13369879 -0.2384696 -0.21018603
000270 c3 6d 5a 3e 54 82 5c be f7 53 30 3d 76 eb 7f 3e
       0.21330933 -0.21534091 0.043048825 0.24992165
000280 b8 a4 33 3e db 79 88 3e 4c 82 0d 3c 42 0b a8 3d
       0.17543304 0.26655468 0.008637022 0.08205272
000290 bf 48 c8 bd 16 c9 19 be f7 d4 af bd b4 c5 de be
       -0.097795 -0.15018114 -0.08585542 -0.4351021
0002a0 fe ae 1f 3e 7d 52 58 be 29 5a a0 be 0a 2c 3e 3f
       0.15594098 -0.21125217 -0.31318787 0.7428595
0002b0 cb 56 73 be 0c 4d 90 3e 15 7b 9f be 56 13 39 3e
       -0.23763578 0.28183782 -0.31148592 0.18073782
0002c0 b2 02 94 be ca 70 98 be 3b e5 08 3e 41 2c 71 3e
       -0.28908306 -0.2977355 0.13368694 0.23552038
0002d0 ae 92 ad be 44 fc 46 3e 97 67 a2 be 9f 39 54 be
       -0.3390097 0.19432169 -0.31719658 -0.20725106
0002e0 5f bd cb 3e dd ee a2 3c ab 1f 48 3e 3b fa 20 be
       0.39792916 0.01988929 0.1954333 -0.15720455
0002f0 47 4e 1d 3f 8c 9a 87 3e 71 c3 2d 3e d7 8f 5d be
       0.61447567 0.26485097 0.16969086 -0.21636902
000300 d3 c1 8a be 2c 71 88 be 9b 2e 3d 3e 99 0e 7d 3e
       -0.27101 -0.26648843 0.1847481 0.247126
000310 9d db 1a 3e b1 ec 57 bd ec e4 67 be 0b 9f 3b be
       0.15122838 -0.05271596 -0.2264592 -0.18322389
000320 2a af 99 3e 3e 45 60 3e 11 98 79 3e e5 59 ad 3e
       0.30016452 0.21901414 0.24374415 0.33857647
000330 9d 44 13 bd 74 d4 2f bf 5e d5 a8 be 54 3b 22 be
       -0.035954107 -0.6868355 -0.32975286 -0.15842944
000340 fb f3 b5 bd 9c c2 eb bd 98 61 f9 bd ac 7d 05 3e
       -0.08884426 -0.11511728 -0.12176818 0.13036221
000350 36 fa ad bd f8 c7 db 3d 30 4a aa be 74 fe 9f bd
       -0.084949896 0.107315004 -0.33259726 -0.07812205
000360 ca d3 61 3e 1d fc 86 be d6 e7 95 be 91 a1 02 be
       0.22053447 -0.26364222 -0.2927844 -0.12756945
000370 b1 9e 96 bd 33 8f 57 bd 58 70 21 3f 0c 3c fa 3d
       -0.07354487 -0.0526268 0.6306205 0.12218484
000380 de be 03 3e 30 0b 04 be 67 5c bb 3d da b0 e6 3c
       0.12865779 -0.12894893 0.09148484 0.028160501
000390 73 06 87 3e 67 0a e9 bd 15 64 9b 3d 1f 97 a7 3e
       0.26372108 -0.11378937 0.075874485 0.32732484
0003a0 e3 69 bd 3c da 1c 0e bd 9e be 2b be 06 03 84 3e
       0.02312178 -0.034695484 -0.16771933 0.25783557
0003b0 29 5f e4 3d 32 7e 2a be be 8b 4a be 96 e3 cf 3d
       0.11150963 -0.16649702 -0.1977987 0.101508304
0003c0 7b 98 6f 3d 7c aa a6 3e c3 04 f9 3d b5 05 84 3d
       0.058495026 0.32551944 0.12159111 0.06446401
0003d0 d2 b7 85 3e a3 03 4f be 2d fe a0 3e a1 99 82 3e
       0.26116806 -0.20216231 0.3144392 0.25507835
0003e0 f3 0f 7f 3d 67 81 3c bd 10 09 43 3e 35 7a 96 3e
       0.06227107 -0.046021845 0.19046426 0.29390112
0003f0 e4 ee ab 3e 13 2d e6 bc 30 2a 51 3e 03 84 4f 3e
       0.33580697 -0.028097665 0.2042625 0.20265202

encoder.convs.0.convs.<food___contains___ingredient>.att_src f4 [1, 1, 36]
000000 ba 2f 87 be 1d 6b 02 3e d6 61 0b bf e1 ad 52 bf
       -0.264036 0.12736173 -0.5444616 -0.8229657
000010 28 86 1b 3f 73 49 05 3f 8e d7 49 be 9b c6 2a bf
       0.6075158 0.520652 -0.19711134 -0.667093
000020 74 60 34 3e 0c 9d 80 3f 01 0e ee 3e f5 49 0b be
       0.17614919 1.0047927 0.4649506 -0.13602431
000030 e2 63 ce 3e 47 1d 2e 3f 5f 25 67 be 55 8e 3f bf
       0.4031058 0.68013424 -0.2257285 -0.74826556
000040 c4 8c 82 bf 9a 4b 69 3f ab 51 f1 3e ca d2 bc be
       -1.0199208 0.91130984 0.4713262 -0.3687957
000050 87 77 78 3f 02 21 cc 3e c1 73 85 be e9 25 58 3f
       0.97057384 0.39868933 -0.26064876 0.84432846
000060 c0 4c 4b 3f 6e c3 05 bf 43 50 73 bf 87 1b d1 be
       0.79413986 -0.5225133 -0.95044345 -0.40841314
000070 47 e5 81 3c 7a a9 a3 be fb c4 70 3f 82 3a de ba
       0.015856398 -0.31965238 0.9405057 -0.0016954693
000080 38 2a 9b 3e 08 ba e9 3e 44 3d 2f 3e ba bb e8 3e
       0.30305648 0.45649743 0.17113215 0.45455724

encoder.convs.0.convs.<food___contains___ingredient>.att_dst f4 [1, 1, 36]
000000 96 d6 80 bf e0 2d 74 bf 47 7c 7a 3f f7 12 de be
       -1.0065486 -0.953825 0.9784588 -0.43373844
000010 8a 98 87 3f 76 d7 36 bf f5 66 02 bf 8d 33 33 3f
       1.0593426 -0.7142252 -0.5093835 0.70000535
000020 ae 2e e1 be ee 7d 6b 3f 8d db fe be ab a7 53 bf
       -0.43980926 0.9198903 -0.4977688 -0.82677716
000030 4b fa 69 bf ec 89 4f 3f de 52 83 3f 4c f8 33 3f
       -0.9139754 0.8106983 1.0259664 0.70300746
000040 cf 77 da 3e 68 8f 20 bf 8d f8 1f bf 2d 36 5d bf
       0.42669532 -0.6271882 -0.62488633 -0.8641079
000050 5f 0e 4e 3f d9 4c 80 bf f6 c7 69 3f 08 83 33 3f
       0.8049068 -1.0023452 0.9132074 0.7012181
000060 f8 05 67 3f 28 20 82 bf 2c aa 56 3f e8 89 34 3f
       0.9024348 -1.0166063 0.8385341 0.7052293
000070 28 9d 31 3f 08 c4 60 bf 46 d2 32 3f c8 60 57 3f
       0.69380426 -0.8779912 0.698521 0.8413205
000080 b4 30 5e bf 5e 32 27 bf 19 3e 38 bf 7d f3 3e bf
       -0.86793065 -0.6531123 -0.71969754 -0.74590284

encoder.convs.0.convs.<food___contains___ingredient>.bias f4 [36]
000000 85 43 46 35 c7 13 16 36 80 90 d3 34 22 c2 58 33
       7.3859e-07 2.2363254e-06 3.940695e-07 5.0467982e-08
000010 f3 8e ad b6 c8 a9 bb 35 02 1e 0c 36 13 52 18 36
       -5.1724433e-06 1.3981999e-06 2.0879093e-06 2.2697538e-06
000020 14 d0 bc b6 68 c8 c7 b3 ad 2d 97 34 50 e7 24 37
       -5.62706e-06 -9.303113e-08 2.8159175e-07 9.829018e-06
000030 aa f2 74 b5 90 76 6b b4 1a a9 15 35 fc a9 72 36
       -9.1250206e-07 -2.1929213e-07 5.57529e-07 3.6159754e-06
000040 bc bb 63 35 9d c8 37 b6 db ab b2 36 36 ae a3 36
       8.483728e-07 -2.7385897e-06 5.32482e-06 4.8780594e-06
000050 7f 8a 81 b6 96 54 19 b7 1e 53 2f b6 6a 3e fa 36
       -3.8606227e-06 -9.139205e-06 -2.6125413e-06 7.4578466e-06
000060 3e cc 01 b7 75 9d 62 b5 9b 11 09 b4 88 05 ba b4
       -7.736553e-06 -8.442069e-07 -1.2765524e-07 -3.4649224e-07
000070 61 09 90 b2 7d 3d 52 b7 2b 1f 46 b6 e7 4d a1 b7
       -1.6768071e-08 -1.2531292e-05 -2.9522441e-06 -1.9228972e-05
000080 fb b5 3c 35 1b 6d db b6 43 9c 58 b5 c9 71 22 b5
       7.0300274e-07 -6.53941e-06 -8.069366e-07 -6.051528e-07

encoder.convs.0.convs.<food___contains___ingredient>.lin_src.weight f4 [36, 17]
000000 c6 41 40 be d9 9c 3c bf ed 70 76 bf 9e 54 94 bf
       -0.1877509 -0.7367683 -0.9626606 -1.1588323
000010 6a 2e 56 be c8 cf cd be ad 2b f1 be 13 84 41 bd
       -0.20916143 -0.40197587 -0.47103634 -0.047245096
000020 6a 39 9b bf 3f 13 13 bf 1a 04 98 3e 61 8f 82 be
       -1.2126896 -0.5745124 0.2969063 -0.25500014
000030 78 be 97 be 66 c5 dd be 3e 4f 2d be f9 3b 3c 3f
       -0.29637504 -0.43314666 -0.1692476 0.7352901
000040 3d 7d 01 bf 47 b4 97 3e e8 dc fe 3e cd 42 9e be
       -0.50581723 0.29629728 0.49777913 -0.3091034
000050 cf d3 92 be 7f 59 06 be c0 24 34 3e ad 6b 93 3e
       -0.28677222 -0.13120078 0.17592144 0.28793088
000060 7e 0d 16 3c 9d 7c 36 bf 1e ac c4 3e 11 0b 63 3e
       0.00915849 -0.71283895 0.38412565 0.2217219
000070 e8 c2 9f 3e 15 ab a7 3d bb c8 1f be aa ed d5 3e
       0.3120339 0.08186928 -0.15603916 0.41782886
000080 23 b8 f0 3f 21 5f 87 3e b0 46 8e be cc 69 b0 bf
       1.8806194 0.26439765 -0.27788305 -1.3782287
000090 04 69 80 bf e9 42 9c bf 3c e0 a0 be 23 89 63 bd
       -1.0032048 -1.2207919 -0.31421077 -0.055550706
0000a0 68 72 19 bf 19 a8 16 be d1 b9 a1 bf 7f d9 93 bf
       -0.59940195 -0.14712562 -1.2634832 -1.155075
0000b0 e3 8b 73 3e 18 2b 42 bf b2 ac 20 bf 27 55 11 bf
       0.23783831 -0.75847006 -0.6276351 -0.5677056
0000c0 1a 66 ff bd 80 85 59 3f 59 eb 6f bf 15 0c 9b 3b
       -0.12470646 0.8496933 -0.9371849 0.004731665
0000d0 0a 00 62 bf a1 6d 11 bf ab 79 8d bf 3d 33 15 bf
       -0.8828131 -0.56807905 -1.1052755 -0.5828131
0000e0 a5 24 0b bf a2 fb 36 bf e3 4a e8 be 66 be 2a bf
       -0.5435279 -0.7147771 -0.45369634 -0.66696775
0000f0 af b9 6e bf a7 a2 b3 3e d1 2a 99 bf 25 b3 83 be
       -0.9325208 0.3508503 -1.1966192 -0.25722614
000100 01 1a f2 be c2 e8 9e be f5 fb ba 3e 06 2a c2 be
       -0.47285464 -0.31036955 0.36520353 -0.37922686
000110 8c 69 04 3e 85 fe d1 3e 51 7e e9 3f a0 c2 05 40
       0.12930888 0.41014495 1.8241674 2.090004
000120 24 a1 28 3f 5b 8d cc 3f 1b fd b5 3f e3 19 90 3f
       0.6587088 1.5980638 1.4217867 1.12579
000130 b6 c0 b0 3f 81 e3 da 3f d1 6d 12 3f a1 71 0c 40
       1.3808811 1.7100679 0.57198817 2.1944354
000140 e7 3c 98 3f a8 27 43 3f 01 96 1a 3f 09 66 a4 3f
       1.1893586 0.76232386 0.6038514 1.2843639
000150 ee a1 1d 3f 8d 5b 1f be 04 dd c4 3e e3 8a b7 3f
       0.6157521 -0.15562268 0.38449872 1.433926
000160 49 84 d6 3f fc 3d 5b 3f 38 b1 f1 3f 60 6f 07 40
       1.675912 0.85641456 1.8882208 2.1161728
000170 b4 c8 0e 3f 34 fb 9c 3f 04 8c 0c 40 37 3d 86 3e
       0.55775 1.2264161 2.1960459 0.26218578
000180 61 1d 25 40 da f2 21 3f 14 14 52 3f c9 43 a0 3e
       2.5799181 0.6326119 0.82061887 0.31301716
000190 73 50 95 3f da 06 b6 3e 2f 71 9a bd 2b e3 80 be
       1.1665176 0.35552102 -0.07541119 -0.25173315
0001a0 df ad 16 bf a5 42 42 bf 2f 9a 98 bd 47 5f ad 3d
       -0.58859056 -0.7588294 -0.07451283 0.08465438
0001b0 4a 2f 9e 3c 94 95 0a be ec 53 7a bf 42 ca d6 3e
       0.019309659 -0.13533622 -0.97784305 0.41951185
0001c0 4a b7 d6 3e 68 7f 25 be cc a8 bf be 75 17 62 3d
       0.41936713 -0.16161883 -0.3743347 0.05519815
0001d0 5b 41 1b 3e 84 1e 78 3f 08 4f e5 3d 4a 92 17 3d
       0.1516165 0.96921563 0.11196715 0.037004746
0001e0 b8 0f 38 bf 97 fb 5e bc 95 f6 1f bf 0a 16 8e 3d
       -0.71898985 -0.013609788 -0.6248563 0.06937797
0001f0 e6 98 c6 3e 51 09 b2 3e bc 4e 91 be 0c 90 99 be
       0.38788527 0.34772733 -0.28380382 -0.29992712
000200 45 38 c9 3d a6 ca c4 3e 8a 9e b5 3e 53 ee 79 bd
       0.09825186 0.38435858 0.35472518 -0.0610183
000210 c6 8f 5c bc f2 9f 81 3e 98 c3 24 40 77 3e 8a 3e
       -0.013462013 0.2531734 2.574438 0.27000782
000220 b8 9c a0 bf af 41 c2 bd 14 f6 6a c0 d1 bb 45 c0
       -1.2547827 -0.094851844 -3.6712694 -3.0895884
000230 e5 15 bf bf 7e 66 69 c0 ad aa 95 c0 4a d1 12 c0
       -1.4928557 -3.6468806 -4.6770844 -2.294024
000240 ed 82 c7 bf 50 0a 98 c0 d4 35 b5 bf e7 48 88 c0
       -1.558683 -4.751259 -1.4157052 -4.258899
000250 5a 68 e7 bf 05 7f 53 bf ed d1 b0 be 5d c5 81 c0
       -1.807872 -0.8261569 -0.3453516 -4.055342
000260 91 a3 a7 bd 57 ab bd 3c 7f 5b 43 3f 6b e8 5e 3f
       -0.08185495 0.02315299 0.76311487 0.8707339
000270 9b 4a 39 3f 55 69 ca 3e ac aa 64 3e cc fc 68 3e
       0.72379464 0.39533487 0.22330731 0.22752684
000280 ec fe 02 3f 02 ed 8d 3f bb c6 8b 3f 86 fc 1c 3d
       0.5117023 1.1087954 1.0920023 0.038326763
000290 db a9 95 3f 8f 98 0e 3e 53 c2 22 3e 40 79 bc 3e
       1.1692461 0.13925384 0.15894441 0.36811256
0002a0 86 4a 99 be ea 65 ed 3e e9 f8 52 be 1c 59 52 3f
       -0.2993967 0.46366817 -0.20602764 0.8216722
0002b0 04 42 10 3f f2 96 41 3f 2c de 65 3e ca ec f7 3e
       0.5635073 0.7562095 0.22448033 0.48422843
0002c0 fb 1a ff 3e 08 e1 c3 3d eb 0c 44 3f 16 c4 69 3f
       0.49825272 0.09564406 0.7658221 0.9131483
0002d0 ab 1d 5b 3e ec be 3c 3f 89 45 8e 3e b4 28 cf 3e
       0.21398036 0.73728824 0.27787426 0.40460742
0002e0 3a e4 76 bd ff 9d 56 bf d7 34 00 3f c3 d1 d4 bd
       -0.060276248 -0.8383483 0.5008063 -0.103915714
0002f0 67 e5 8e bd 98 7a a4 be d8 7e 74 bd 57 d6 b1 be
       -0.06977349 -0.32124782 -0.05969128 -0.3473384
000300 e8 60 ce be c1 45 57 bf b1 86 aa be a7 35 ce be
       -0.4030831 -0.8409081 -0.33305886 -0.40275308
000310 ad f2 c0 bf bd 86 27 bf d4 4a 89 bf 1e 74 c5 be
       -1.5074059 -0.6543997 -1.0725961 -0.38565153
000320 59 fa 11 bf fd c6 06 bf 3b f3 7b bf 24 8b cd bd
       -0.57022625 -0.5264738 -0.98418015 -0.100363046
000330 43 21 0a bf 62 1d 90 3e b3 d0 f1 be 84 95 23 bf
       -0.53957003 0.28147417 -0.47229537 -0.6390002
000340 a8 38 aa bd e4 a2 13 bf 37 24 03 bf 4d 59 7e be
       -0.083115876 -0.57670426 -0.51227134 -0.24838753
000350 a6 14 13 3e 7e b8 b6 be 75 5a fd 3d 80 3c 9c be
       0.14363346 -0.3568763 0.12370769 -0.30514908
000360 d8 f0 16 bf 72 78 87 bc c9 fb 3c 3f c3 4f 61 bf
       -0.5896125 -0.016536925 0.73821694 -0.8801233
000370 aa 16 5d 3f 07 7b 2e 3f b8 05 1f 3f d7 bc a0 3e
       0.8636271 0.68156475 0.621181 0.31394073
000380 7c 05 bc 3e fe 09 10 3f 58 a7 ba 3d ad 6b 59 3d
       0.36722934 0.56265247 0.091139495 0.053081203
000390 f3 90 73 3e 99 19 a0 3e 4e 84 e8 3e 00 e5 51 3e
       0.23785762 0.3126953 0.4541344 0.20497513
0003a0 e9 f6 23 3f f0 fa d1 3e 30 4b 68 3f c4 66 94 3f
       0.6404863 0.41011763 0.9073973 1.1593862
0003b0 30 e6 c6 bd eb 87 d2 be a4 93 6d be a4 a4 3e bf
       -0.097118735 -0.41119322 -0.23200852 -0.7446997
0003c0 ab 65 53 bf de 39 8e bf e9 42 73 be 1c bc ff be
       -0.8257701 -1.111141 -0.23755993 -0.49948204
0003d0 8c aa aa be 2f af 6e be 8e 18 3b bf 17 f8 93 bf
       -0.33333242 -0.23309015 -0.7308434 -1.1560086
0003e0 ba bd ca 3e 04 66 73 bf ca f8 07 bf 4b ea 38 be
       0.39597875 -0.9507754 -0.53113997 -0.18058126
0003f0 2c 4d 54 3e 82 b1 f9 3e 0b 7f 25 3e 70 73 ec 3d
       0.20732564 0.4876824 0.16161744 0.115454555
