etc/old3/models/best_model_AUC_0.9541.pt (torch, 515361 bytes, 144 tensors)

encoder.convs.0.convs.<user___healthness___food>.att_src f4 [1, 1, 58]
0	0xbdecfe3c	-0.11571929
1	0xbeab7a6b	-0.33491835
2	0xbd59f809	-0.05321506
3	0x3e056f01	0.13030626
4	0x3dfc7ecc	0.12328872
5	0x3d5cb4f0	0.053883493
6	0x3e2fc325	0.17164285
7	0xbe0efb35	-0.13963015
8	0xbd0a20a6	-0.033722542
9	0x3b862054	0.0040932093
10	0x3e7fd616	0.24984011
11	0x3d44c533	0.048039626
12	0x3e77cc6f	0.24199079
13	0x3cc07e26	0.023497652
14	0x3df7dd18	0.12102717
15	0x3cbe078f	0.023196964
16	0x3e5047d0	0.20339894
17	0x3e3a953d	0.18220992
18	0x3e7c8d03	0.24663167
19	0xbe75374e	-0.23946878
20	0xbd847ede	-0.064695105
21	0xbe16aa57	-0.14713417
22	0xbd92161d	-0.07133124
23	0x3e9bed0f	0.304543
24	0xbdeeb4d8	-0.11655587
25	0xbdda2cf4	-0.106531054
26	0xbe425a99	-0.18979873
27	0x3dab12f4	0.083532244
28	0xbe68eb39	-0.2274598
29	0xbd0f5663	-0.034994494
30	0xbe4e2dbb	-0.20134632
31	0xbdf95d43	-0.121759914
32	0x3e86dbe8	0.2633965
33	0x3e7ccdc3	0.24687867
34	0xbe30d173	-0.17267399
35	0x3d079342	0.03309942
36	0xbd8231b8	-0.06357139
37	0xbe5d965e	-0.21639392
38	0xbb0e75f2	-0.0021737781
39	0x3e2f15b8	0.17098129
40	0x3d5a817c	0.053346142
41	0x3e8adaeb	0.27120146
42	0xbe28e12a	-0.16492143
43	0xbea3b8b3	-0.31976852
44	0xbea426f2	-0.32060963
45	0xbe46a8ea	-0.19400373
46	0x3e05f4aa	0.13081613
47	0x3e6a8690	0.22902894
48	0xbe9f310b	-0.31092104
49	0xbe3a5504	-0.18196493
50	0xbe3e28f8	-0.18570316
51	0x3e0573a8	0.130324
52	0x3e2d755c	0.169393
53	0x3cef9f7f	0.029250858
54	0x3ebdd9c2	0.370802
55	0x3d55e5e7	0.052221205
56	0x3e7cdc2c	0.24693364
57	0x3cbe4d38	0.02323018

encoder.convs.0.convs.<user___healthness___food>.att_dst f4 [1, 1, 58]
0	0xbde6e284	-0.11273673
1	0x3dbcb824	0.092148095
2	0x3e3bd0f8	0.18341434
3	0x3e572c3e	0.21012971
4	0x3dcc6c1e	0.09981559
5	0x3d1375ab	0.03600089
6	0xbd28f524	-0.04124941
7	0xbe08b0a8	-0.13348639
8	0xbbacac1d	-0.005269541
9	0xbe081b88	-0.13291752
10	0xbe1eb0cc	-0.1549713
11	0x3e342757	0.17593132
12	0x3e46edfb	0.1942672
13	0x3e89d4fb	0.26920304
14	0xbe97a55c	-0.29618347
15	0xbe3efabe	-0.18650338
16	0xbd9fcfd0	-0.07803309
17	0xbeac5dde	-0.33665365
18	0xbe5f708e	-0.2182028
19	0xbdcfefb3	-0.10153141
20	0xbdb207cd	-0.08692894
21	0xbddc9312	-0.10770239
22	0xbde72d89	-0.11287982
23	0x3da4f078	0.08053678
24	0x3e16c1e2	0.14722398
25	0x3e0bf709	0.13668455
26	0x3df2aa52	0.11848892
27	0xbe947aa1	-0.28999808
28	0xbe8a6d06	-0.27036303
29	0x3e1c91da	0.15290013
30	0x3e9f4e54	0.31114447
31	0x3e8273d7	0.25479004
32	0xbe6157b6	-0.22006115
33	0x3e374af0	0.1789968
34	0xbecba48c	-0.39773977
35	0xbe4ce2ae	-0.20008346
36	0xbd1837be	-0.037162535
37	0x3d5f72f5	0.05455299
38	0xbec64db4	-0.38731158
39	0x3e10793f	0.14108752
40	0xbdaf77b4	-0.085677534
41	0x3d1b784a	0.037956513
42	0xbea6d34b	-0.3258308
43	0xbdc17d36	-0.0944771
44	0x3d9f76f7	0.077863626
45	0x3bfe6776	0.0077637983
46	0x3e99d581	0.30045703
47	0xbe575d6d	-0.21031733
48	0x3e5b6513	0.21425276
49	0x3cd55f57	0.026046438
50	0xbe9be754	-0.30449927
51	0xbed3f6eb	-0.4139932
52	0x3e8e31c9	0.27772358
53	0x3de1356b	0.10996517
54	0xbe0532b3	-0.13007621
55	0xbdfb9022	-0.122833505
56	0x3e80e243	0.25172624
57	0xbe4b35cf	-0.19844745

encoder.convs.0.convs.<user___healthness___food>.att_edge f4 [1, 1, 58]
0	0xbe6ee8f4	-0.23331052
1	0x3e62c794	0.22146446
2	0xbe0c01bf	-0.13672541
3	0x3e3c0640	0.18361759
4	0xbe609034	-0.21930009
5	0xbd834af0	-0.064107776
6	0xbe32f0f4	-0.17474729
7	0x3c5e63a0	0.013573557
8	0xbd1a7a70	-0.03771442
9	0x3dc2d880	0.0951395
10	0xbe7d49d4	-0.24735194
11	0xbe9001d7	-0.28126404
12	0x3e81da30	0.25361776
13	0xbe7a0848	-0.24417222
14	0x3ddc390c	0.10753068
15	0xbe8dcd2d	-0.276956
16	0x3d7e89e8	0.062143236
17	0xbbde5580	-0.0067850947
18	0xbe20948a	-0.15681663
19	0xbbd72dc0	-0.006566733
20	0x3d205ed0	0.03915292
21	0x3c1235a0	0.008923918
22	0x3e770ba8	0.2412554
23	0xbe3b0bdf	-0.18266247
24	0x3e13deb2	0.1444042
25	0x3e96608a	0.29370528
26	0xbe6a8d18	-0.22905385
27	0xbe7fc544	-0.24977595
28	0x3ddcbb68	0.107779324
29	0xbde7d906	-0.11320691
30	0xbbebaa80	-0.007191956
31	0xbe984e94	-0.2974745
32	0x3e477780	0.1947918
33	0xbcac7a80	-0.021054506
34	0x3ca09c10	0.019605666
35	0xbde3061e	-0.11085151
36	0x3de2b808	0.110702574
37	0xbbab5d00	-0.0052295923
38	0xbe02249f	-0.12709282
39	0x3da23c60	0.07921672
40	0xbdf27f62	-0.118407026
41	0x3df2611c	0.118349284
42	0xbe9c6197	-0.30543205
43	0xbdfcb452	-0.12339081
44	0xbe5fbe50	-0.21849942
45	0x3e0aee44	0.13567454
46	0xbe654ee9	-0.22393383
47	0x3e7d0378	0.24708354
48	0x3d9f05c4	0.077647716
49	0x3e48228c	0.19544429
50	0xbe550384	-0.20802122
51	0xbe84a243	-0.25905046
52	0xbd565988	-0.052331477
53	0xbe336d15	-0.1752208
54	0xbddd3766	-0.10801582
55	0x3e86366a	0.2621339
56	0x3e2e88fe	0.17044446
57	0xbdc0f6c4	-0.09422067

encoder.convs.0.convs.<user___healthness___food>.bias f4 [58]
0	0xb464257c	-2.1247791e-07
1	0x33f54496	1.1421177e-07
2	0xb2b32294	-2.0854067e-08
3	0x331872b5	3.5494583e-08
4	0x3472dd2b	2.2618467e-07
5	0xb20089ee	-7.481942e-09
6	0xb5103bb1	-5.373104e-07
7	0x344b3df3	1.8928385e-07
8	0xb201a3ca	-7.54603e-09
9	0x341e7eac	1.476098e-07
10	0xb1fcae12	-7.353955e-09
11	0xb34157f0	-4.5016293e-08
12	0xb404a4f0	-1.2353462e-07
13	0xb28dac9b	-1.6493052e-08
14	0x30ffbcaf	1.8607319e-09
15	0xb3231e17	-3.797876e-08
16	0x3334c2ae	4.2086576e-08
17	0x33e95154	1.08647015e-07
18	0xb1cb9996	-5.9255383e-09
19	0xb236eab2	-1.0647158e-08
20	0x33109092	3.36591e-08
21	0x3092377c	1.0638668e-09
22	0x34293f2f	1.5762338e-07
23	0x341befd2	1.4522746e-07
24	0xb2d2485e	-2.4480126e-08
25	0xb2b3ba92	-2.0923185e-08
26	0x3289dbe8	1.60489e-08
27	0x326c9415	1.3770678e-08
28	0x32d4b865	2.4763901e-08
29	0x33e70b44	1.0758825e-07
30	0xb3395402	-4.3150074e-08
31	0xb2207de3	-9.341849e-09
32	0xb318d0c1	-3.558012e-08
33	0x31b0f08d	5.1496216e-09
34	0x3504198c	4.921101e-07
35	0x30f7dbff	1.8034142e-09
36	0x32fcdc18	2.9436748e-08
37	0xb27cd739	-1.47172665e-08
38	0xb3494eb0	-4.6870525e-08
39	0xb2e00500	-2.6079306e-08
40	0x33245030	3.8257156e-08
41	0xb30ae705	-3.234074e-08
42	0x3371e177	5.6317244e-08
43	0x3380b684	5.993664e-08
44	0x338fe4c1	6.7005665e-08
45	0x32b9fdce	2.1652252e-08
46	0x3340eafb	4.4917197e-08
47	0xb1de67a6	-6.472834e-09
48	0x321492b1	8.648088e-09
49	0xb28193a3	-1.5084714e-08
50	0xb331ba0d	-4.1380236e-08
51	0xb3c5ba70	-9.20744e-08
52	0x344ef439	1.9274093e-07
53	0xb3c95d5f	-9.376776e-08
54	0x334a6084	4.711957e-08
55	0xb4827fe6	-2.4307445e-07
56	0x33d2840b	9.8029055e-08
57	0xb32a7762	-3.9689787e-08

encoder.convs.0.convs.<user___healthness___food>.lin_src.weight f4 [58, 29]
0	0x3e1b2f53	0.15154772
1	0xbea02a04	-0.31282055
2	0xbdece811	-0.11567701
3	0xbea075c6	-0.31339854
4	0xbe81118c	-0.252087
5	0x3d8109bc	0.06300685
6	0x3e2cecc4	0.16887194
7	0xbda4492a	-0.080217674
8	0xbd0e6111	-0.03476054
9	0xbdaaaad8	-0.08333367
10	0xbd2346fe	-0.039862625
11	0x3e635d33	0.22203521
12	0x3e5cdcba	0.21568576
13	0xbe973824	-0.2953502
14	0x3d176b2e	0.03696745
15	0xbe608d63	-0.21928935
16	0x3e394a8a	0.1809484
17	0xbe2a1d86	-0.16612825
18	0x3dd325fa	0.10309978
19	0xbd82d863	-0.06388929
20	0xbeb9f248	-0.36317658
21	0x3e345ee4	0.17614323
22	0x3eaef333	0.3416992
23	0xbde01688	-0.109417975
24	0xbd4dbd53	-0.05022938
25	0xbd070d66	-0.032971762
26	0xbe9cf3ba	-0.306547
27	0xbd8f25b1	-0.06989611
28	0x3e33659d	0.17519231
29	0xbcddea81	-0.02708936
30	0xbe968d64	-0.29404747
31	0xbe3a6ebc	-0.18206304
32	0x3bfb59fb	0.0076706386
33	0xbe4740ca	-0.19458309
34	0xbdcaef2c	-0.099089
35	0x3e6a540f	0.22883628
36	0xbe2186e6	-0.15774116
37	0xbe50a8bf	-0.20376872
38	0xbe4c4069	-0.19946446
39	0x3e7673c4	0.24067599
40	0x3d6c9229	0.057756577
41	0xbd234ab1	-0.039866153
42	0x3e4ecefa	0.20196143
43	0x3da94420	0.08264947
44	0x3e620527	0.22072278
45	0x3e12417a	0.1428279
46	0xbe8785c2	-0.26469237
47	0x3e86fb18	0.26363444
48	0xbdd2e257	-0.10297077
49	0xbd4d7e25	-0.05016913
50	0xbe59b5c9	-0.21260752
51	0x3e8e30a1	0.27771476
52	0x3e97f3d0	0.29678202
53	0x3e6cbdba	0.2311925
54	0xbe1094ee	-0.14119312
55	0xbe7b1700	-0.24520493
56	0x3d5b8ef8	0.053603142
57	0xbdc30b5c	-0.09523651
58	0xbe0e3bef	-0.1389005
59	0x3e017a0e	0.12644216
60	0xbdd48843	-0.10377552
61	0xbe734143	-0.23755364
62	0xbea3f131	-0.32019952
63	0xbd8415f8	-0.06449503
64	0xbdc2af2d	-0.095060684
65	0xbdea561e	-0.11442207
66	0xbdb64839	-0.08900494
67	0xbd253609	-0.040334735
68	0x3e059595	0.13045342
69	0xbd9ac1a0	-0.07556462
70	0x3dd5c883	0.10438635
71	0x3e405101	0.187809
72	0xbd5f7fdb	-0.05456529
73	0xbe741477	-0.23835932
74	0x3e9b147b	0.30289063
75	0xbe2bdf8a	-0.16784492
76	0x3d937f3c	0.072020024
77	0x3d92796d	0.071520664
78	0x3c43abaa	0.011942783
79	0xbe1283f6	-0.14308152
80	0x3e673dab	0.22582118
81	0x3ca2ae8b	0.01985862
82	0x3e457617	0.19283329
83	0x3d148a43	0.03626467
84	0x3e2aa1f1	0.16663338
85	0xbe077308	-0.13227475
86	0xbe3a1905	-0.18173607
87	0xbe29c8ed	-0.16580553
88	0x3e35c30a	0.17750183
89	0xbd54a50c	-0.051915213
90	0x3e64c269	0.22339787
91	0x3e9398db	0.28827557
92	0xbe4bc093	-0.1989768
93	0x3d26a360	0.04068315
94	0x3d53295c	0.051553115
95	0xbe4d5ef3	-0.20055752
96	0xbb6029ca	-0.0034204596
97	0x3d91c3f5	0.07117454
98	0xbe763bd9	-0.24046268
99	0xbcfd220a	-0.03090002
100	0xbde8655b	-0.11347457
101	0x3e0e9d42	0.13927177
102	0xbe0148f3	-0.12625484
103	0xbe04ef92	-0.12982014
104	0xbd66e620	-0.056371808
105	0xbe61177e	-0.21981618
106	0xbcd6c492	-0.026216779
107	0x3ea23772	0.31682926
108	0x3e59df46	0.21276578
109	0x3e06fb09	0.131817
110	0xbe6ed7e4	-0.23324543
111	0xbeb316c1	-0.34978297
112	0x3e0a9013	0.13531522
113	0x3e76905f	0.2407851
114	0x3ea1b50d	0.31583443
115	0x3e8060ee	0.2507395
116	0x3e0a101c	0.13482708
117	0x3d376111	0.044770304
118	0x3e67e437	0.22645651
119	0x3deb9f6b	0.11505016
120	0xbccd66b8	-0.025073394
121	0x3cff56cf	0.031169323
122	0x3e053edf	0.13012265
123	0x3e64b381	0.223341
124	0xbdcafa92	-0.09911074
125	0xbe0035cf	-0.12520526
126	0x3dfb7d26	0.122797295
127	0xb8ce7706	-9.845015e-05
128	0x3e234c8e	0.15947172
129	0x3d3f8f64	0.046767607
130	0x3d990bec	0.07472977
131	0xbe0c6820	-0.13711596
132	0xbe0dc12a	-0.13843217
133	0xbd74cad3	-0.05976374
134	0xbe9051d3	-0.28187427
135	0xbeaea15c	-0.34107482
136	0xbe13dd24	-0.14439827
137	0x3e13dd3b	0.14439861
138	0xbe0f0cb6	-0.13969693
139	0x3e0e67b2	0.13906744
140	0xbd8d82e0	-0.06909728
141	0x3def1ae2	0.11675049
142	0x3d58e6c6	0.052954458
143	0xbe3c9cc3	-0.18419175
144	0xbdcdcefa	-0.10049243
145	0xbe086a42	-0.13321784
146	0x3e98c1ff	0.29835507
147	0x3e9d7fcf	0.30761573
148	0x3e2641f3	0.16236095
149	0xbdc9b1b8	-0.0984835
150	0xbc7a55e4	-0.015279267
151	0x3d6bb485	0.057545204
152	0x3e49c197	0.19702755
153	0xbe2c9f57	-0.16857658
154	0xbce65e93	-0.028121268
155	0x3d96e8aa	0.07368596
156	0x3e736971	0.23770691
157	0xbd8c8984	-0.068621665
158	0x3e85cba9	0.26131943
159	0xbe94e68e	-0.2908215
160	0x3d58f953	0.05297215
161	0x3d00b576	0.031423055
162	0x3ced53e6	0.02897067
163	0x3c5a6b0a	0.013331184
164	0xbd77a934	-0.0604641
165	0x3da5d0f9	0.08096499
166	0x3e153e5b	0.14574568
167	0xbe0a0555	-0.13478597
168	0xbdae7f9a	-0.08520432
169	0x3de90ad0	0.113790154
170	0x3e5b2dc1	0.21404172
171	0x3e868465	0.26272884
172	0x3e528306	0.20557794
173	0xbdc68c80	-0.09694767
174	0x3de0defa	0.109800294
175	0x3e80555a	0.25065118
176	0xbc906f16	-0.017631095
177	0x3cde9ea6	0.027175259
178	0xbdfe1e38	-0.124081075
179	0xbe65ff58	-0.22460687
180	0xbe0c1a82	-0.13681987
181	0x3e2f8892	0.17141941
182	0x3dcd285f	0.10017466
183	0x3e4368cb	0.19082944
184	0xbeaee1d1	-0.3415666
185	0xbd3dbd38	-0.04632303
186	0x3dabc5ab	0.083873115
187	0xbd2d222b	-0.042268913
188	0xbd49e0a2	-0.049286492
189	0x3e6b650a	0.22987762
190	0x3df7bfe7	0.12097149
191	0xbdcefbc8	-0.10106617
192	0x3c9085c6	0.017641913
193	0x3e0cf774	0.13766271
194	0x3dcb76d5	0.09934775
195	0x3d8f0a2b	0.06984361
196	0x3dfb975b	0.12284728
197	0xbd8d6ff4	-0.06906119
198	0xbbe29cd6	-0.006915669
199	0xbe6fba47	-0.23410903
200	0x3e8d3a9f	0.27583787
201	0x3cd61254	0.026131786
202	0x3d0ef98c	0.034905955
203	0xbd78bb40	-0.06072545
204	0xbe6a64fa	-0.22890082
205	0x3e4bde19	0.19908942
206	0xbdf71f56	-0.12066524
207	0xbddf0bd6	-0.108909294
208	0x3db1bb96	0.08678357
209	0xbd8439a8	-0.064563096
210	0xbe26ec4b	-0.16301076
211	0xbd90008c	-0.07031354
212	0xbd655db1	-0.055997554
213	0x3eb5d94c	0.35517347
214	0xbe41b732	-0.1891754
215	0x3e6b0e02	0.22954562
216	0x3dbb0b60	0.09133029
217	0x3eb6155d	0.35563174
218	0xbe6a9b6a	-0.22910848
219	0x3e82cf70	0.25548887
220	0xbdd524e5	-0.10407428
221	0x3e500780	0.20315361
222	0x3eaedfef	0.34155223
223	0xbeb07391	-0.3446317
224	0xbd94d8d3	-0.072679184
225	0x3c5a5d93	0.013327974
226	0x3b80ac27	0.003926772
227	0x3db4c0df	0.0882585
228	0x3cfde9ca	0.030995268
229	0xbe694611	-0.22780634
230	0xbcd522be	-0.026017543
231	0x3e4bb16b	0.19891898
232	0x3e886bfa	0.2664488
233	0x3cd61cb8	0.026136741
234	0xbd13e18a	-0.036103763
235	0xbde5c77b	-0.112196885
236	0xbe2f996c	-0.1714837
237	0xbde53099	-0.1119091
238	0x3e07af34	0.13250428
239	0xbddde98e	-0.10835563
240	0xbe2ee400	-0.17079163
241	0x3e2963ae	0.16541931
242	0x3ba8ebe0	0.0051550716
243	0x3e73c9cb	0.23807447
244	0x3dd359c7	0.10319858
245	0xbd30d0fa	-0.043168046
246	0xbcfee431	-0.03111467
247	0xbd1cf4e0	-0.03831947
248	0x3d4b1154	0.049577072
249	0xbe3219bd	-0.17392631
250	0x3e9d0fed	0.30676213
251	0x3ea5fbc8	0.32418656
252	0x3e10ceb5	0.14141352
253	0x3d2811e4	0.041032687
254	0x3dc3b74a	0.09556444
255	0xbda04c6a	-0.07827075

encoder.convs.0.convs.<user___healthness___food>.lin_dst.weight f4 [58, 17]
0	0x3e8d39e1	0.2758322
1	0xbe56ea42	-0.209878
2	0x3d0fdd86	0.03512337
3	0x3c4cdabe	0.012503324
4	0x3e0d958c	0.13826579
5	0x3d5d2c83	0.053997528
6	0x3e86900f	0.26281783
7	0x3e66720c	0.22504443
8	0x3e1e1544	0.154378
9	0x3dc2b747	0.09507614
10	0x3cd61e96	0.026137631
11	0x3b83c7ff	0.004021644
12	0x3d4c5d89	0.04989389
13	0xbe0d940f	-0.13826011
14	0x3e657fb9	0.22412004
15	0xbe358572	-0.17726687
16	0x3e0175b0	0.1264255
17	0xbe3a676b	-0.18203513
18	0x3e8d5131	0.27601007
19	0x3d954abd	0.07289646
20	0xbc0634bf	-0.008191287
21	0x3e0982d1	0.13428809
22	0xbe01cc24	-0.1267553
23	0x3e6cd1c7	0.23126899
24	0x3dba5cb5	0.09099714
25	0x3da9c865	0.08290175
26	0xbdc46db9	-0.095912404
27	0xbe8a3758	-0.2699535
28	0xbe4f271a	-0.2022976
29	0xbe7bb914	-0.2458232
30	0xbd4b5048	-0.04963711
31	0x3d3901f6	0.045167886
32	0x3e3a3f37	0.18188177
33	0x3de4325e	0.11142419
34	0x3d32b160	0.04362619
35	0xbe7997b4	-0.24374276
36	0x3e08cd13	0.1335948
37	0x3c3bfa09	0.011473187
38	0x3dde59cc	0.10856971
39	0xbdad7179	-0.08468909
40	0xbe8caf7a	-0.27477628
41	0x3e6db975	0.23215277
42	0xbe66cc4b	-0.22538869
43	0xbe032f49	-0.12811007
44	0x3de8ed3c	0.11373374
45	0xbe3bf3f3	-0.18354778
46	0x3e11667f	0.14199255
47	0xbe8116d3	-0.25212726
48	0x3e87b69f	0.26506516
49	0x3d6d656a	0.057958044
50	0xbe590de1	-0.211967
51	0xbda9af4c	-0.08285388
52	0xbe7c1555	-0.24617513
53	0xbe21383a	-0.15744105
54	0xbe44f618	-0.19234502
55	0xbd842f78	-0.064543664
56	0x3e4a31ac	0.19745511
57	0x3dff08a0	0.12452817
58	0x3e29f461	0.1659713
59	0x3e48fc9f	0.19627617
60	0xbdddabe4	-0.10823801
61	0x3dabfab1	0.08397425
62	0x3e6d2713	0.23159437
63	0xbd3472c6	-0.04405477
64	0xbc3102ab	-0.010803859
65	0x3e8d7283	0.27626428
66	0x3e424e7a	0.18975249
67	0xbe24b9fa	-0.1608657
68	0x3def1e7e	0.11675738
69	0x3e408f89	0.18804754
70	0x3e2a9428	0.1665808
71	0xbe47f3c0	-0.19526577
72	0x3e8e8fff	0.27844235
73	0x3d9ce0a0	0.07660031
74	0xbbddf7f1	-0.0067739417
75	0x3dd1d698	0.10246009
76	0x3e41aed7	0.18914352
77	0xbcaebb2c	-0.021329485
78	0x3e63d015	0.22247346
79	0x3dc92002	0.09820558
80	0xbdf28e49	-0.11843545
81	0xbe4e47a9	-0.20144524
82	0x3e864167	0.26221773
83	0x3e182fc8	0.14861977
84	0xbd138660	-0.03601682
85	0x3e43a7d0	0.19106984
86	0x3e4ed75b	0.20199339
87	0x3e876b0f	0.26448867
88	0xbd903a0d	-0.07042322
89	0x3e7d97fe	0.24765012
90	0xbe338532	-0.17531279
91	0xbe231787	-0.15926944
92	0x3d44667e	0.047949307
93	0xbe175a96	-0.1478065
94	0xbdc28834	-0.09498635
95	0xbd20a2aa	-0.03921763
96	0x3d3f943e	0.046772234
97	0xbd5f4687	-0.05451062
98	0xbe7468b9	-0.23868074
99	0xbda3b5c6	-0.07993655
100	0x3e8dea3f	0.27717778
101	0x3dd3a357	0.10333889
102	0xbe880c45	-0.2657186
103	0xbdf25784	-0.118330985
104	0x3a8defd9	0.0010828926
105	0x3d85cef3	0.06533613
106	0xbdd75898	-0.10514945
107	0xbe379855	-0.17929204
108	0xbd1718e4	-0.036888972
109	0xbe2faa09	-0.17154707
110	0xbcd5fa8f	-0.026120452
111	0x3da4643c	0.08026931
112	0xbe58de31	-0.2117851
113	0xbe864f5a	-0.26232415
114	0x3e5e7ede	0.21728083
115	0x3e6c26b9	0.23061647
116	0xbe8f8b86	-0.28036135
117	0x3d57ecab	0.05271594
118	0xbd953aff	-0.07286643
119	0x3d11b762	0.035575278
120	0xbb836d14	-0.004010806
121	0xbe2ec771	-0.17068268
122	0x3e8f1b6f	0.27950618
123	0xbe3e4d79	-0.18584241
124	0xbc11ea41	-0.008905948
125	0xbe405f53	-0.18786363
126	0xbe372843	-0.17886452
127	0x3e29dbf9	0.16587819
128	0x3e465b2d	0.19370718
129	0xbe8d8ee2	-0.27648073
130	0x3e666aee	0.22501728
131	0xbde73e42	-0.112911716
132	0xbe650726	-0.22366008
133	0xbd4c60a5	-0.049896855
134	0xbe808d54	-0.25107825
135	0x3d0d2a91	0.034464423
136	0x3e82c1a5	0.25538364
137	0x3d45d125	0.04829516
138	0x3e0747cd	0.13210984
139	0x3d83af5b	0.06429931
140	0x3e45fb83	0.19334225
141	0xbe80bc7d	-0.25143805
142	0xbd038359	-0.032107685
143	0xbe185fb0	-0.14880252
144	0xbd0f2a42	-0.03495241
145	0x3e9059ca	0.28193504
146	0x3bfa5764	0.0076398123
147	0xbe493e94	-0.19652778
148	0xbe43e204	-0.19129187
149	0xbe3ad336	-0.18244633
150	0xbe1390df	-0.14410733
151	0x3d970185	0.07373337
152	0xbdfbf726	-0.12302999
153	0xbd806b67	-0.06270485
154	0x3e73861b	0.23781626
155	0xbe3c7c4e	-0.18406793
156	0xbdbe5aee	-0.09294687
157	0xbe0c3cc5	-0.13695057
158	0xbe4111bc	-0.18854421
159	0xbde42931	-0.11140669
160	0xbe22fb39	-0.15916146
161	0x3e0377c3	0.12838654
162	0x3e2c157b	0.16805069
163	0x3e1424b2	0.14467123
164	0x3e46c1b4	0.1940983
165	0xbe6231a9	-0.22089256
166	0xbe160e8e	-0.1465399
167	0x3b55f33e	0.0032646204
168	0xbe3c900a	-0.18414322
169	0xbe7a1777	-0.24423014
170	0x3e29dde3	0.1658855
171	0xbd63ea3e	-0.055643313
172	0x3e8f4638	0.2798326
173	0xbe7075b4	-0.234824
174	0x3e8c3256	0.27382153
175	0x3e8ef178	0.279186
176	0xbd9ec9a0	-0.07753301
177	0xbe792603	-0.24330907
178	0xbda54459	-0.08069677
179	0x3e329422	0.1743932
180	0xbe439718	-0.19100606
181	0x3e0fcee9	0.14043774
182	0x3e84c85a	0.25934106
183	0xbe337e35	-0.17528613
184	0xbe1e049e	-0.15431449
185	0x3e0f42ea	0.1399037
186	0x3e1c150d	0.15242405
187	0x3d1a4930	0.037667453
188	0xbde5f4f0	-0.11228359
189	0xbe13f224	-0.14447838
190	0x3c057c95	0.008147378
191	0xbe202953	-0.15640764
192	0x3c606854	0.013696749
193	0xbd364737	-0.04450151
194	0x3e347f99	0.176268
195	0x3d87f714	0.06638923
196	0xbe2bb863	-0.16769557
197	0x3c938a17	0.018010182
198	0xbd88bc19	-0.06676502
199	0x3db5fa3d	0.0888562
200	0x3dce0a72	0.10060586
201	0x3d31e84d	0.04343443
202	0x3cb90fc6	0.02259053
203	0x3d7079cc	0.058709905
204	0x3e80305c	0.25036895
205	0xbd8f6ed4	-0.07003561
206	0x3c4c262e	0.012460275
207	0xbe1c6e6b	-0.15276496
208	0xbe0ef4e2	-0.13960603
209	0x3e75494f	0.23953746
210	0x3da628e2	0.081132665
211	0x3e094afe	0.13407513
212	0x3e70df75	0.23522742
213	0x3e68cb46	0.22733793
214	0xbe7b25a6	-0.2452608
215	0x3dcaeebf	0.099088185
216	0x3e5fb790	0.21847367
217	0x3d6cd48d	0.05781989
218	0x3e8c9b26	0.2746212
219	0x3e24998e	0.16074201
220	0xbceb890e	-0.028751876
221	0x3e723d90	0.23656297
222	0xbd0c7f7f	-0.034301277
223	0xbe62c12d	-0.22144003
224	0x3e3400cd	0.1757843
225	0xbe83b1e9	-0.25721672
226	0xbe1e8f11	-0.15484263
227	0x3d7b1c07	0.061306026
228	0xbd6309ee	-0.05542939
229	0xbdb17dca	-0.086665705
230	0x3e4430e1	0.19159271
231	0xbccda55d	-0.025103265
232	0xbe412301	-0.18861009
233	0x3e80013c	0.25000942
234	0x3df1de65	0.118099965
235	0x3e2301ed	0.15918703
236	0x3cc9e5cd	0.02464571
237	0x3e82f71f	0.25579163
238	0x3e6293a8	0.22126639
239	0x3e3e6f06	0.1859704
240	0xbdb1adeb	-0.0867575
241	0xbe5ebc8a	-0.2175161
242	0x3e2fede6	0.17180595
243	0x3dd767e7	0.10517865
244	0x3d162b6d	0.036662508
245	0x3e01aed6	0.12664351
246	0xbe53ef0b	-0.20696656
247	0xbd855534	-0.06510392
248	0x3b44ff34	0.003005934
249	0x3dde3489	0.10849864
250	0x3e59720b	0.2123491
251	0x3d0134ae	0.03154438
252	0xbe401480	-0.1875782
253	0x3da2f197	0.07956236
254	0xbe8c65cf	-0.27421424
255	0x3e30e0d4	0.17273265

encoder.convs.0.convs.<user___healthness___food>.lin_edge.weight f4 [58, 1]
0	0xbda67338	-0.08127445
1	0x3da752c8	0.08170086
2	0x3d914a80	0.07094288
3	0xbcef3320	-0.029199183
4	0x3e697d50	0.22801709
5	0x3e61f80c	0.22067279
6	0x3e7cc280	0.24683571
7	0x3e6aa5ac	0.22914761
8	0x3c2407a0	0.010011584
9	0xbc7b91a0	-0.015354544
10	0x3e7a5d7c	0.24449724
11	0x3d2f8ae0	0.04285705
12	0x3e8baf4e	0.27282184
13	0x3c55d0a0	0.013050228
14	0xbe7898c6	-0.24277028
15	0xbe5f4830	-0.21804881
16	0x3e16b98a	0.14719215
17	0x3e4e797c	0.2016353
18	0x3dd84fb0	0.10562074
19	0x3e7f88c4	0.24954516
20	0x3e981bfc	0.2970885
21	0xbe0c93c7	-0.13728248
22	0x3dc1be24	0.094600946
23	0x3d5b9c00	0.05361557
24	0xbd1f1a38	-0.038843364
25	0xbe88d659	-0.26726034
26	0xbe7c2769	-0.24624409
27	0x3e0f70e2	0.14007905
28	0xbe0d63d9	-0.1380762
29	0xbdfd7004	-0.12374881
30	0xbe332ab4	-0.17496759
31	0xbe09d18e	-0.13458845
32	0x3e102a08	0.14078534
33	0xbe6822d8	-0.22669542
34	0x3e11b8f8	0.14230716
35	0xbce76090	-0.028244287
36	0x3e2726ea	0.16323438
37	0xbe2e0d95	-0.16997369
38	0x3de7e698	0.11323279
39	0x3d9027e0	0.070388556
40	0x3e7398cc	0.23788756
41	0x3e4bff08	0.19921505
42	0x3cd20e10	0.025641471
43	0x3e8a407a	0.27002317
44	0xbe7493a2	-0.23884442
45	0xbddd7382	-0.10813047
46	0x3e095c48	0.13414109
47	0x3e3333b4	0.17500192
48	0xbe697e16	-0.22802004
49	0xbdbe6d38	-0.092981756
50	0x3e8158fc	0.25263202
51	0xbe8c77ce	-0.27435154
52	0x3e0faa8a	0.14029899
53	0x3ea1d0f2	0.31604725
54	0xbdf253c6	-0.11832385
55	0xbd124a18	-0.035715193
56	0x3da596b0	0.08085382
57	0x3e15e9e8	0.1464001

encoder.convs.0.convs.<user___eats___food>.att_src f4 [1, 1, 58]
0	0x3e85cb92	0.26131874
1	0xbe7d2b5f	-0.24723576
2	0xbe076a19	-0.13224067
3	0x3e6782c1	0.22608472
4	0x3e6d77f9	0.23190297
5	0xbd93f0cc	-0.07223663
6	0xbe92ee12	-0.28697258
7	0x3dd60f71	0.10452164
8	0x3e738b15	0.23783524
9	0x3eb9f962	0.36323076
10	0x3ea9e4bd	0.33182326
11	0xbe2bc846	-0.16775617
12	0x3e2b0d54	0.16704303
13	0xbd1221b9	-0.03567669
14	0xbe59276a	-0.21206442
15	0xbd397b17	-0.045283403
16	0xbe81dd13	-0.2536398
17	0x3e1096bb	0.14119999
18	0xbe78a69e	-0.2428231
19	0xbe7b7d03	-0.24559407
20	0xbd38842f	-0.045047935
21	0x3e146581	0.14491846
22	0x3deda2d7	0.11603325
23	0xbe91f8be	-0.28510088
24	0x3de66238	0.112492025
25	0x3d4d3336	0.050097667
26	0xbdeda310	-0.11603367
27	0xbc95a555	-0.018267313
28	0xbe167546	-0.14693174
29	0xbe6f8438	-0.23390281
30	0xbec296ef	-0.38005778
31	0xbe707e88	-0.23485768
32	0x3ea2b580	0.317791
33	0xbda3242b	-0.07965883
34	0x3df99756	0.12187068
35	0xbe371c48	-0.17881882
36	0x3cfa8355	0.030580202
37	0x3e3c5a0e	0.18393728
38	0x3d7a5fa2	0.06112636
39	0xbd3092ce	-0.043108754
40	0xbd89b3e6	-0.06723766
41	0x3e176c4c	0.14787406
42	0xbe1d3463	-0.15352015
43	0xbeb747cc	-0.35796964
44	0xbe5b7d68	-0.21434557
45	0x3dc6d41f	0.09708428
46	0xbdfac1e2	-0.122440115
47	0xbe4ef409	-0.2021028
48	0xbddc5315	-0.10758034
49	0x3e1f6b4b	0.15568273
50	0xbd2baa9b	-0.04191075
51	0xbcf34f1b	-0.029700806
52	0xbe3e1fdd	-0.18566842
53	0x3e7935ef	0.2433698
54	0xbd78f0ba	-0.06077645
55	0x3e1df237	0.15424429
56	0x3e3ac540	0.18239307
57	0xbec3ef1a	-0.38268358

encoder.convs.0.convs.<user___eats___food>.att_dst f4 [1, 1, 58]
0	0xbdeff1e3	-0.11716058
1	0xbd4e24d3	-0.050328087
2	0xbe1bbb14	-0.15208083
3	0x3c9dba19	0.019253777
4	0xbde12289	-0.10992915
5	0x3e8297d4	0.2550646
6	0xbc8b5ebe	-0.01701295
7	0xbe2cf303	-0.16889577
8	0xbe25ddc0	-0.16197872
9	0xbe9825d7	-0.2971637
10	0xbe5c87e2	-0.2153621
11	0x3d4bc2d4	0.04974635
12	0x3de1d668	0.11027223
13	0xbe17cd6f	-0.1482446
14	0x3bf88a7d	0.0075848685
15	0x3e2add8c	0.16686076
16	0x3d3c6e0a	0.04600338
17	0x3ceb597f	0.028729199
18	0xbe4353bc	-0.19074911
19	0x3ea280c1	0.31738856
20	0xbdaf9884	-0.08574012
21	0x3c788a95	0.015169759
22	0xbceb6f65	-0.02873964
23	0x3e2f178e	0.17098829
24	0xbe772bdc	-0.24137825
25	0x3d8a87bd	0.06764171
26	0xbe614981	-0.22000696
27	0x3e83a25e	0.25709814
28	0xbdfd6c6f	-0.12374198
29	0x3d371a56	0.04470285
30	0x3d1b9257	0.037981357
31	0xbdf08376	-0.11743824
32	0xbce02e3d	-0.027365798
33	0x3e8f828b	0.28029284
34	0xbe1caa3e	-0.15299317
35	0xbd83ec08	-0.06441504
36	0x3e56d7cc	0.20980757
37	0x3e2aa9ad	0.16666289
38	0x3dcd1872	0.10014428
39	0xbe920bda	-0.28524667
40	0xbd3dd203	-0.04634286
41	0xbe98f9b5	-0.2987801
42	0xbe34b71a	-0.17647973
43	0xbc361e16	-0.0111155715
44	0xbe110f9f	-0.14166115
45	0x3e175f47	0.14782439
46	0x3c8a34a7	0.01687081
47	0x3d4f8293	0.050661635
48	0x3d9a72d7	0.07541435
49	0x3dbe7cf3	0.09301176
50	0xbea39913	-0.31952724
51	0x3d8c68ac	0.06855902
52	0x3e91e7ed	0.28497258
53	0x3dfe92a9	0.12430317
54	0x3e79aafa	0.24381629
55	0xbe2ff6a8	-0.17183936
56	0xbda8a745	-0.08235029
57	0xbe9718ff	-0.29511258

encoder.convs.0.convs.<user___eats___food>.bias f4 [58]
0	0xb464257c	-2.1247791e-07
1	0x33f54496	1.1421177e-07
2	0xb2b32294	-2.0854067e-08
3	0x331872b5	3.5494583e-08
4	0x3472dd2b	2.2618467e-07
5	0xb20089ee	-7.481942e-09
6	0xb5103bb1	-5.373104e-07
7	0x344b3df3	1.8928385e-07
8	0xb201a3ca	-7.54603e-09
9	0x341e7eac	1.476098e-07
10	0xb1fcae12	-7.353955e-09
11	0xb34157f0	-4.5016293e-08
12	0xb404a4f0	-1.2353462e-07
13	0xb28dac9b	-1.6493052e-08
14	0x30ffbcaf	1.8607319e-09
15	0xb3231e17	-3.797876e-08
16	0x3334c2ae	4.2086576e-08
17	0x33e95154	1.08647015e-07
18	0xb1cb9996	-5.9255383e-09
19	0xb236eab2	-1.0647158e-08
20	0x33109092	3.36591e-08
21	0x3092377c	1.0638668e-09
22	0x34293f2f	1.5762338e-07
23	0x341befd2	1.4522746e-07
24	0xb2d2485e	-2.4480126e-08
25	0xb2b3ba92	-2.0923185e-08
26	0x3289dbe8	1.60489e-08
27	0x326c9415	1.3770678e-08
28	0x32d4b865	2.4763901e-08
29	0x33e70b44	1.0758825e-07
30	0xb3395402	-4.3150074e-08
31	0xb2207de3	-9.341849e-09
32	0xb318d0c1	-3.558012e-08
33	0x31b0f08d	5.1496216e-09
34	0x3504198c	4.921101e-07
35	0x30f7dbff	1.8034142e-09
36	0x32fcdc18	2.9436748e-08
37	0xb27cd739	-1.47172665e-08
38	0xb3494eb0	-4.6870525e-08
39	0xb2e00500	-2.6079306e-08
40	0x33245030	3.8257156e-08
41	0xb30ae705	-3.234074e-08
42	0x3371e177	5.6317244e-08
43	0x3380b684	5.993664e-08
44	0x338fe4c1	6.7005665e-08
45	0x32b9fdce	2.1652252e-08
46	0x3340eafb	4.4917197e-08
47	0xb1de67a6	-6.472834e-09
48	0x321492b1	8.648088e-09
49	0xb28193a3	-1.5084714e-08
50	0xb331ba0d	-4.1380236e-08
51	0xb3c5ba70	-9.20744e-08
52	0x344ef439	1.9274093e-07
53	0xb3c95d5f	-9.376776e-08
54	0x334a6084	4.711957e-08
55	0xb4827fe6	-2.4307445e-07
56	0x33d2840b	9.8029055e-08
57	0xb32a7762	-3.9689787e-08

encoder.convs.0.convs.<user___eats___food>.lin_src.weight f4 [58, 29]
0	0x3e111c52	0.1417096
1	0xbe084a53	-0.13309602
2	0xbea1a546	-0.31571406
3	0xbe5cc203	-0.21558385
4	0xbe72ebeb	-0.23722808
5	0x3e1b734f	0.15180705
6	0x3e6d1c0d	0.23155232
7	0xbd316087	-0.043304946
8	0xbd2403ca	-0.040042676
9	0xbe10f08e	-0.14154264
10	0x3e75bbe2	0.23997453
11	0xbe12d347	-0.14338408
12	0x3cfdbf3c	0.030974977
13	0xbd84851c	-0.06470701
14	0xbc984589	-0.018587844
15	0x3e1fae87	0.1559392
16	0xbea49fbb	-0.32153115
17	0x3ea31086	0.31848544
18	0xbe262ba1	-0.1622758
19	0xbc479488	-0.012181409
20	0x3ebeaf4b	0.37243113
21	0xbe0fb443	-0.14033608
22	0x3dc5787c	0.09642121
23	0xbe5f5936	-0.21811375
24	0xbc64e1c2	-0.0139698405
25	0xbde7f52b	-0.11326059
26	0x3c442ced	0.011973602
27	0xbeb0a0df	-0.34497735
28	0x3e030646	0.12795362
29	0xbde6d8af	-0.11271798
30	0xbe830f94	-0.25597823
31	0x3d7996c2	0.06093479
32	0x3d73355b	0.059377056
33	0xbdab80da	-0.08374186
34	0x3df535c8	0.119731486
35	0xbdbdb8e9	-0.092637844
36	0x3e003ff0	0.1252439
37	0xbd660639	-0.05615828
38	0xbe1a4764	-0.15066296
39	0xbe21f39a	-0.15815583
40	0xbe615bd1	-0.22007681
41	0x3d0b26d7	0.033972587
42	0xbe752c7a	-0.23942748
43	0x3dbb346e	0.091408595
44	0x3d2ecb1a	0.04267416
45	0x3e5652bd	0.2093
46	0x3dcb0c23	0.09914424
47	0x3e29e067	0.16589509
48	0x3e5384f0	0.2065618
49	0xbe71655a	-0.23573819
50	0x3e4b5ea0	0.19860315
51	0xbe2d8cc0	-0.16948223
52	0x3d72908c	0.059219882
53	0xbd98aade	-0.07454465
54	0xbdd0b30a	-0.10190399
55	0x3d5284d3	0.051396202
56	0x3e528504	0.20558554
57	0xbea00fd4	-0.31262076
58	0x3e3ef94d	0.18649788
59	0x3e357648	0.17720902
60	0xbe1d8b2d	-0.15385123
61	0x3debefc2	0.115203395
62	0xbdcc009c	-0.09961054
63	0xbd461c29	-0.0483667
64	0xbc86248e	-0.016374853
65	0x3c59e7c4	0.013299886
66	0x3e7d2254	0.24720126
67	0xbe1cfd13	-0.15330915
68	0xbe28ff3a	-0.16503611
69	0x3cc80e9b	0.024421027
70	0xbdd80df0	-0.10549533
71	0xbd4edb43	-0.050502073
72	0xbe24d89c	-0.16098255
73	0x3d6fb006	0.05851748
74	0xbd9a8a09	-0.07545859
75	0xbc896c16	-0.016775172
76	0x3e10edf6	0.14153275
77	0x3d190747	0.037360456
78	0xbe6ce418	-0.23133886
79	0xbdf2079c	-0.118178576
80	0xbc648bc3	-0.013949337
81	0x3b98c07c	0.004661618
82	0x3d8bc8a4	0.068253785
83	0x3e058f03	0.13042836
84	0xbe04e51d	-0.12978025
85	0x3e2a4497	0.16627727
86	0x3d765309	0.060137782
87	0x3e7cb581	0.24678613
88	0x3e141fd5	0.14465268
89	0xbe0d3cdf	-0.13792752
90	0xbe9572e3	-0.29189214
91	0x3d2acc95	0.04169901
92	0xbd8574a7	-0.0651639
93	0x3dfe9db5	0.12432424
94	0xbe954240	-0.29152107
95	0xbd628ca1	-0.055309895
96	0x3e07c09b	0.13257067
97	0x3e3cd4bc	0.18440527
98	0xbe4eef31	-0.20208432
99	0x3db89275	0.090123095
100	0xbe84f64a	-0.25969154
101	0xbd76f8a5	-0.06029572
102	0x3cd2783b	0.025692096
103	0x3da4eea7	0.08053332
104	0xbe2ac292	-0.16675785
105	0xbe17807b	-0.14795105
106	0xbe4243e4	-0.1897121
107	0x3dd95236	0.106113836
108	0xbe5dfd86	-0.21678743
109	0xbe281339	-0.16413583
110	0x3e051e07	0.12999736
111	0x3dd84287	0.10559564
112	0xbe99bd17	-0.30027077
113	0x3d8f77d2	0.07005276
114	0x3ddf03a0	0.10889363
115	0x3e6dcf2e	0.23223564
116	0x3e67d98d	0.22641583
117	0x3e452d78	0.19255626
118	0xbeabaaf1	-0.33528855
119	0xbe15da5d	-0.1463408
120	0x3e277474	0.16353017
121	0xbe1ca7ee	-0.15298435
122	0x3e02d2c6	0.12775716
123	0xbe476227	-0.19471036
124	0x3d94c287	0.07263666
125	0x3b691e1a	0.003557092
126	0xbca44187	-0.020050777
127	0xbe35e58f	-0.17763351
128	0x3d6bef68	0.057601362
129	0x3e5def88	0.21673405
130	0x3e088134	0.13330537
131	0xbd24715a	-0.040147163
132	0xbea176c9	-0.31535938
133	0x3e367310	0.1781733
134	0x3d150702	0.036383636
135	0xbda4118e	-0.08011161
136	0xbe10ffea	-0.14160123
137	0x3e08b743	0.13351159
138	0xbdf1787a	-0.11790557
139	0xbdb89057	-0.09011906
140	0x3db79651	0.089642175
141	0xbea0ad77	-0.31382343
142	0xbe1ed26f	-0.15509962
143	0x3dbb8410	0.09156048
144	0x3e86dd24	0.26340592
145	0xbe044171	-0.12915589
146	0xbe03a53f	-0.12856005
147	0x3e00c6d2	0.12575844
148	0xbe18d5da	-0.14925328
149	0x3b4b6ba5	0.0031039503
150	0x3dee12d7	0.11624687
151	0xbe4cb47c	-0.19990724
152	0xbdcb11e8	-0.09915525
153	0x3ea80913	0.32819423
154	0x3e310611	0.1728747
155	0xbe2e26ca	-0.17006984
156	0x3e69bb07	0.22825252
157	0x3ddcc7b3	0.10780277
158	0xbe4fcf4b	-0.2029392
159	0xbe2dce60	-0.16973257
160	0xbb2df0f1	-0.0026541317
161	0x3d69561e	0.056966893
162	0xbe5f7fcb	-0.21826093
163	0x3c1a7fb0	0.009429857
164	0x3e0f98f8	0.14023197
165	0xbd79ff94	-0.061034754
166	0x3de4a8f7	0.1116504
167	0x3d7649fd	0.060129154
168	0xbcf815f2	-0.030283902
169	0x3ba0cf78	0.0049075447
170	0x3e60ff18	0.2197231
171	0x3e646d54	0.2230733
172	0x3e9081f2	0.2822414
173	0x3d35abb9	0.04435322
174	0x3d0fe851	0.035133664
175	0xbd3e2111	-0.046418253
176	0x3e0ec599	0.13942565
177	0x3d0ffa1c	0.035150632
178	0xbdc41120	-0.09573579
179	0x3c41f91c	0.011839177
180	0xbe6deab5	-0.23234065
181	0xbd7daf60	-0.06193483
182	0x3ea28af0	0.31746626
183	0xbe9081b3	-0.28223953
184	0xbdde5d2d	-0.108576156
185	0xbce7e595	-0.028307715
186	0xbe0821e0	-0.13294172
187	0x3de067a7	0.1095727
188	0xbd8dcd76	-0.06923954
189	0x3e6dc3bd	0.232192
190	0xbd8328c3	-0.06404259
191	0xbe1c4e49	-0.15264238
192	0x3dac5131	0.084139235
193	0x3e6b5956	0.22983298
194	0xbe5000b3	-0.20312767
195	0x3d2a5285	0.041582603
196	0xbd180145	-0.037110586
197	0xbe302b8a	-0.17204109
198	0xbe20d671	-0.15706803
199	0x3e951330	0.291162
200	0x3e35ed48	0.17766297
201	0x3dfffb8a	0.12499149
202	0x3df63088	0.12020975
203	0xbe94a987	-0.2903559
204	0x3d75f472	0.060047574
205	0x3e1917fd	0.14950557
206	0xbe3a89cf	-0.18216632
207	0xbc06f1cd	-0.008236361
208	0xbc803763	-0.01565141
209	0x3cbecd34	0.023291208
210	0xbdb3588b	-0.087571226
211	0x3e2d208c	0.16906947
212	0xbd9c5c4e	-0.07634793
213	0x3e9523f3	0.2912899
214	0xbe2c37a9	-0.16818108
215	0xbb954e34	-0.0045564417
216	0x3dcd8151	0.10034431
217	0x3b233fa4	0.002490976
218	0x3e22e714	0.15908462
219	0xbddaef08	-0.10690123
220	0xbe1179a2	-0.14206555
221	0x3e825721	0.254571
222	0xbe6393b3	-0.22224312
223	0x3dada41e	0.084785685
224	0xbe499393	-0.19685201
225	0x3d0416ea	0.032248415
226	0x3e0d8f97	0.13824306
227	0x3e0a492d	0.13504477
228	0xbea78cb1	-0.32724527
229	0x3e07cf9e	0.13262793
230	0xbc59825c	-0.013275709
231	0x3cd4d021	0.02597815
232	0xbd894607	-0.0670281
233	0x3e722cfc	0.23649973
234	0x3d862b88	0.06551272
235	0x3d817d73	0.06322756
236	0xbe8f8d08	-0.28037286
237	0x3bd93f63	0.0066298707
238	0x3e27a51a	0.16371575
239	0x3d4fdcb4	0.05074759
240	0xbd6b018c	-0.057374522
241	0x3e5b8675	0.2143801
242	0x3ddc7346	0.10764174
243	0x3da70011	0.081543095
244	0x3e5cf656	0.21578345
245	0xbdb60fee	-0.08889757
246	0x3d93823e	0.07202576
247	0xbce3b42e	-0.027795877
248	0xbe1f671a	-0.15566674
249	0x3e5f8edb	0.21831839
250	0x3d0d35c0	0.034475088
251	0xbcb23c90	-0.021757394
252	0xbd8ae0f7	-0.0678119
253	0x3d0c021b	0.034181695
254	0x3e6466c5	0.22304828
255	0xbe8615ea	-0.26188594

encoder.convs.0.convs.<user___eats___food>.lin_dst.weight f4 [58, 17]
0	0xbdc90d7e	-0.098170266
1	0x3e8fd583	0.28092584
2	0xbe78a71a	-0.24282494
3	0xbdf409a4	-0.11915901
4	0x3b09fd2f	0.002105545
5	0xbe4fadd9	-0.20281161
6	0x3d2f17fc	0.042747483
7	0x3e3fffc3	0.18749909
8	0xbd36b334	-0.044604495
9	0xbe5c5044	-0.21514994
10	0xbe02c8c9	-0.12771906
11	0x3cd43673	0.02590487
12	0x3e8b5c66	0.27218932
13	0xbe386085	-0.1800557
14	0x3d01e3ce	0.031711392
15	0xbdee66cb	-0.116407
16	0xbd89f173	-0.06735506
17	0xbd52e533	-0.051488113
18	0x3d10aad5	0.035319168
19	0x3e39634a	0.18104282
20	0xbe8d5e66	-0.27611083
21	0xbe7d4804	-0.24734503
22	0x3e85ac0b	0.2610782
23	0xbe3fafd7	-0.18719421
24	0x3d52eacc	0.05149345
25	0x3e858580	0.26078415
26	0x3cd160b3	0.025558805
27	0xbda85cba	-0.08220811
28	0x3e5c42e3	0.2150989
29	0x3e3da6ce	0.18520662
30	0xbd1085b5	-0.035283763
31	0x3e0c1346	0.13679227
32	0x3d41dbf1	0.047328893
33	0xbdd6ca70	-0.10487831
34	0xbe5c1038	-0.21490562
35	0xbe562068	-0.209108
36	0xbdd68a31	-0.10475577
37	0xbd5ccb09	-0.053904567
38	0x3d9583d2	0.07300533
39	0xbe055303	-0.13019948
40	0xbe01c591	-0.12673022
41	0x3d18c78e	0.037299685
42	0x3dc396ca	0.09550245
43	0x3d65a99e	0.056069963
44	0xbc4108cc	-0.0117818825
45	0x3e040c4c	0.12895316
46	0xbe80e1da	-0.2517231
47	0x3e811ee5	0.25218883
48	0xbe144ea9	-0.14483131
49	0xbc8c8b51	-0.017156275
50	0x3e73fa61	0.2382598
51	0x3dc9b5a1	0.09849096
52	0x3e8df6ee	0.27727455
53	0xbdc346c7	-0.09534984
54	0x3da0fbc3	0.0786052
55	0xbcf55892	-0.02994946
56	0x3e3bda96	0.18345103
57	0xbe3138b5	-0.17306788
58	0x3d61582f	0.05501574
59	0x3d75bbd5	0.059993584
60	0x3e2d63a8	0.16932547
61	0xbd450de0	-0.048108935
62	0xbdf0d34a	-0.1175905
63	0xbbc6dcf0	-0.0060688183
64	0xbe3a7b83	-0.18211178
65	0xbe4e069d	-0.2011971
66	0xbe48fdf0	-0.1962812
67	0xbe499332	-0.19685057
68	0x3e209a52	0.15683869
69	0x3e6018e6	0.21884498
70	0xbddb9f7c	-0.107237786
71	0x3e6846fb	0.22683327
72	0x3e894e2d	0.26817456
73	0xbc4974fa	-0.012295956
74	0xbe8cbf08	-0.27489495
75	0xbe1e9bbd	-0.15489097
76	0xbb33f906	-0.0027461662
77	0x3ddfd368	0.109289944
78	0x3e687675	0.22701438
79	0xbdc3eb87	-0.09566408
80	0xbcf9b5a9	-0.03048213
81	0x3d484ff1	0.048904363
82	0xbdd1978b	-0.10233983
83	0xbe2009f8	-0.15628803
84	0x3d6447e2	0.055732615
85	0x3e7fc875	0.24978812
86	0xbe547a7f	-0.20749854
87	0x3d8339bf	0.064074986
88	0x3e1656c4	0.14681536
89	0xbb5efa68	-0.0034023765
90	0x3db9d724	0.09074238
91	0xbe5399e4	-0.20664173
92	0x3e643a79	0.2228793
93	0x3d981638	0.07426113
94	0xbe2239d4	-0.15842372
95	0xbe8fee3d	-0.2811145
96	0xbe0ec2e8	-0.13941538
97	0x3e868d21	0.26279548
98	0xbd33889e	-0.04383146
99	0x3e769d8a	0.24083534
100	0x3e49c89b	0.19705431
101	0x3e1b644f	0.15174983
102	0x3d94d985	0.07268051
103	0x3d8248a8	0.06361514
104	0x3dcd5f5a	0.100279525
105	0x3c58f1bb	0.013241227
106	0x3e67e783	0.22646908
107	0xbd9c0ed4	-0.07620016
108	0xbe00d10d	-0.12579747
109	0xbe8268c3	-0.25470552
110	0x3c6ded62	0.0145219285
111	0x3e6954ff	0.2278633
112	0xbe786000	-0.24255371
113	0xbc74af90	-0.0149344355
114	0x3db31aa9	0.087453194
115	0x3dec911c	0.11551115
116	0xbe11d792	-0.1424239
117	0x3d8a0bb6	0.06740515
118	0xbdff1899	-0.124558635
119	0xbe1ba723	-0.15200476
120	0x3d17f97b	0.037103157
121	0xbe812807	-0.2522585
122	0xbcfaaf72	-0.030601237
123	0x3e67fabd	0.22654243
124	0xbd84986d	-0.064743854
125	0x3de250fb	0.11050602
126	0x3e89fc1b	0.26950154
127	0xbe006c5f	-0.1254134
128	0x3e9040b4	0.28174365
129	0xbe73cad7	-0.23807846
130	0xbe25cee1	-0.161922
131	0x3e2b5ec7	0.16735373
132	0x3e866edf	0.26256463
133	0xbdc01719	-0.093794055
134	0xbda4d183	-0.08047774
135	0xbe5d5a74	-0.21616536
136	0xbe778572	-0.24171999
137	0xbe8b68fa	-0.27228528
138	0x3e8385c0	0.2568798
139	0xbe4b35d8	-0.19844759
140	0x3d3e120f	0.04640394
141	0x3e125ac2	0.14292434
142	0x3e900712	0.28130394
143	0xbe75229a	-0.2393898
144	0xbc94f5e0	-0.018183649
145	0xbe2607f9	-0.16213979
146	0xbe3433b0	-0.17597842
147	0x3d61c3c0	0.055118322
148	0x3d84e046	0.06488089
149	0xbca8aebc	-0.020591132
150	0x3e69ae1f	0.22820328
151	0x3e1c21a6	0.15247211
152	0x3e495e53	0.19664888
153	0x3df4b444	0.119484454
154	0x3e4c290f	0.19937538
155	0xbe3310be	-0.17486855
156	0x3e3ef886	0.18649492
157	0xbe3ad66e	-0.18245861
158	0x3d0f3d1d	0.03497039
159	0x3e5682bc	0.20948309
160	0x3e13e1e2	0.14441636
161	0x3e67fdd2	0.22655419
162	0x3c350290	0.011047974
163	0x3d87f559	0.06638593
164	0xbdad93bc	-0.08475444
165	0xbe01de7e	-0.1268253
166	0xbd97d6b3	-0.074139975
167	0xbe3120f5	-0.17297728
168	0x3e086f05	0.133236
169	0xbdb2c633	-0.0872921
170	0xbe8b0b9d	-0.27157298
171	0x3e4d6b24	0.20060402
172	0xbe4fe746	-0.20303068
173	0x3e6ac4fd	0.22926708
174	0xbe857b5f	-0.26070687
175	0x3e1df9c5	0.15427311
176	0xbe780021	-0.24218799
177	0xbe7bd4ab	-0.24592845
178	0x3de2f1e8	0.11081296
179	0x3e45bbb3	0.19309883
180	0xbe9046e7	-0.28179094
181	0x3e2b81e4	0.16748768
182	0xbe887ede	-0.26659292
183	0xbe2fe97a	-0.17178908
184	0x3dce79da	0.10081835
185	0x3c5920f4	0.013252486
186	0x3d715f90	0.058929026
187	0xbe0ab5ca	-0.1354591
188	0x3e0be47f	0.13661383
189	0x3e633a8f	0.22190307
190	0x3e0ec2b5	0.13941462
191	0xbe39c21b	-0.18140452
192	0xbe68dd4c	-0.22740668
193	0xbe6556dc	-0.22396415
194	0x3e21d98d	0.15805645
195	0x3e54a0c4	0.20764452
196	0x3dff8be2	0.124778524
197	0xbd2e7bb8	-0.042598456
198	0xbe417560	-0.18892431
199	0xbe1db3bd	-0.15400596
200	0x3e823c1c	0.25436485
201	0xbc64a777	-0.013955942
202	0x3e50b4c5	0.20381458
203	0x3e67dbcb	0.22642438
204	0xbcd4ea7c	-0.025990717
205	0xbe37c547	-0.17946349
206	0xbe8d65f8	-0.27616858
207	0xbe03b95b	-0.12863676
208	0xbd9bae3e	-0.076015934
209	0xbdc93209	-0.098239966
210	0xbdd3cd1b	-0.10341855
211	0x3ddaa042	0.10675098
212	0xbd90ae11	-0.070644505
213	0x3dc0330b	0.09384736
214	0xbe90b746	-0.28264827
215	0xbd8bc25a	-0.06824179
216	0x3e3dce61	0.18535759
217	0xbe655b4d	-0.2239811
218	0xbd06f530	-0.032948673
219	0xbdd78ff3	-0.10525503
220	0x3c4b916f	0.012424811
221	0xbd3e7688	-0.04649976
222	0x3e2b4209	0.16724409
223	0x3dd0cc57	0.10195225
224	0x3dd863db	0.10565921
225	0xbddcf3c9	-0.10788686
226	0x3d9f776f	0.07786452
227	0x3cc60ac5	0.024175057
228	0x3e658821	0.2241521
229	0xbdc52755	-0.096266426
230	0x3d7ce18d	0.06173854
231	0x3e8df80e	0.27728313
232	0x3cac8c41	0.021062972
233	0xbcecc100	-0.028900623
234	0xbe0f7fbd	-0.14013572
235	0x3d067ee8	0.03283587
236	0x3dbd8bfd	0.09255216
237	0xbe409213	-0.18805723
238	0xbe2f3881	-0.17111398
239	0xbe82d2f2	-0.25551564
240	0x3d4471aa	0.04795996
241	0x3e8a553a	0.27018148
242	0x3dd2ba19	0.102894016
243	0x3d613bcc	0.054988667
244	0x3e620760	0.22073126
245	0xbe2c9799	-0.16854705
246	0x3e86f6e6	0.26360244
247	0x3e5a08b5	0.21292384
248	0x3d5d1588	0.053975612
249	0xbd1a2cec	-0.037640497
250	0x3e2466fc	0.1605491
251	0x3e7e7e07	0.24852763
252	0x3e092dbd	0.13396354
253	0xbcc77b61	-0.024350824
254	0x3ddfca5f	0.10927271
255	0x3e277299	0.1635231

encoder.convs.0.convs.<food___contains___ingredient>.att_src f4 [1, 1, 58]
0	0xbe5ed44e	-0.21760675
1	0xbea5654a	-0.3230384
2	0x3e7e51ee	0.24835941
3	0xbe03fbb0	-0.1288898
4	0x3d22771a	0.039664365
5	0x3e12f2b4	0.14350396
6	0x3d3e0ab2	0.04639692
7	0xbd860423	-0.06543758
8	0x3e80e44c	0.25174177
9	0x3d692b1b	0.056925874
10	0x3e0c6c9a	0.13713303
11	0xbc1b2406	-0.009469038
12	0x3e3f66ad	0.18691511
13	0x3e69cb96	0.22831568
14	0xbe0d4f72	-0.13799837
15	0x3e57d95d	0.21079011
16	0xbe282683	-0.16420941
17	0xbdb39e0d	-0.0877038
18	0xbe5943f6	-0.21217331
19	0xbeb993c7	-0.36245558
20	0x3e4d58ed	0.20053454
21	0x3dab8c11	0.08376325
22	0xbd045e9a	-0.03231678
23	0xbdd2ef83	-0.102995895
24	0xbe4927c5	-0.19644077
25	0xbe15e992	-0.14639881
26	0x3c1ad18d	0.009449375
27	0x3ea6a8e5	0.3255073
28	0x3ec0edf7	0.37681553
29	0x3e719ebc	0.23595709
30	0xbdf4a267	-0.11945038
31	0xbd862bac	-0.065512985
32	0x3de6edb8	0.1127581
33	0xbe79cfb8	-0.24395645
34	0x3eb98684	0.3623544
35	0xbe40c939	-0.1882676
36	0x3eb2d18e	0.34925503
37	0xbd45fd4f	-0.048337277
38	0x3e66d9cf	0.22544025
39	0x3e89ce7c	0.26915348
40	0x3e0164f2	0.12636164
41	0x3ec53e09	0.38523892
42	0x3dc5c6f5	0.09657089
43	0x3d684949	0.056710515
44	0x3c991e7a	0.01869129
45	0xbeae0f9d	-0.33996287
46	0xbe7f99f2	-0.24961069
47	0xbe713ced	-0.23558398
48	0x3e10de35	0.14147265
49	0x3e4c4dde	0.19951579
50	0x3c84503f	0.016151546
51	0x3e6e0522	0.23244146
52	0xbe07f44f	-0.1327679
53	0x3e149c2d	0.14512701
54	0xbd7eb485	-0.062183876
55	0xbeb419cb	-0.35175928
56	0xbe7175d7	-0.23580109
57	0x3e72dc11	0.23716761

encoder.convs.0.convs.<food___contains___ingredient>.att_dst f4 [1, 1, 58]
0	0x3e62d8ee	0.22153065
1	0x3e18fd64	0.14940411
2	0xbe2b48e4	-0.16727024
3	0xbc6aa885	-0.014322405
4	0x3ea99914	0.33124602
5	0xbcdcf499	-0.026972102
6	0x3d924f65	0.071440496
7	0xbe706528	-0.23476088
8	0x3ea6ea49	0.3260062
9	0xbe0fd398	-0.1404556
10	0xbe0ff2f8	-0.14057529
11	0xbd73a917	-0.05948743
12	0xbd9f17f0	-0.077682376
13	0x3cb0fe43	0.021605616
14	0x3eaf7981	0.34272388
15	0x3e690c9f	0.22758721
16	0xbb987ac0	-0.004653305
17	0x3e37888b	0.17923181
18	0x3e79fa10	0.24411798
19	0xbd828562	-0.06373097
20	0xbe7b4a65	-0.24540098
21	0x3e42d45d	0.19026323
22	0x3e5c14b1	0.21492268
23	0x3d07fe10	0.033201277
24	0x3d5dccdd	0.05415045
25	0x3e40c428	0.18824828
26	0xbe128173	-0.14307193
27	0x3ec70a54	0.38875067
28	0xbeaba228	-0.33522153
29	0x3d96e717	0.07368296
30	0x3e47dca6	0.19517764
31	0xbecc59cf	-0.3991227
32	0xbe32b76f	-0.17452787
33	0x3e6853cc	0.22688216
34	0x3e37aac6	0.17936239
35	0xbe291b37	-0.16514288
36	0x3eb10a50	0.3457818
37	0x3ebc9641	0.36833385
38	0x3dc5bffd	0.096557595
39	0xbe2655dc	-0.1624369
40	0xbe8bc8d8	-0.2730167
41	0xbe26f729	-0.16305222
42	0x3e13d73f	0.14437579
43	0x3da23b67	0.07921486
44	0x3af650a6	0.0018792346
45	0xbe2e71e6	-0.17035636
46	0x3eb0e7a3	0.34551725
47	0x3de3c1db	0.11120959
48	0x3e2e51a3	0.1702333
49	0xbe642e1e	-0.22283217
50	0xbe2e6fc6	-0.17034826
51	0xbd631099	-0.05543575
52	0x3e9b57e6	0.303405
53	0x3ea7eeaf	0.3279929
54	0xbe46c477	-0.19410883
55	0xbe963e19	-0.29344252
56	0xbe0d57a8	-0.1380297
57	0xbe2725b8	-0.16322982

encoder.convs.0.convs.<food___contains___ingredient>.bias f4 [58]
0	0xb58462a9	-9.86348e-07
1	0x35986994	1.135561e-06
2	0xb5816e15	-9.643287e-07
3	0xb500c3a9	-4.796844e-07
4	0x336edfca	5.5617228e-08
5	0xb6117963	-2.167734e-06
6	0xb583dd10	-9.824598e-07
7	0xb578c171	-9.2668694e-07
8	0xb633a4d1	-2.6769014e-06
9	0x35c3e7ce	1.4596096e-06
10	0x33fa7aee	1.1663893e-07
11	0x35af563b	1.3063612e-06
12	0xb60388bb	-1.9600109e-06
13	0xb3ed8d2b	-1.1061851e-07
14	0xb3fa975c	-1.1669064e-07
15	0xb5039088	-4.9011624e-07
16	0xb5127c68	-5.4570273e-07
17	0xb5a336ab	-1.2160357e-06
18	0x360cf5bc	2.1004662e-06
19	0xb35cf045	-5.1441265e-08
20	0x348b4c72	2.594639e-07
21	0x36213f98	2.4027886e-06
22	0x34ce962a	3.847975e-07
23	0x360fad0d	2.140939e-06
24	0xb51b200d	-5.778864e-07
25	0x3616cc42	2.2470635e-06
26	0xb48f3cd6	-2.668009e-07
27	0xb4b5a2ee	-3.3832424e-07
28	0x35993b99	1.1416734e-06
29	0xb5315487	-6.606064e-07
30	0x3572fa0a	9.051588e-07
31	0x360452f7	1.9717825e-06
32	0xb46793a5	-2.1567264e-07
33	0x358d5468	1.0529884e-06
34	0x34b6a64d	3.4021141e-07
35	0xb65e7c53	-3.3152944e-06
36	0x36c91163	5.992291e-06
37	0xb662a482	-3.377238e-06
38	0x34050ff5	1.2392395e-07
39	0x35d7794a	1.6054048e-06
40	0xb557f992	-8.0456914e-07
41	0xb57b1fca	-9.3551046e-07
42	0x36dd9f5a	6.604864e-06
43	0xb56e2f6b	-8.873091e-07
44	0xb5c83236	-1.4915774e-06
45	0xb6492a75	-2.9976047e-06
46	0x36a2bd4e	4.850014e-06
47	0xb5fba204	-1.874811e-06
48	0x35f4e03a	1.8244675e-06
49	0xb59f707a	-1.1879158e-06
50	0xb599c8d7	-1.145784e-06
51	0xb5ddcd19	-1.6525474e-06
52	0xb67e4410	-3.7888567e-06
53	0x361fb608	2.3798802e-06
54	0x358e53f5	1.0604259e-06
55	0x360bc710	2.0828484e-06
56	0x36753109	3.6536387e-06
57	0x35602e01	8.351345e-07
