etc/old3/models/best_model_AUC_0.9470.pt (torch, 836961 bytes, 144 tensors)

encoder.convs.0.convs.<user___healthness___food>.att_src f4 [1, 1, 78]
000000 c8 f4 85 be 8e a9 e8 3e 0b a5 ac 3e de f3 ee 3e
       -0.26163316 0.4544186 0.33719668 0.4667043
000010 ff 8f 15 bf 68 2c 50 bd cb b8 d9 be d7 2a 0e 3f
       -0.58422846 -0.0508236 -0.42523798 0.5553412
000020 a9 4e c4 be 2a cd f9 be 14 7b bf 3d 09 f0 0b bf
       -0.38341263 -0.4878934 0.09349647 -0.5466314
000030 62 fe 87 be d2 73 4b be 5b 6b 43 3e 2a e8 f3 be
       -0.26561266 -0.198684 0.19083922 -0.47638065
000040 50 20 fe be b6 71 de bd 3f 36 19 be c9 d8 01 3f
       -0.49634027 -0.108615324 -0.149621 0.5072141
000050 74 96 21 be d1 93 72 3d 5a cc aa 3e 22 49 9d be
       -0.1578005 0.059223 0.33359033 -0.30719858
000060 00 78 8b 3e 4c bf 17 3f 41 a4 98 be 70 16 ae 3e
       0.2723999 0.5927627 -0.29812816 0.34001493
000070 6e aa f7 bc 3f 9f fc be 1f 6b ed 3d df 63 9b be
       -0.030232634 -0.49340245 0.11592697 -0.30349633
000080 e0 04 5b be e1 76 68 3d 30 8c 3f be 6f 94 0f 3f
       -0.21388578 0.056753997 -0.18705821 0.56085867
000090 89 10 29 be 0c 31 01 bd 19 26 84 3e 80 44 e4 bd
       -0.16510214 -0.031540915 0.25810316 -0.11145878
0000a0 6e 06 91 be 18 ea 07 3f df dc e6 3e ed fd 33 bd
       -0.28325218 0.53091574 0.45090386 -0.043943334
0000b0 ec 89 b5 3d fe e5 83 bf 45 72 9a 3d a3 6d a9 be
       0.08864197 -1.0304563 0.075413264 -0.3309146
0000c0 a9 ad 3e 3e 13 ce 8a 3e 3b d2 0a 3e 31 a3 80 be
       0.18620934 0.27110347 0.13556759 -0.25124505
0000d0 2a cf 95 3d ac 81 a4 be 47 f3 b5 bd 94 93 d8 bc
       0.07314904 -0.32130182 -0.08884292 -0.026437558
0000e0 d6 51 43 3e a6 21 6a 3b ae 78 a6 3e c9 f5 1a 3e
       0.19074187 0.0035725622 0.32513946 0.15132822
0000f0 d2 a1 a2 be eb 70 8b be e0 e1 98 3e 75 55 d1 be
       -0.31764084 -0.27234587 0.2985983 -0.4088551
000100 86 85 b1 3d 7b a8 af bc a2 a4 09 3f 50 d1 e4 be
       0.08668046 -0.021442642 0.53766835 -0.44690943
000110 36 6c e2 3e ab 69 65 be ba a4 31 be 94 71 c8 bd
       0.44223183 -0.2240359 -0.17347994 -0.09787288
000120 70 78 b6 be a7 1b 15 bf 8d ed 63 be 85 79 c1 3e
       -0.35638762 -0.5824532 -0.22258587 0.37788025
000130 f0 9d 9f 3d 8c 79 fb 3e
       0.07793796 0.4911617

encoder.convs.0.convs.<user___healthness___food>.att_dst f4 [1, 1, 78]
000000 97 0d c3 3e 8d 6e 2f 3e f1 5f f3 3b de ec 89 3e
       0.38096306 0.17132016 0.0074272086 0.26938528
000010 de 45 32 3d 84 a9 22 be b3 81 80 be 5c 0f 90 3d
       0.04352366 -0.15884978 -0.25098953 0.070341796
000020 ac 78 94 be 07 d6 5a be 52 60 09 3e 58 45 8c 3e
       -0.28998315 -0.21370707 0.1341565 0.27396655
000030 f0 f3 57 3e 02 de 66 3c a2 68 99 bc d4 93 b9 bc
       0.21089149 0.014091017 -0.01872665 -0.022653498
000040 5c b0 75 be 35 ef 70 3e 89 41 30 3d ee 90 09 3d
       -0.23993057 0.2352875 0.04303125 0.03358548
000050 65 1d 81 3e c7 d4 99 be e2 c3 66 3e 85 a2 d2 3d
       0.2521774 -0.3004515 0.22535661 0.102849044
000060 e1 9a b2 3c c9 ab 46 3d da 06 a8 3d ef 57 3c be
       0.021802368 0.04850367 0.08204432 -0.18392919
000070 39 43 af 3e 12 95 1e 3e 46 74 57 3e 28 53 44 3e
       0.34230974 0.15486553 0.21040449 0.19172347
000080 7f db 9e bc cc 76 79 be f8 43 9c be 06 d2 a6 be
       -0.019391773 -0.24361724 -0.30520606 -0.3258211
000090 c4 41 22 3d dc 94 6c 3e 6b e3 c5 bd 02 96 da 3d
       0.0396135 0.2310366 -0.09662517 0.10673143
0000a0 8c d8 9d be 6d d3 f0 3d 63 42 1d be 1c ab 01 3e
       -0.30829275 0.11759076 -0.15357356 0.1266293
0000b0 c3 95 43 3c 71 93 8a 3e 14 59 c0 bd 5b 2e 69 be
       0.011937561 0.27065614 -0.0939199 -0.2277159
0000c0 8c 95 28 3d 5b a9 a2 be fa f2 9e 3d c7 7b 8f be
       0.041158244 -0.31769833 0.07761188 -0.28024122
0000d0 9c 23 82 3e d8 99 9f bd 52 88 67 be 10 c8 17 be
       0.25417793 -0.07793015 -0.22610596 -0.14822412
0000e0 c0 c9 29 be 25 fc aa bd d7 c4 4c be 68 29 19 3e
       -0.16580868 -0.08348874 -0.19996963 0.14957201
0000f0 38 b2 19 3e 62 98 bd bd a1 91 7e 3e 0a e8 81 3e
       0.15009391 -0.0925758 0.2486024 0.25372344
000100 f7 71 a0 be a6 73 79 be 21 7b 71 be 8e 20 7d bd
       -0.31336948 -0.24360523 -0.23582126 -0.061798625
000110 0f 5e 57 be b5 21 61 3e 2c 5b 62 be 04 8a 35 3e
       -0.21031974 0.21985514 -0.22105092 0.1772843
000120 e4 c7 8c 3e 96 af bd be c9 96 bb 3e 64 1f 4d 3e
       0.27496254 -0.37048024 0.36638477 0.20031506
000130 f1 3f b3 be 8f f9 95 3e
       -0.3500972 0.2929196

encoder.convs.0.convs.<user___healthness___food>.att_edge f4 [1, 1, 78]
000000 04 96 85 3d dc 70 57 be 14 c3 f0 bd 00 09 66 bc
       0.06522754 -0.21039146 -0.11755958 -0.014040232
000010 7e 5f dc bd 9a 70 43 3e 5c 0d 58 bd a0 95 0c 3d
       -0.10760401 0.19085923 -0.052747115 0.03432238
000020 20 c7 7a 3d c0 e2 a9 bb a8 2c 60 be 4e 5e 75 3e
       0.061225057 -0.0051845014 -0.21892035 0.23961756
000030 ef 05 04 be 82 dd 6f be 20 8a e1 bc cc 9e f2 bd
       -0.12892888 -0.23424342 -0.027531683 -0.11846694
000040 05 70 4d be 4e aa 78 3e ac c0 7e be 44 f3 f9 bd
       -0.20062263 0.24283716 -0.24878186 -0.12204602
000050 86 a3 72 3e 30 27 4e bd 58 4b 1a 3d 48 68 2a be
       0.23695192 -0.05033034 0.03766951 -0.16641343
000060 e0 d5 ae bc 3c 7f e7 3d 88 ec 64 be 70 78 20 be
       -0.021342218 0.11303565 -0.22355855 -0.15670943
000070 a5 9d 29 be a6 a6 59 3e c2 d4 66 3e 6a 7f 76 3e
       -0.16564043 0.21254978 0.22542098 0.24072042
000080 7c 60 5b be a0 46 1c 3d a2 ac 54 be 9a e4 77 3e
       -0.21423525 0.03815329 -0.20768979 0.24208298
000090 c0 e7 f9 3c 10 55 6d be 98 fb fb bd 79 c4 0f be
       0.030506015 -0.2317698 -0.12303847 -0.14039792
0000a0 cc ef 17 bd 0e ab f4 bd 82 5f 32 be 74 2a bd 3d
       -0.037093922 -0.119466886 -0.17419246 0.09236613
0000b0 b8 81 6e be d2 ac 04 be 04 2f 0d 3e 88 66 6a bd
       -0.23291671 -0.1295655 0.13787466 -0.057226688
0000c0 80 25 60 3c 72 2b a4 bd 10 c2 1c 3e 9a 5b 35 3e
       0.013680816 -0.08016099 0.15308404 0.17710724
0000d0 60 6d d7 3c 00 11 6a be 74 c1 5a be a0 ce 8e bc
       0.026297271 -0.22858047 -0.21362859 -0.01743251
0000e0 10 f7 02 3d ea 06 70 3e 79 ef 51 be 74 8c bc 3d
       0.0319739 0.23440138 -0.20501508 0.09206477
0000f0 60 74 99 bc fc 7e 81 be 54 3d d7 bd e2 cb 74 3e
       -0.01873225 -0.25292194 -0.10509744 0.239059
000100 60 e8 60 bc fc 20 23 bd c3 6d 77 be d4 86 63 bd
       -0.0137272775 -0.03982638 -0.24162965 -0.055548504
000110 15 9a 28 be 3c bb 5e 3e d0 22 9b 3c 02 3b 27 3e
       -0.16465028 0.21751112 0.018937498 0.16331103
000120 13 8d 85 3e 2e da 66 3e 2f 09 76 be 28 e5 de bc
       0.26084194 0.22544166 -0.24026941 -0.02720888
000130 80 79 ac bd a7 a1 54 be
       -0.08421612 -0.2076479

encoder.convs.0.convs.<user___healthness___food>.bias f4 [78]
000000 c5 7a 70 b5 25 4b 2b b7 37 06 b3 b5 87 4b a9 35
       -8.958562e-07 -1.020989e-05 -1.3338348e-06 1.2613463e-06
000010 ac 91 88 36 b4 9f 3b b4 e9 d9 12 b8 a3 0d e5 b5
       4.0700743e-06 -1.7473832e-07 -3.5012057e-05 -1.7065798e-06
000020 89 d9 65 b6 ae e4 3f b5 56 41 ea 35 ba e8 d2 34
       -3.4250281e-06 -7.148582e-07 1.7453374e-06 3.928488e-07
000030 e5 0c 95 b5 f3 39 3c 35 a3 98 7f b5 d8 4d 86 b6
       -1.1105118e-06 7.0119785e-07 -9.521702e-07 -4.0025734e-06
000040 4b 05 a2 b4 9b 22 2f b7 89 be 54 35 a1 21 4d b5
       -3.0178703e-07 -1.043887e-05 7.925342e-07 -7.641739e-07
000050 c9 41 3f 36 c9 cc 3c 35 09 38 cf 35 c0 61 22 b6
       2.849951e-06 7.033346e-07 1.543901e-06 -2.419678e-06
000060 c7 71 54 34 4f 96 01 b5 c8 f5 95 35 90 c6 3e b7
       1.978543e-07 -4.827497e-07 1.1172897e-06 -1.1371114e-05
000070 72 b0 dc 33 ee 35 e9 b5 78 49 89 32 d1 20 a1 b5
       1.02766435e-07 -1.7375548e-06 1.5982309e-08 -1.2004986e-06
000080 7b c3 d2 35 ca af 1b b5 96 07 15 35 f1 40 45 35
       1.5703112e-06 -5.7997806e-07 5.5517864e-07 7.348272e-07
000090 25 e8 89 35 65 42 9f b5 ee cf 98 b5 24 8e 33 35
       1.0274858e-06 -1.1865747e-06 -1.1385398e-06 6.688954e-07
0000a0 b4 9d 24 36 8b c7 33 b5 33 46 da 34 29 30 0c 36
       2.45297e-06 -6.697307e-07 4.065674e-07 2.0889659e-06
0000b0 7d 02 96 b5 5f a4 b7 b6 25 e3 cf b5 e4 3c 17 b6
       -1.1176595e-06 -5.4729603e-06 -1.548881e-06 -2.2536196e-06
0000c0 5f dc 6c 34 28 6d 8e 35 de 7f 3b 36 7f 80 6b b6
       2.2059383e-07 1.0611593e-06 2.79396e-06 -3.5092523e-06
0000d0 45 9d 6b 37 dc 06 ef 34 af 9a 97 b4 1f 51 c9 36
       1.4043709e-05 4.452221e-07 -2.823849e-07 5.9997105e-06
0000e0 db 16 ff 34 0e 00 a3 35 6a 74 f6 b6 02 ee 0c 36
       4.751408e-07 1.2144462e-06 -7.3449237e-06 2.1000164e-06
0000f0 cc e9 64 b6 45 40 44 b7 01 e5 75 35 47 0b bf b7
       -3.4110735e-06 -1.1697474e-05 9.1602857e-07 -2.2774226e-05
000100 bf 74 ae b6 27 e1 22 35 98 01 17 35 2b 07 70 35
       -5.199195e-06 6.067734e-07 5.62542e-07 8.94174e-07
000110 66 d7 c7 b5 4e b1 e1 35 33 58 34 37 75 ff c0 34
       -1.4889345e-06 1.6815409e-06 1.07493715e-05 3.5948656e-07
000120 c2 53 ef b7 d2 23 b0 b4 ae 5f 91 35 ef c3 78 35
       -2.8530023e-05 -3.2808617e-07 1.0831188e-06 9.267232e-07
000130 8e 7e 52 b6 84 ea 88 b5
       -3.1366103e-06 -1.0201043e-06

encoder.convs.0.convs.<user___healthness___food>.lin_src.weight f4 [78, 29]
000000 65 ad ad 3e 66 5c 48 bf e5 64 e2 3e 72 32 7f 3c
       0.33921352 -0.7826599 0.442176 0.015575992
000010 1f b9 50 3e a1 fd b8 be 5f 30 10 3e 03 66 42 bd
       0.20383118 -0.36131003 0.14080952 -0.047460567
000020 d9 d3 c3 3e d0 5c 7b bf 75 68 01 3f e6 0f 4d 3e
       0.38247564 -0.98188496 0.50550014 0.20025596
000030 8f 11 c7 be 6b 2b 4e bc ae 25 13 3f b0 86 4a be
       -0.38880584 -0.012583594 0.5747937 -0.19777942
000040 98 1c 9e 3e 3d 22 a2 be 9d 6a 22 3f 91 e1 ab bf
       0.3088119 -0.31666747 0.6344393 -1.3428212
000050 a1 64 bb bd c7 67 1d 3d a8 81 59 3f 98 bc af bf
       -0.09150053 0.038429048 0.84963465 -1.3729429
000060 22 87 15 bf 88 89 3e bd 04 ed 19 3f 74 6e 1a be
       -0.5840932 -0.04651788 0.6012728 -0.15081197
000070 2d 82 35 3e 9b 05 98 3e 35 30 df 3e a6 82 23 be
       0.1772544 0.29691777 0.43591467 -0.15967807
000080 fc 01 78 bc 00 bd 22 be e6 76 d4 bd 6e 73 8c 3c
       -0.015137192 -0.1589241 -0.103742406 0.017144885
000090 89 4b 5e 3d 72 0f 22 bf cd 9e 2e 3f 70 a4 f7 be
       0.054271255 -0.6330482 0.6821106 -0.48367643
0000a0 8e 5d 55 3d 22 11 c4 3e 66 36 1f 3e c2 4e 20 bf
       0.052091174 0.3829432 0.15548095 -0.62620175
0000b0 9a d9 4b 3e ab b1 ce 3d 07 2e 0b be 65 0a ed be
       0.19907227 0.10092481 -0.13591777 -0.46296993
0000c0 91 b5 0a 3f b6 48 02 be af 98 da 3d e4 89 e6 be
       0.541833 -0.1272305 0.10673653 -0.45027077
0000d0 67 26 67 3f cf 57 11 3f 23 df a3 3c cf 43 84 bf
       0.9029297 0.5677461 0.02000386 -1.0333194
0000e0 00 71 99 3e 68 69 35 3e e5 c0 08 be e6 28 36 3f
       0.29969025 0.1771599 -0.13354833 0.71156156
0000f0 66 8d 00 b8 b9 75 22 be 03 70 3a be 0c c7 1a be
       -3.0649266e-05 -0.1586522 -0.18206792 -0.15114993
000100 f0 f8 8f be e9 17 00 3e a2 54 0d bf 13 d1 51 3f
       -0.28119612 0.12509121 -0.55207264 0.81959647
000110 2e e0 f6 be 7c 93 8b bd 78 5a 0e 3f 4c 48 1e 3d
       -0.4821791 -0.0681524 0.55606794 0.038643166
000120 17 28 26 bf 56 23 5c be 96 9e 6e 3e a9 56 bd bd
       -0.6490492 -0.21497855 0.23302683 -0.09245045
000130 ed ed 08 bf be 7c 42 3f 42 f8 35 be 92 47 39 3e
       -0.53488046 0.7597159 -0.17770484 0.18093708
000140 49 d6 ca be f6 90 36 3f 67 2f 02 3f 57 ae 41 3e
       -0.39616612 0.7131494 0.5085358 0.18914162
000150 63 61 1e bf cc 91 6c 3e f1 4a 09 3d 1a eb 04 bf
       -0.6186735 0.23102492 0.033518735 -0.51921237
000160 5d 52 41 3f 68 fb 99 bd 34 de 1a 3e dc 2f 6b 3e
       0.755163 -0.07518655 0.15123826 0.22967476
000170 a2 19 29 be ec 67 07 be 3b 49 46 3e 7f 43 46 bf
       -0.16513684 -0.13223237 0.19363873 -0.7744674
000180 76 d2 6a 3f 94 3a e3 be 9b 14 5e be 77 10 01 3f
       0.9172739 -0.4438063 -0.21687548 0.5041575
000190 52 11 8b be 7c c8 c3 be eb 34 e9 bd bd 40 97 bd
       -0.27161652 -0.38238895 -0.113870464 -0.07385395
0001a0 9e 35 c4 bd 13 cd 34 bf f1 11 3f 3f dd 07 7b bd
       -0.09580539 -0.7062542 0.7463675 -0.061286796
0001b0 f4 63 d5 3e be 39 c7 be ae 37 0f 3f 23 65 5b 3e
       0.4167782 -0.3891124 0.55944335 0.214253
0001c0 41 dd 6e 3e 6e 72 2e bf 7e c0 ec 3e 5f 68 c6 3e
       0.23326589 -0.68143356 0.4624061 0.38751504
0001d0 f6 43 89 3e c1 75 2d bf ce 91 28 3e 20 1a a8 3d
       0.26809663 -0.67757803 0.1646187 0.08208108
0001e0 ed 4e 87 bd 56 27 8e 3d ef 28 85 3e d3 0d 5b 3d
       -0.06606851 0.069410965 0.26007792 0.05347998
0001f0 df e7 ec 3e cc 26 82 bf 2f 99 47 3f 88 36 ba b8
       0.46270654 -1.016809 0.77968115 -8.8793284e-05
000200 60 f5 9f be 4a b1 00 3e 0a 80 3c 3f c9 44 fd bd
       -0.31241894 0.1256763 0.7363287 -0.12366635
000210 34 20 9d bd cf cb 14 be 18 54 d4 3e 5e 23 6a bf
       -0.07672158 -0.14530872 0.41470408 -0.91460216
000220 24 97 41 3d 71 d0 37 be c8 fd 0a 3f b7 d6 f5 be
       0.04726328 -0.17950608 0.5429349 -0.48015377
000230 8f fe e6 be fa 8a 6d bd 2d 4b 55 3f cb d2 c6 be
       -0.45116088 -0.057993867 0.83317834 -0.38832697
000240 9f 8e 98 be 61 59 c3 be c5 f2 b2 bd 69 8d 26 bb
       -0.2979631 -0.38154128 -0.08737711 -0.0025413877
000250 d9 c8 a8 bd 65 5e cd be 22 fe 97 3e 96 67 9b 3e
       -0.08241434 -0.4011108 0.29686075 0.30352467
000260 9f 70 9f bd 7b ee 3f 3e 43 d4 0c bf 25 cd e6 3e
       -0.07785153 0.18743317 -0.55011386 0.45078388
000270 10 89 5b 3e 85 d6 ad be d2 49 a2 3e 2c eb f9 3d
       0.21439004 -0.33952728 0.31696945 0.122030586
000280 eb b0 43 3d 9e ca 9e bd 55 f2 08 3e 51 ee ca 3e
       0.047776144 -0.0775349 0.13373692 0.39634946
000290 42 cf a3 be c5 38 c0 3e 5b 1a 67 be 8f 88 86 3e
       -0.31994063 0.37543312 -0.22568648 0.2627606
0002a0 2e 3b af be 32 d5 7b 3c d5 7c 82 3d 0b 3d 14 3f
       -0.34224838 0.015370654 0.06371466 0.57905644
0002b0 0b 5e 49 3d 87 8b ac be f7 64 4b 3e 6e d0 c6 be
       0.049161952 -0.337002 0.19862734 -0.38830894
0002c0 b1 2a b2 bd c9 e8 4a bd 68 ac 0e be 51 12 50 bd
       -0.08699549 -0.049538407 -0.13932955 -0.050798718
0002d0 a1 a0 19 3e 8f 18 92 3d d0 08 21 3f 77 ec 21 bf
       0.15002681 0.071335904 0.6290407 -0.6325144
0002e0 61 cb b3 3e b4 20 2b bd dd 57 c6 bd e9 39 92 3d
       0.35116103 -0.041779235 -0.09684727 0.07139952
0002f0 a7 61 1d 3f 15 4e 54 3e 58 70 7e 3e f4 ea 1e be
       0.6147713 0.20732911 0.24847543 -0.15519315
000300 a4 d5 2c 3f ea 46 e4 be b3 55 74 3e 1b 98 61 be
       0.6751349 -0.44585353 0.23860817 -0.2203068
000310 19 20 45 3f 81 ab 21 bf a8 df 4d be 12 5f 9c be
       0.770021 -0.6315232 -0.2010485 -0.30541283
000320 97 2f 82 3f a4 aa ad be 51 53 0c be 5a 6b 06 3e
       1.0170773 -0.3391925 -0.13703658 0.13126889
000330 ea 69 fe 3e b6 a3 53 3e 75 8c 01 be dd c6 20 bd
       0.4969018 0.2066792 -0.12651236 -0.03925215
000340 c4 34 5d 3d 94 51 6e be 8a d7 c4 3d e7 f7 ee be
       0.0540054 -0.23273307 0.09611423 -0.4667351
000350 eb 61 61 3f 35 53 af be d1 b6 2e be 5a c6 42 3f
       0.88040036 -0.3424317 -0.17061926 0.7608391
000360 01 be 96 bb 0b 1d af be 3a 98 53 be 51 02 96 3e
       -0.004600287 -0.34201846 -0.20663539 0.29298642
000370 2d a5 0e bd 4c 86 f5 be 97 19 6a 3f ce 03 4f be
       -0.034825493 -0.47954023 0.91445297 -0.20216295
000380 d2 84 4e 3e 42 97 26 bf 4f d2 1b 3f 99 e5 08 3f
       0.20167854 -0.6507455 0.6086778 0.5347534
000390 36 5b 1e 3e 2d f1 80 bf 76 f3 85 3e ce aa e3 3e
       0.15464482 -1.0073601 0.26162308 0.4446625
0003a0 2f e3 db 3e 37 73 12 bf 61 a1 5b 3b 9a 4a ea bc
       0.42946765 -0.57207054 0.0033512937 -0.028600026
0003b0 9b a8 ec bd 42 ec 12 be d5 ba 75 3e 48 48 7b be
       -0.115555964 -0.14347938 0.23997052 -0.24539292
0003c0 18 41 e6 3e f0 f6 4f bf 00 0c 08 3f fe df 5b 3e
       0.44971538 -0.8123617 0.5314331 0.21472165
0003d0 77 46 dc be c1 2d 02 3e 66 58 ff 3e 81 8f 0d bd
       -0.4302251 0.12712766 0.4987213 -0.034560684
0003e0 6b 53 ab 3b 35 90 02 be 4c af 4d 3f f6 fe 0f bf
       0.00522845 -0.12750323 0.80345607 -0.56248415
0003f0 59 c3 eb 3e e4 9e 3e be e1 eb 1c 3f b6 80 6d bf
       0.46047476 -0.186153 0.6129742 -0.9277452

encoder.convs.0.convs.<user___healthness___food>.lin_dst.weight f4 [78, 17]
000000 4f 57 cb 3e 30 57 a1 be 31 5f ae bd 1f de e3 bd
       0.3971505 -0.3151183 -0.0851425 -0.111263506
000010 7f 5a 5f 3d 29 70 40 bd dd c9 1f 3e fa 2f 18 3e
       0.054529663 -0.046981964 0.15604348 0.14862052
000020 6f c1 a0 3c 0b f9 50 3c 8f 08 1a 3d 35 01 9b 3c
       0.019623486 0.012754689 0.03760582 0.018921474
000030 33 3a 05 bd fd e8 6a be 41 9d a2 3e 65 49 17 3c
       -0.032526206 -0.2294044 0.317606 0.009233807
000040 4b 01 a1 3e 1e 83 8a bb f3 d3 ec 3d 97 31 63 bd
       0.314463 -0.004227056 0.115638636 -0.055467214
000050 e4 1c 07 be 45 3e 41 3d e8 96 59 be 93 a7 fb 3d
       -0.13194615 0.047178525 -0.21248972 0.122878216
000060 f9 6b cc 3c ff 3f 0c bd 4f 60 22 be e0 73 63 be
       0.02495383 -0.03424072 -0.15857051 -0.22212172
000070 ec 0d 24 be 75 29 98 be 62 be 08 be 09 8d 1f 3e
       -0.16020936 -0.2971913 -0.13353875 0.15581144
000080 9e 2b ac 3e 51 4e 92 3e 78 37 d2 bd 45 6d ab bd
       0.33627027 0.28575376 -0.10264486 -0.08370451
000090 49 a1 51 3e 71 ec c1 3d d1 7d 13 3e d2 64 80 bb
       0.20471682 0.09468926 0.14403464 -0.0039182687
0000a0 5a 8a 3f be 3d 72 79 3e 67 71 05 be d5 85 88 bd
       -0.1870512 0.24359985 -0.13031541 -0.066661514
0000b0 99 01 c3 3d f9 4b 35 be e7 25 35 3e d6 52 35 be
       0.09521789 -0.17704763 0.1769024 -0.1770738
0000c0 92 d0 f6 3d 60 1e f7 bd 63 d9 b4 be 26 30 65 3d
       0.120515004 -0.120663404 -0.35322103 0.05595412
0000d0 62 50 b0 be 8e 78 62 be df 34 82 be 7f a5 dc bd
       -0.34436327 -0.221163 -0.25430962 -0.107737534
0000e0 b6 fa e5 3d fe ca 74 3d f1 22 e5 3d c4 71 bf 3d
       0.1122946 0.0597639 0.11188305 0.09347871
0000f0 fb b4 11 be 64 c4 ac 3d 40 53 5c 3e 0c 33 c9 bd
       -0.14229195 0.08435896 0.21516132 -0.098241895
000100 c9 58 b7 bd 40 d7 b9 3e 03 8f a7 3e 15 25 84 3d
       -0.08952481 0.36297035 0.32726297 0.06452385
000110 78 19 6d 3e 7c d5 26 3d b0 a3 9d 3d 5f d7 78 be
       0.23154247 0.04073094 0.076972365 -0.24300908
000120 e8 b0 4d 3e 02 82 3f 3c 8a fa 55 bd b8 f0 69 3d
       0.20087016 0.011688711 -0.052240886 0.057114333
000130 68 81 e6 3d 6e 2e 66 bd c1 27 56 3e 13 aa c7 3d
       0.11255151 -0.056196623 0.20913602 0.09749236
000140 5a 7d 21 be 21 30 68 be 1b 29 b0 3e c7 9f 9a 3e
       -0.15770474 -0.2267461 0.3440636 0.30200025
000150 2d 23 14 3e 74 30 8d 3d db 05 9d 3e 11 f4 91 3e
       0.14466543 0.06894007 0.3066853 0.2850652
000160 ed 62 4f bc d4 4b 79 3e 23 0b ed bd 5e 4d e5 bd
       -0.012657863 0.24345332 -0.1157439 -0.11196397
000170 b4 3d 70 3d 60 5f 97 bd e1 57 6e bd 5c cf 09 bd
       0.058652595 -0.07391238 -0.058189277 -0.03364502
000180 85 ae 23 3d 18 0f ad bc 96 98 27 be e0 e2 42 be
       0.039961357 -0.021125361 -0.163668 -0.19031858
000190 a6 99 da 3d 57 f8 c6 bd 2c 04 ca be b2 9b c8 3c
       0.10673837 -0.09715336 -0.39456308 0.024488304
0001a0 de d3 00 3e 43 37 41 3e 53 45 a4 bc 1c 20 63 bd
       0.12580821 0.18868737 -0.020052588 -0.055450544
0001b0 de 30 59 3d c3 e6 c3 bd 6b 53 c0 3d 5f 7a 18 3e
       0.05302512 -0.09565499 0.09390911 0.14890431
0001c0 61 dc 52 be 42 0e 81 be 5d 02 8c 3e 38 78 9b 3e
       -0.2059188 -0.2520619 0.27345553 0.30365157
0001d0 a8 10 bb be 30 c3 00 be 0a a7 82 be d0 32 4b 3d
       -0.36536145 -0.12574458 -0.25518066 0.049609005
0001e0 2c 63 bb 3d 3b 01 20 be 48 88 77 3e a7 d6 23 be
       0.09149775 -0.1562547 0.24173081 -0.15999852
0001f0 d1 1c 4b bc 5c 24 2c be 8c 9b 1f be 50 a5 03 3e
       -0.012397007 -0.16810745 -0.1558668 0.1285603
000200 70 10 2d 3e 0e 9a 81 be e9 79 4b 3e bf 6f c0 bd
       0.16900802 -0.25312847 0.19870724 -0.09396314
000210 e3 2b 56 be af 2a 70 3c a2 66 3a be 81 4d e5 3d
       -0.20915179 0.014658614 -0.18203214 0.11196423
000220 6e 3e cd 3d 44 31 2c 3e 34 d8 48 3e 40 6d 0d 3e
       0.10021673 0.16815668 0.19613725 0.13811207
000230 db b9 61 3e 38 7e 26 be d5 59 a6 3c fb 22 c9 bd
       0.22043554 -0.16259086 0.020306507 -0.09821125
000240 8c ff 4a 3d 88 0f 97 3e 65 70 22 bb 5d bb 3a be
       0.049560115 0.29504037 -0.002478623 -0.18235536
000250 44 61 e6 bd be 76 a6 bd 5b 83 7b be 1b 9b b8 bd
       -0.11249021 -0.08128117 -0.24561827 -0.09013959
000260 7c 10 a4 be 4d f4 29 be 06 6a aa 3e 10 ef d1 bd
       -0.32043827 -0.165971 0.33284014 -0.10250676
000270 6f 10 ac bc 88 47 a7 bd 3f 06 f9 bd 2b 6c 7d bd
       -0.02100393 -0.081679404 -0.121593945 -0.061870735
000280 cd 01 ea bd 2c 55 31 3e 6b 0e 3b 3e 6c d5 f5 3d
       -0.11426125 0.17317647 0.18267219 0.120035976
000290 99 2e 2a 3e ef 75 17 be 07 76 88 bd bc 25 e6 bd
       0.16619338 -0.14791082 -0.06663137 -0.11237666
0002a0 70 b4 a0 be 59 71 d9 be c0 26 68 3e 5e ad 36 be
       -0.31387663 -0.4246929 0.22671032 -0.17839572
0002b0 0c d0 5c 3e c5 16 79 be a1 5e 6a 3e d2 19 65 3e
       0.21563739 -0.24325092 0.2288766 0.22373131
0002c0 c4 44 b1 bd ba cb 67 be 45 89 e2 bd 3e a1 0b 3e
       -0.08655694 -0.2263631 -0.11061338 0.13635728
0002d0 11 d2 31 be a8 f7 05 3e 6c bf 59 3e 3d c0 42 be
       -0.1736529 0.13082755 0.21264428 -0.19018646
0002e0 55 9f 6d bc 4a 24 81 3e 22 98 a9 3e 61 36 2b 3e
       -0.01450332 0.25223 0.3312388 0.16719963
0002f0 cd 60 67 be 79 b9 5b be f1 9b a6 bd 4c 87 44 be
       -0.2259552 -0.21457471 -0.08135212 -0.19192237
000300 cc 4b 63 bd 92 c2 c0 bd 73 63 f3 3d a0 21 d9 bc
       -0.055492207 -0.09412111 0.11884203 -0.026505291
000310 0b 24 4b be c5 12 d7 3c 83 e0 48 bd 72 fc 8e 3c
       -0.19837968 0.026254067 -0.049042236 0.01745436
000320 df bd df 3b 29 00 20 3e 5a 15 39 3e b0 fc 83 3e
       0.0068280543 0.15625061 0.18074551 0.25778723
000330 31 41 8f 3e 42 fa 25 be 8f 56 a9 bc 72 51 2c be
       0.27979425 -0.16208747 -0.020671157 -0.16827944
000340 4c 83 16 be 60 71 44 3e 99 cb 60 3d 65 48 d8 3d
       -0.14698523 0.19183874 0.054881666 0.10560683
000350 c9 15 33 3e 3a 17 3d 3e da bd 58 be dc e0 b5 3d
       0.17488779 0.18465891 -0.21166173 0.08880779
000360 1b 15 27 3e dd 95 f9 3a ef 65 9d 3e c5 e7 65 3e
       0.16316645 0.0019041855 0.30741832 0.22451694
000370 46 86 28 3e 97 3c 86 3d 71 b6 d1 3d c5 c0 d8 bd
       0.16457471 0.06554525 0.10239876 -0.10583643
000380 63 db 7b 3e 5c 99 36 be 18 18 7d bd 9d 71 ec 3d
       0.24595408 -0.1783194 -0.061790556 0.115451075
000390 6e d0 1d bc c3 c4 50 bb fa 57 62 3e 0a aa eb bc
       -0.009632213 -0.003185556 0.22103873 -0.028767604
0003a0 1a 5b 3b be b0 21 8d 3e ef 85 1e 3e 65 ed cf 3c
       -0.18296471 0.27564764 0.15480779 0.025381753
0003b0 38 f4 1a be a1 30 7b 3d 1f ab ac 3e bd 26 04 3d
       -0.15132225 0.061325673 0.33724305 0.032263506
0003c0 db 64 25 be 11 58 8d be 52 3c d9 3d dd 87 c0 3c
       -0.16151755 -0.27606252 0.10607208 0.023502285
0003d0 c3 c9 bf bc c2 ab 9b 3d 2a f1 80 be 96 f0 d4 bd
       -0.023411637 0.076011196 -0.25183994 -0.103974506
0003e0 2c 58 05 3c 44 de e2 3d e5 69 0e 3e fc 41 89 bc
       0.008138698 0.1107755 0.13907583 -0.016755097
0003f0 25 b8 54 bd 43 1e 79 3e 8c 73 a4 bd d5 35 80 3c
       -0.051933426 0.2432795 -0.08029851 0.01565067

encoder.convs.0.convs.<user___healthness___food>.lin_edge.weight f4 [78, 1]
000000 2e 18 fd bd d0 01 3d 3e 88 83 fe bc 80 d4 ad bd
       -0.123581275 0.18457723 -0.031068578 -0.08487797
000010 17 83 86 3e 07 cc 83 3e 71 69 40 be d1 c2 21 be
       0.2627189 0.25741598 -0.18790223 -0.15796973
000020 aa ef 3d 3e 5c 7c 57 3e f0 d5 8d 3d 28 84 48 bd
       0.18548456 0.21043533 0.06925571 -0.04895416
000030 9a 5b 43 be 00 b7 bf 3d c0 97 1b bc ca 64 6e 3e
       -0.19077912 0.09361076 -0.009496629 0.23280635
000040 b2 82 58 3e a7 ba 84 3e 1a f3 ed bd 47 81 82 3e
       0.21143606 0.25923654 -0.116186336 0.25489256
000050 10 bc dd bd 7e c8 18 3e 80 92 bb bb 17 bf 83 3e
       -0.10826886 0.14920232 -0.0057242513 0.25731727
000060 81 22 0d be f4 d9 40 3e e4 72 a0 3d b0 f5 27 bd
       -0.13782693 0.18833143 0.07834414 -0.04100579
000070 33 c2 2a be 36 65 68 3e b0 3d 2e 3e 80 f9 2f 3d
       -0.16675644 0.22694859 0.1701572 0.04296255
000080 36 80 75 3e 50 89 45 3d f8 16 f2 bd 7c b9 84 bd
       0.2397469 0.048226655 -0.11820787 -0.06480691
000090 4e 39 5d 3e 42 fa 74 3e cc be 18 bd 9d ca 88 3e
       0.21603891 0.23923591 -0.037291333 0.26717082
0000a0 d4 05 55 3e 5e 89 59 be 74 03 3a be 2a b8 69 3e
       0.20803005 -0.21243808 -0.1816538 0.2282416
0000b0 82 da 4c 3e d9 fe 8b 3e 80 7c 1d bb bc 83 38 bd
       0.20005229 0.2734287 -0.0024030507 -0.045047507
0000c0 5a 51 36 be 9e 76 e8 bd 00 47 3c 3d 78 47 75 be
       -0.1780447 -0.113507494 0.04596615 -0.23953044
0000d0 22 b5 1e 3e 10 aa 4a bd 0e 97 79 3e e6 56 4f 3e
       0.15498784 -0.04947859 0.24374029 0.20247993
0000e0 66 c7 25 be 20 24 4b 3c b5 c6 82 3e 00 74 98 ba
       -0.16189346 0.01239875 0.25542226 -0.001163125
0000f0 6e e7 67 be 70 55 34 3d b1 a3 48 be 54 9a 77 be
       -0.22646877 0.044026792 -0.19593693 -0.24179965
000100 62 94 27 3e 28 e2 35 bd ce aa 3c 3e f8 00 5d 3e
       0.16365197 -0.044405133 0.18424532 0.21582401
000110 f8 dc 59 3e a0 83 82 3c 82 b8 68 3e a8 41 20 3e
       0.21275699 0.015931904 0.22726634 0.15650046
000120 8c ff b7 3d 19 3b 89 3e b8 51 4f bd ba 57 31 3e
       0.089842886 0.268029 -0.050615042 0.17318621
000130 00 67 19 3d d7 76 86 3e
       0.037451744 0.26262543

encoder.convs.0.convs.<user___eats___food>.att_src f4 [1, 1, 78]
000000 5c 72 7c be 1b e2 96 3e ef 81 30 3e e5 5a 40 3e
       -0.24653 0.2946938 0.17237066 0.18784674
000010 54 53 c5 bc 71 85 8a 3e 89 4b 30 bc c1 94 a8 3e
       -0.024087586 0.27054933 -0.0107601965 0.3292599
000020 de 1b 61 3e ab 37 83 3e 56 66 9f be 9c 01 35 3d
       0.21983287 0.2562841 -0.31132764 0.044190988
000030 5d 34 fe bd f4 83 c3 3c 17 0f 68 be d1 ce 25 be
       -0.12412331 0.023866631 -0.22662006 -0.16192175
000040 f6 e1 a0 3e 65 6b 24 be c7 f0 05 3e 87 14 b5 3d
       0.31422395 -0.16056593 0.1308013 0.08841806
000050 dd d4 d8 3d 46 56 8f 3e 4e fe 7f be 4e a8 f1 bd
       0.105874754 0.2799551 -0.24999353 -0.1179968
000060 cc e3 57 be 37 23 c2 3d dc eb 25 be 75 86 a3 be
       -0.21082991 0.09479373 -0.16203254 -0.3193852
000070 f8 2d 1a be 20 0a e4 3d 54 a7 96 3e 51 ec 19 be
       -0.15056598 0.11134744 0.29424536 -0.15031554
000080 9e 5c a8 bd e4 c1 9f be a8 12 3c 3d 75 25 70 bd
       -0.0822079 -0.31202614 0.04591623 -0.05862947
000090 97 21 2e bd 80 53 90 bc 10 e7 19 be ba ab 0e be
       -0.042512503 -0.01761794 -0.1502955 -0.13932696
0000a0 ff d5 9e 3e fe 29 a3 be f8 18 34 3e 2f b2 d6 bd
       0.3102264 -0.31867975 0.1758765 -0.104832046
0000b0 55 d1 2f 3e 60 81 a6 bc 24 b1 4d be 2a 71 21 3d
       0.17169698 -0.020325363 -0.20087105 0.039414562
0000c0 65 33 4e be ad 16 c4 bd cb 24 ee 3d b9 50 3f 3e
       -0.20136793 -0.095746376 0.116281115 0.18683137
0000d0 6a e5 14 be 9d 22 31 be de 82 29 be 47 a7 fa 3d
       -0.1454064 -0.1729836 -0.16553828 0.12238937
0000e0 f9 ee 65 be 3e 2d 03 be cd a4 ed 3d ff 37 39 be
       -0.22454442 -0.12810227 0.11603699 -0.18087767
0000f0 9d c3 8d bd 74 8f 1d be 12 89 d6 bd e1 3d 58 bd
       -0.06922076 -0.15386754 -0.10475363 -0.052793387
000100 3a 33 a2 be 1e d8 83 3e 28 e6 05 be 3d ed a0 3d
       -0.31679708 0.25750822 -0.13076079 0.078577496
000110 6c 76 72 be b2 5c 28 be d1 d6 b7 bc 02 c5 6e 3e
       -0.23677987 -0.1644161 -0.0224413 0.2331734
000120 4b 1e 2d 3e be 1a ac 3e 2a 93 5e bd f7 8b 73 be
       0.16906087 0.33614153 -0.054339565 -0.23783861
000130 67 3c 9a 3b bc 32 f0 bd
       0.0047069076 -0.11728427

encoder.convs.0.convs.<user___eats___food>.att_dst f4 [1, 1, 78]
000000 87 d9 fc 3d f4 b5 ac be 95 4d 03 be fc ed b9 3b
       0.123461775 -0.3373257 -0.12822564 0.005674122
000010 4b 0b 6a be f6 b2 7a be ab 4d 96 3e b6 2f 6d 3b
       -0.2285587 -0.2448233 0.2935613 0.0036191768
000020 6e 32 9a 3e 45 d1 66 be a5 08 8e be 8b 38 b0 bd
       0.301166 -0.22540767 -0.2774097 -0.08604535
000030 a0 d7 4b 3e c5 dc f4 3c c7 40 ae 3e 41 de 8c 3e
       0.19906473 0.029890427 0.34033796 0.27513316
000040 33 62 7b 3d fe 49 84 be fb 43 0f 3d a1 66 91 bd
       0.061372947 -0.25837702 0.03497694 -0.07099653
000050 6f 87 98 3d 77 4c 73 bc 91 04 e1 3d 43 e1 d7 3c
       0.07447707 -0.014849774 0.10987199 0.02635253
000060 41 c5 e9 3c 94 1c 7e be 9b d7 d4 bd be 29 6f 3e
       0.02853644 -0.24815589 -0.10392686 0.23355767
000070 d3 24 02 3d 96 d7 d1 bc 10 5b 57 bc 5c 11 4d 3d
       0.0317734 -0.025615495 -0.01314427 0.050065383
000080 4b 42 d9 bc 2d d2 ad be a9 f3 3c 3e c3 b3 46 3e
       -0.026520869 -0.33949414 0.18452324 0.19404511
000090 a3 43 57 3e 13 13 de bd 6f fb 0a be 7d cf 38 3e
       0.21021895 -0.10843482 -0.13572477 0.180479
0000a0 6a c7 8c be 6d a6 16 3d 53 b1 b8 be c3 20 8d 3d
       -0.2749589 0.03677981 -0.36072788 0.068910144
0000b0 c3 9f 2c be 97 d8 f9 3d 76 2b 07 3e b5 79 9b bd
       -0.1685782 0.12199514 0.13200173 -0.07591573
0000c0 fb 59 d8 bd e7 db e4 bd e8 10 27 bd 8e cf 86 3e
       -0.105640374 -0.111747555 -0.040787607 0.26330227
0000d0 ef 6b 06 bc 7a ad 98 3e 3b 0d f3 bd 11 14 4c 3e
       -0.008204444 0.29819852 -0.11867758 0.1992953
0000e0 6f 9f b5 bc 91 68 a1 3e 95 65 a5 be a6 83 67 be
       -0.02217075 0.3152509 -0.32304063 -0.22608814
0000f0 1b b1 95 be ec 98 f8 bd 0a 4d 80 be 44 47 47 3e
       -0.29236683 -0.121385425 -0.25058776 0.1946078
000100 80 64 3b bd dd 8e b9 bd f9 d9 c6 3c 81 59 c7 3d
       -0.04575014 -0.09060452 0.02427386 0.097338684
000110 30 94 bb 3b ce 25 1c be a5 44 60 be 61 7b 5b 3e
       0.0057244524 -0.15248796 -0.21901186 0.21433784
000120 dc 5e b1 3e 8a d3 a0 be f9 76 1f be 00 d2 2b 3d
       0.34642684 -0.31411391 -0.15572728 0.04194832
000130 c7 1a 2c be 09 d2 40 be
       -0.1680709 -0.18830122

encoder.convs.0.convs.<user___eats___food>.bias f4 [78]
000000 c5 7a 70 b5 25 4b 2b b7 37 06 b3 b5 87 4b a9 35
       -8.958562e-07 -1.020989e-05 -1.3338348e-06 1.2613463e-06
000010 ac 91 88 36 b4 9f 3b b4 e9 d9 12 b8 a3 0d e5 b5
       4.0700743e-06 -1.7473832e-07 -3.5012057e-05 -1.7065798e-06
000020 89 d9 65 b6 ae e4 3f b5 56 41 ea 35 ba e8 d2 34
       -3.4250281e-06 -7.148582e-07 1.7453374e-06 3.928488e-07
000030 e5 0c 95 b5 f3 39 3c 35 a3 98 7f b5 d8 4d 86 b6
       -1.1105118e-06 7.0119785e-07 -9.521702e-07 -4.0025734e-06
000040 4b 05 a2 b4 9b 22 2f b7 89 be 54 35 a1 21 4d b5
       -3.0178703e-07 -1.043887e-05 7.925342e-07 -7.641739e-07
000050 c9 41 3f 36 c9 cc 3c 35 09 38 cf 35 c0 61 22 b6
       2.849951e-06 7.033346e-07 1.543901e-06 -2.419678e-06
000060 c7 71 54 34 4f 96 01 b5 c8 f5 95 35 90 c6 3e b7
       1.978543e-07 -4.827497e-07 1.1172897e-06 -1.1371114e-05
000070 72 b0 dc 33 ee 35 e9 b5 78 49 89 32 d1 20 a1 b5
       1.02766435e-07 -1.7375548e-06 1.5982309e-08 -1.2004986e-06
000080 7b c3 d2 35 ca af 1b b5 96 07 15 35 f1 40 45 35
       1.5703112e-06 -5.7997806e-07 5.5517864e-07 7.348272e-07
000090 25 e8 89 35 65 42 9f b5 ee cf 98 b5 24 8e 33 35
       1.0274858e-06 -1.1865747e-06 -1.1385398e-06 6.688954e-07
0000a0 b4 9d 24 36 8b c7 33 b5 33 46 da 34 29 30 0c 36
       2.45297e-06 -6.697307e-07 4.065674e-07 2.0889659e-06
0000b0 7d 02 96 b5 5f a4 b7 b6 25 e3 cf b5 e4 3c 17 b6
       -1.1176595e-06 -5.4729603e-06 -1.548881e-06 -2.2536196e-06
0000c0 5f dc 6c 34 28 6d 8e 35 de 7f 3b 36 7f 80 6b b6
       2.2059383e-07 1.0611593e-06 2.79396e-06 -3.5092523e-06
0000d0 45 9d 6b 37 dc 06 ef 34 af 9a 97 b4 1f 51 c9 36
       1.4043709e-05 4.452221e-07 -2.823849e-07 5.9997105e-06
0000e0 db 16 ff 34 0e 00 a3 35 6a 74 f6 b6 02 ee 0c 36
       4.751408e-07 1.2144462e-06 -7.3449237e-06 2.1000164e-06
0000f0 cc e9 64 b6 45 40 44 b7 01 e5 75 35 47 0b bf b7
       -3.4110735e-06 -1.1697474e-05 9.1602857e-07 -2.2774226e-05
000100 bf 74 ae b6 27 e1 22 35 98 01 17 35 2b 07 70 35
       -5.199195e-06 6.067734e-07 5.62542e-07 8.94174e-07
000110 66 d7 c7 b5 4e b1 e1 35 33 58 34 37 75 ff c0 34
       -1.4889345e-06 1.6815409e-06 1.07493715e-05 3.5948656e-07
000120 c2 53 ef b7 d2 23 b0 b4 ae 5f 91 35 ef c3 78 35
       -2.8530023e-05 -3.2808617e-07 1.0831188e-06 9.267232e-07
000130 8e 7e 52 b6 84 ea 88 b5
       -3.1366103e-06 -1.0201043e-06

encoder.convs.0.convs.<user___eats___food>.lin_src.weight f4 [78, 29]
000000 61 19 ab 3d e9 3d 2a be a6 cc 56 3e 09 ae 08 3e
       0.0835445 -0.1662518 0.20976505 0.13347639
000010 14 eb 1e 3e 26 bd 89 be 0c 9c a2 3e 27 9f 8d be
       0.15519363 -0.2690212 0.3175968 -0.27660486
000020 8e 1b c3 be 52 fe dd 3d 2b 33 ce 3e 45 6c 04 be
       -0.3810696 0.108395234 0.40273413 -0.12931927
000030 fa ea 8b be d6 6a 8e 3d 62 9a 2d 3e b9 04 10 3e
       -0.2732771 0.06953971 0.16953424 0.14064302
000040 ed 38 50 be 62 6d 22 3d b2 98 23 3d c7 3d e8 3e
       -0.20334215 0.039655097 0.039940543 0.45359632
000050 dd b9 ef bd ee d5 e9 be ff e8 8b 3e a5 c1 87 3e
       -0.117053725 -0.45671028 0.273262 0.26514927
000060 c7 63 70 3d bf 5c 2b be 4b 03 cd 3e fe fc 09 bf
       0.058688905 -0.16734599 0.40041575 -0.5390166
000070 93 b6 dc 3e 7b 94 60 3d ca 7a 8e bd 48 1b b4 be
       0.43108043 0.054829102 -0.06957014 -0.35177064
000080 94 7e 75 be e4 79 a6 be af fe 02 3f dc 96 18 be
       -0.23974067 -0.3251487 0.51169866 -0.14901298
000090 b3 31 41 3f e6 e5 d7 3e 21 70 94 be 72 b8 1c bf
       0.7546646 0.42167586 -0.28991798 -0.6121894
0000a0 e1 40 4b be 97 36 0d 3f d9 9f 94 be a2 32 c6 be
       -0.19848968 0.5516142 -0.29028204 -0.38710505
0000b0 d9 a5 1d 3d bd 86 1c 3e cd cd f0 3e 30 cd a3 be
       0.038488243 0.15285774 0.47032014 -0.31992483
0000c0 ba d5 93 be e0 fc 31 3f 94 9e 03 3f ec 55 1f bf
       -0.28873998 0.6952648 0.51413846 -0.6224048
0000d0 59 13 d6 be d6 62 65 bd 3f 36 ca bb a3 85 c3 be
       -0.41811636 -0.05600246 -0.0061710174 -0.38187894
0000e0 95 c7 f5 3e e4 95 b4 be 82 92 ac 3e 88 87 33 3e
       0.48003832 -0.35270607 0.33705527 0.1753217
0000f0 fe 4f 0c bf 60 f1 5f be 1b 1f ae be 96 d6 9f 3e
       -0.5480956 -0.21869421 -0.34008107 0.31218404
000100 f3 a4 0d 3d 5e 7a 7a 3e b9 99 14 3f bd 05 9d be
       0.034581136 0.24460742 0.5804706 -0.3066844
000110 f5 2d b0 be 00 6f b4 3c 8b 8c 0c 3e b3 b0 db bc
       -0.34410062 0.022025585 0.13725488 -0.026817655
000120 c2 4e ae be 2a 2d 58 3d ed 1c ba bd 68 93 7a 3e
       -0.34044462 0.052777447 -0.090875484 0.24470294
000130 6b 73 8a bd be d3 c0 be cb dd 09 3e fa 88 87 3d
       -0.067602955 -0.37661546 0.13463514 0.06617923
000140 67 d2 54 be 8b 2c ce be 07 81 8c 3d 2a 96 3a 3e
       -0.20783387 -0.4026836 0.068605475 0.18221346
000150 1e bc eb be 6b 42 ba 3e 81 e7 0a be 37 9a df 3d
       -0.4604196 0.36378798 -0.13564874 0.10918086
000160 34 99 4e 3d 4b 11 98 be 6a fa d1 be ea 4e 9e bd
       0.050439075 -0.29700693 -0.41011363 -0.077298954
000170 2f 58 08 3e ed f0 c7 bd 66 17 ca 3d 8b 4a 21 3f
       0.1331489 -0.0976275 0.09867744 0.6300437
000180 1e ed c0 be 45 a3 3b be e8 a2 3a be 91 ab ab 3e
       -0.37680906 -0.18324001 -0.18226206 0.33529332
000190 0c 0d 71 be 03 d1 ce be 2e d3 bd 3c 74 41 0b 3d
       -0.23540133 -0.40393838 0.023171987 0.033997968
0001a0 c1 45 9f 3d 2e 4b f7 be c6 33 cf be 67 5c c1 3e
       0.077769764 -0.48299545 -0.40469187 0.3776581
0001b0 4c b6 a2 3d 77 c4 fe be 95 b0 e4 bd ed 84 67 bd
       0.079449266 -0.49759266 -0.11166493 -0.056523252
0001c0 2b 5a 5b bd 42 82 aa 3c 5e 0d 5c 3e 10 0d 85 be
       -0.053552788 0.020814065 0.21489474 -0.25986528
0001d0 ec dc 35 3e 2a 7a c4 be 65 90 9e 3d e4 0a 93 3e
       0.17760056 -0.38374454 0.07742385 0.28719246
0001e0 6a 12 23 3f d0 27 97 be 20 96 4a 3f 3b be c3 be
       0.6369997 -0.29522562 0.7913532 -0.38231072
0001f0 15 37 18 3f 40 80 58 be 1f 14 3b 3f f5 0d 24 be
       0.5945905 -0.21142673 0.7307758 -0.16020949
000200 b3 c8 2f 3e ea 94 0e 3f a3 7c 5e 3f fa 4f 14 bd
       0.17166404 0.55695975 0.8690893 -0.036209084
000210 12 21 89 be ed 29 1f 3f d3 1b 48 3f f1 f1 64 bf
       -0.26783043 0.6217335 0.78167456 -0.89431673
000220 a6 27 d7 3e d0 12 60 3e 29 7c 24 3f 8b 08 66 bf
       0.42022437 0.21882176 0.64251953 -0.89856786
000230 95 41 b9 3d 0a 50 4d bd e6 27 d3 3d 1b a4 37 3e
       0.09045712 -0.05012516 0.103103444 0.17933695
000240 22 2a 42 3e 4f 32 99 be e7 54 df bc 87 35 a4 be
       0.18961385 -0.29921195 -0.027262164 -0.32072088
000250 70 c5 e2 be 28 a5 ba be e7 8f ea 3e 49 39 05 bf
       -0.44291258 -0.3645413 0.45812914 -0.52040535
000260 7b f1 57 3e 57 e6 27 3f 56 34 08 be 53 66 16 bf
       0.21088211 0.65585846 -0.13301215 -0.58749884
000270 df cd 52 3e 11 0e ac 3e fb 95 91 be 65 52 16 bf
       0.20586346 0.33604482 -0.2843474 -0.58719474
000280 18 e1 1c bb 83 59 eb bd a9 ba c2 3d 17 e9 d9 be
       -0.0023937877 -0.114916824 0.09508259 -0.42560646
000290 0c 39 a8 be 21 46 ad 3e 15 50 db 3e ab 7f c2 be
       -0.32856023 0.33842567 0.42834535 -0.37988028
0002a0 64 01 f6 be 7b 47 5a bd 76 47 7c 3e 21 81 81 be
       -0.48047936 -0.053290825 0.24636635 -0.2529383
0002b0 cd b7 dc 3e 5d de 88 be 49 78 60 3e d9 71 27 bd
       0.4310898 -0.2673215 0.21920885 -0.040880058
0002c0 9e b1 13 be d7 20 42 be f7 42 e0 bd 34 49 af 3e
       -0.14423224 -0.1895784 -0.109502725 0.34235537
0002d0 34 4d 1f 3e ac e7 95 bd 7e 96 a4 3e 0f b4 e8 3d
       0.15556794 -0.073195785 0.32146066 0.113624685
0002e0 a3 bc 29 3e 77 26 d1 bc 51 27 24 3d a1 4b bb 3e
       0.16575865 -0.025531037 0.040076558 0.36581138
0002f0 0e 11 4e 3e 2a 71 56 3e d0 e4 a5 3d 2a 2a 85 3c
       0.20123693 0.20941606 0.08100283 0.016255457
000300 2f dc ad 3e bd 8a 96 3e 95 c8 dd 3b 03 87 c5 bc
       0.3395705 0.29402724 0.006768296 -0.02411223
000310 41 bd 6b 3e 69 24 8c bd d4 bf 52 3e ac 24 54 3e
       0.23021413 -0.06842882 0.20580989 0.20717114
000320 23 25 47 3e 0e 8b 15 3d 78 00 88 3e 5b a3 67 be
       0.1944776 0.036509566 0.26562858 -0.22620909
000330 6c f6 01 be e6 07 27 be ee 9b 02 bf 98 4e 72 be
       -0.12691659 -0.16311607 -0.5101918 -0.23662794
000340 16 c7 35 3e 74 43 ab 3c 38 68 0d be de 00 93 3e
       0.17751727 0.020906188 -0.13809288 0.287116
000350 e5 50 df be 3a 20 c6 bb 16 53 1b be e4 74 ec bc
       -0.43616405 -0.006046322 -0.15168414 -0.028864332
000360 5a e0 08 be e5 74 88 be 64 ec 12 3e cd 11 a8 bd
       -0.13366833 -0.26651683 0.14347988 -0.0820652
000370 40 ad 3c be d4 69 20 bd be 09 2e bf 09 26 6b 3d
       -0.18425465 -0.039163426 -0.67983615 0.05740932
000380 32 75 3d 3e 3c 6e 75 be 85 e0 b5 be b0 69 ba 3d
       0.18501738 -0.23967832 -0.35522857 0.091021895
000390 6a 03 52 be d2 5c 32 be db 75 7a 3e cf e0 cf be
       -0.20509115 -0.1741822 0.24459021 -0.40601203
0003a0 fb 33 88 be 82 77 b7 3b 12 11 32 be 82 19 b8 bd
       -0.26602158 0.0055989632 -0.17389324 -0.0898924
0003b0 c1 f3 05 bf 27 90 38 3e 46 15 de be 3c 3c 98 3e
       -0.52325064 0.1802374 -0.43375605 0.29733455
0003c0 55 35 d3 3e 04 56 9a be 6d 20 ba be 7c 9e 96 3d
       0.41251627 -0.3014375 -0.36352864 0.07354447
0003d0 8c ef 49 3e ba 97 6b be ca 92 ca be 5d 5e cd bc
       0.19720286 -0.23007098 -0.39565116 -0.02506941
0003e0 0e 0b 60 be ff b7 92 3e d5 e9 db be 96 87 7e be
       -0.21879217 0.28656003 -0.42951837 -0.2485641
0003f0 c6 dc a4 be 37 e0 ca 3e 9f d5 84 be 15 c9 f1 be
       -0.32199687 0.39624187 -0.2594423 -0.47223726

encoder.convs.0.convs.<user___eats___food>.lin_dst.weight f4 [78, 17]
000000 78 9f 28 be 91 d3 19 3e 11 0a 45 be 83 3a 39 be
       -0.16467083 0.15022112 -0.19242121 -0.18088727
000010 3f 6e cb 3c 44 62 1f be 8b 2f 85 3d 41 99 62 3e
       0.024832843 -0.15564829 0.06503209 0.22128774
000020 18 91 54 be 27 b4 a7 be 23 c1 63 bd 5f a6 d7 bc
       -0.20758474 -0.32754633 -0.05560411 -0.02632445
000030 ce ad 3f 3e 05 4b 87 be 6a d7 ab bd 58 57 4a be
       0.18718645 -0.26424423 -0.08390696 -0.19759881
000040 eb 75 2f be 84 c6 0d 3d e8 1d 06 3e 04 f0 03 3e
       -0.17134826 0.034613147 0.13097346 0.12884527
000050 98 03 30 be 2a 05 81 be 2a 8c 4c 3e b1 24 4e be
       -0.17188871 -0.25199252 0.19975343 -0.20131184
000060 df 99 83 bc b5 f8 ce 3e f1 aa 25 3e 46 e9 0b be
       -0.016064582 0.40424123 0.1617849 -0.13663206
000070 81 39 70 3e 9e 20 56 3e 0f 0a 94 3d 53 84 75 3e
       0.23459436 0.2091088 0.07228481 0.23976259
000080 6e 9e 10 3e 7d 45 b2 3c 62 6e e1 bd 68 00 b1 bd
       0.14122936 0.02176165 -0.11007382 -0.086426556
000090 39 a1 f7 bd 94 79 d2 3c db 23 14 3d 58 45 14 be
       -0.12091298 0.025692739 0.036167007 -0.14479578
0000a0 2a 8e 13 be 89 2c da bc 7b e2 81 3e 8b 69 3e 3e
       -0.144097 -0.026632564 0.25368103 0.18594949
0000b0 71 aa 94 bd de 28 26 3e 50 58 30 be f1 2c a8 3e
       -0.072590716 0.16226527 -0.17221189 0.32846788
0000c0 e7 8d 44 bc 44 35 a9 3d d3 66 a6 3e f7 dc 03 3d
       -0.011996723 0.08262113 0.32500324 0.03219315
0000d0 74 84 17 3e 12 b8 b1 bd bc 5c db 3c cc 7b 05 bd
       0.1479662 -0.08677687 0.026777618 -0.032588765
0000e0 e2 31 25 3e d9 ea 1d be 2c e1 82 3d 95 97 16 bd
       0.1613231 -0.15421619 0.063906044 -0.036765654
0000f0 61 88 82 3d 55 12 af bc 48 e3 17 be 47 2b 4d bd
       0.063736685 -0.021371046 -0.14832795 -0.0500901
000100 53 2b 75 be 5e e7 88 be e1 e7 7d be 3a 4d 8c be
       -0.23942308 -0.2673902 -0.24795486 -0.2740267
000110 ac ec 63 3e f3 80 96 3e 15 c0 04 be 7f 46 88 3e
       0.22258252 0.29395255 -0.12963898 0.26616284
000120 09 62 4f 3e 07 f4 3b bd 59 29 90 be 19 23 4d be
       0.20252241 -0.04588702 -0.28156546 -0.2003292
000130 d8 e5 22 3e 16 08 6b 3e 71 7e 0c 3e 67 2a 3e bd
       0.15907991 0.22952303 0.13720109 -0.046427157
000140 23 a8 26 3c c5 07 13 3e 2a d7 04 3d 38 23 13 bd
       0.010171923 0.14358433 0.03243176 -0.03592226
000150 d3 50 2a 3e 36 fd 99 3e d2 ec ad bd 28 e6 f9 3c
       0.16632394 0.30075997 -0.084924355 0.030505255
000160 e1 18 54 3e f3 af ef bc 3a b3 5a 3d 18 a4 5a be
       0.20712616 -0.029258704 0.05339358 -0.2135166
000170 66 35 0f 3e 7a d8 74 3e a2 ff bd ba 66 fc 9e be
       0.13985214 0.23910704 -0.001449574 -0.3105194
000180 d7 17 99 bd 11 c4 92 3e 71 f3 87 3d da ec a7 3e
       -0.0747525 0.28665212 0.0663823 0.3279789
000190 dc c6 8a 3e 05 78 7d 3e 8b bd 69 bc c0 d5 2f bd
       0.27104843 0.24752815 -0.014266382 -0.042928457
0001a0 67 57 ed 3d f9 42 7e bd d8 44 69 3e 9f 2d 25 bd
       0.11588936 -0.06207559 0.22780168 -0.04032671
0001b0 57 8a a7 bd 77 ca 2c be 1f 03 21 be 8f d9 83 3d
       -0.08180683 -0.16874109 -0.15723847 0.064379804
0001c0 09 1d 1f be f7 72 7a bd 3a ce e2 3c e6 07 b1 ba
       -0.1553842 -0.061144795 0.027686227 -0.0013506382
0001d0 33 33 77 be 23 1c 17 bd 9a 73 65 be c8 e1 5d bd
       -0.24140625 -0.036892068 -0.2240738 -0.0541704
0001e0 65 2f 07 3e 21 9c 80 be e5 36 b3 3c 81 c3 30 3e
       0.13201673 -0.25119117 0.021876762 0.17262079
0001f0 96 5a b1 bd 5d ba 8a 3d f5 d5 40 3e 66 9f 9a 3c
       -0.08659856 0.06773827 0.18831618 0.018874835
000200 00 1e ba 3e 53 ca 88 be a3 02 e4 bd 58 80 3a 3e
       0.36351013 -0.2671686 -0.111333154 0.18213022
000210 04 81 a6 3e f2 0c 20 3d 1d 9d f0 3c 00 a5 9e bd
       0.32520306 0.039074846 0.029371792 -0.07746315
000220 63 70 98 be 6f e1 ae be 62 f0 86 3e f6 d7 80 be
       -0.29773244 -0.34156367 0.26355273 -0.25164765
000230 cd 26 9f 3d 93 89 26 3e 61 9a 93 3e 60 c7 15 be
       0.077710725 0.16263418 0.2882872 -0.14626837
000240 78 0b 45 be b8 9a 91 be c4 73 b6 bd 5b 8d b2 3b
       -0.19242656 -0.28438354 -0.08908799 0.00544898
000250 4f 5e 55 3c b7 b1 fc bd 33 d9 a7 3d 0f b6 0c 3d
       0.013022973 -0.12338584 0.08195724 0.034353312
000260 f1 31 72 3d fd b2 41 3e 99 a8 8d 3e 38 22 42 be
       0.05912966 0.18915935 0.27667692 -0.18958366
000270 1d 57 6e 3e c5 79 4a be 84 0c 74 bb d9 92 18 3e
       0.23275419 -0.19773014 -0.0037238905 0.14899768
000280 11 73 85 3d bf 58 bb 3e cb 47 13 3e 16 e0 c1 bb
       0.06516088 0.36591145 0.14382856 -0.0059166057
000290 55 4a 11 bd a6 46 96 bd ff bd 10 3d d0 99 ff bc
       -0.03547128 -0.07337694 0.035337444 -0.031201273
0002a0 9e fe 61 3e de c3 1e 3d 83 77 25 be 19 41 8e 3e
       0.22069785 0.038761012 -0.16158871 0.2778404
0002b0 56 74 58 be 54 1e 8c 3e 94 7d 86 be 4f c1 d8 3d
       -0.21138129 0.2736689 -0.26267684 0.10583746
0002c0 6b 06 7f be 6b 57 8e be b9 b6 87 3e a4 7d 9d 3e
       -0.24904792 -0.2780107 0.26506594 0.3075992
0002d0 a1 d5 9f be e9 1a 43 3e 99 3a 47 be 40 fa 50 bd
       -0.31217673 0.19053234 -0.19455947 -0.051019907
0002e0 06 db 54 3e 4d 11 e3 3d 7b 69 2b 3e ab 05 0d be
       0.20786676 0.11087284 0.16739456 -0.13771693
0002f0 0e 48 5f 3d 00 3d 42 3e d4 99 06 3e 03 1f 2b be
       0.054512076 0.18968582 0.13144618 -0.16711049
000300 80 69 54 be f3 3d 52 be 96 2e 0c 3e 2f 96 4c 3e
       -0.2074337 -0.20531444 0.13689646 0.19979165
000310 29 bd 0b 3e 21 1a 2b bd 5e f1 3e be a1 d2 14 be
       0.13646378 -0.041772965 -0.18646762 -0.14533474
000320 31 1d 66 3e 16 2a 39 bc 9e fa 44 3e 59 76 4d 3e
       0.22472073 -0.011301538 0.19236228 0.20064677
000330 59 e8 ce bd 78 95 84 be c5 b9 5e be 3d 89 32 be
       -0.101029105 -0.25895286 -0.21750553 -0.17435165
000340 20 35 23 bd 76 5e 71 bd 9c 40 7b bd 3d 39 17 3e
       -0.039845586 -0.058927976 -0.061340913 0.14767928
000350 cb 5d 59 be b3 a2 31 bd 53 76 47 be 32 80 c7 bd
       -0.21227185 -0.043368053 -0.19478731 -0.09741248
000360 ba 9d 03 3e d1 f7 96 be dd 63 17 be b4 37 45 be
       0.12853137 -0.29485944 -0.14784189 -0.1925953
000370 3d 87 d5 bd 1c be f4 bd d6 f0 4a 3d 6f 59 e1 3d
       -0.10426185 -0.11950323 0.049546085 0.11003386
000380 c3 aa 0c 3d d9 22 9b bd 48 2a ba 3d 54 df 37 3d
       0.03434254 -0.07575006 0.09090096 0.044890717
000390 61 db 7c 3e 47 06 69 be 4b 09 87 bd b8 eb 98 3e
       0.24693061 -0.22756301 -0.06593569 0.2986734
0003a0 c8 91 d6 bc 2e 3a 96 bd 5e ed 62 be a3 75 af bd
       -0.02619256 -0.07335316 -0.22160861 -0.08567359
0003b0 d5 76 5d bc 3b c0 8e be cf b3 70 be 3e 41 a7 be
       -0.013517101 -0.27881035 -0.23506092 -0.32666963
0003c0 8e 1f a0 3d 5c 13 28 3e 41 47 03 3e 29 84 ad 3d
       0.078185186 0.16413635 0.1282015 0.08472473
0003d0 45 5f 70 3e 27 9a a9 bd 0a 3b 68 3d 00 49 45 3d
       0.23473842 -0.08281355 0.05669693 0.04816532
0003e0 1f c7 ec 3d a9 3e 9e bd 10 90 c8 3d 5a 60 ec 3d
       0.11561417 -0.07726795 0.09793103 0.11541815
0003f0 2c 41 f0 ba 76 a7 fb bd 7f 7e 98 bc 6f 14 88 3d
       -0.001832997 -0.122878 -0.018615006 0.066445224

encoder.convs.0.convs.<food___contains___ingredient>.att_src f4 [1, 1, 78]
000000 f7 4e 1d be 10 b3 65 bf fe fe 2a bf 06 50 92 bd
       -0.15362154 -0.8972635 -0.6679534 -0.071441695
000010 5a ba ce 3d b7 7a 0b bf 8f 7b 55 bf cb 00 a8 be
       0.100941375 -0.54484123 -0.8339166 -0.32813105
000020 d8 5b 1f 3f 81 42 94 3e 48 fd 59 3f 40 99 4d 3c
       0.6224952 0.28956988 0.851521 0.012548745
000030 79 42 08 bf dd da 48 3e ca 1e fd be 61 42 4f 3e
       -0.5322643 0.1961474 -0.49437553 0.20240165
000040 91 bd 38 be c6 0c 6c 3e 8c ab a6 bd c2 e0 25 3f
       -0.18041064 0.23051748 -0.08138189 0.6479608
000050 2a 5d 0b 3f 14 56 9b be e5 ef 4b be 85 eb a0 3e
       0.5443903 -0.3033911 -0.19915731 0.31429687
000060 49 e0 f5 3e 30 ea 6a 3e c8 72 67 be b7 5b 5a be
       0.48022678 0.22940898 -0.2260238 -0.21324049
000070 c1 68 d0 be 24 2f b1 3e fc 29 50 3f 7f 85 6e 3f
       -0.4070492 0.34606278 0.81314063 0.9317245
000080 4f 27 b9 3e 77 e2 f5 3e 83 18 e4 3e 36 aa ad 3e
       0.36162803 0.4802434 0.4454995 0.33918923
000090 91 9e 18 3f 96 6d 13 3f 29 67 12 3e bb 05 1b bf
       0.59616953 0.5758909 0.14297165 -0.6055562
0000a0 5e d7 b8 3e a5 65 64 be cd c9 e8 3e cb d8 11 bd
       0.36101812 -0.223044 0.45466462 -0.03560714
0000b0 b2 3d 58 be 89 53 56 3e c6 8c 5b 3e 65 3b bf be
       -0.21117285 0.20930304 0.2144042 -0.37350002
0000c0 c9 d6 1d 3f 4c 5a 11 bf 6f c9 03 be ab 95 14 bf
       0.6165586 -0.5677841 -0.1286981 -0.58040875
0000d0 40 88 18 bf 1d bf c3 bd 0f eb 06 3f 6d 5b 34 3f
       -0.595829 -0.09557936 0.5270242 0.70452005
0000e0 7f d5 74 be 60 be 23 bf 19 c2 24 bf 5b f8 15 bf
       -0.23909567 -0.63962364 -0.6435867 -0.58582085
0000f0 d9 94 03 3d d7 3c 29 be fe 7d 7b bf e6 5a 17 bf
       0.032124374 -0.16527115 -0.98239124 -0.59123075
000100 05 fb bc 3e 18 5a 5b 3f 57 ba 26 3f 5a 96 76 3f
       0.36910263 0.8568435 0.6512808 0.9632317
000110 c1 29 02 bf dc e1 10 3f 36 12 a6 3e eb 37 9b 3e
       -0.5084496 0.56594634 0.3243577 0.303161
000120 4b b8 ef 3e 79 ba 5c 3f 7f a8 24 be 22 1b ca be
       0.46820292 0.86222035 -0.16079901 -0.39473826
000130 17 25 0a 3e ae 59 e7 3e
       0.13490711 0.45185608

encoder.convs.0.convs.<food___contains___ingredient>.att_dst f4 [1, 1, 78]
000000 dd d2 8a 3e 71 52 82 3d f4 35 1c 3e 4c bb 5a bc
       0.27114 0.06363381 0.15254956 -0.013350319
000010 6d b4 57 3e 83 9a 0b 3d 75 bf 19 3e 03 fa 9e 3e
       0.2106492 0.0340829 0.15014441 0.3105012
000020 1a bd 16 3c 01 e6 0f be 0b a6 ba 3d 8b 65 70 be
       0.009200359 -0.14052583 0.091137014 -0.23476236
000030 7b 64 18 be 53 71 9b 3e 9c 21 55 3d 82 b8 90 be
       -0.1488208 0.30359897 0.052034006 -0.28265768
000040 64 e8 bc 3e ce ba 0d bd 0d 51 55 3e a8 ba 82 be
       0.3689605 -0.03460198 0.208317 -0.25533032
000050 79 60 11 be c5 9c 74 bc 43 71 94 3d 92 9c b8 be
       -0.14196958 -0.014929955 0.072481655 -0.36056954
000060 ec 97 59 3c b5 03 33 be 3e 15 b3 3e f0 af 8b be
       0.01328085 -0.17481883 0.34977144 -0.27282667
000070 4c 96 93 be 64 b3 a3 bd 19 43 9b 3e ce f6 be 3e
       -0.28825605 -0.079932004 0.3032463 0.37297672
000080 9b 9d 15 3e ed 80 0a 3e 7b 11 bc 3e 41 69 64 bd
       0.14610903 0.13525744 0.36732087 -0.05576444
000090 ec 06 6c be a9 37 95 bd 61 f2 70 be 7e 37 15 3e
       -0.23049515 -0.07286007 -0.2352996 0.1457195
0000a0 64 a8 4b 3e c4 07 7b be 43 7d b2 3e 4c cd aa 3e
       0.19888455 -0.24514681 0.34861192 0.33359754
0000b0 10 0b 0c 3e 72 74 b5 be 95 d4 c0 be 93 ad 0c bd
       0.13676095 -0.35440403 -0.37662187 -0.03434522
0000c0 bb 9a 9f be af be 64 bd 8d e6 19 3e 67 38 c6 be
       -0.31172737 -0.055845913 0.15029354 -0.38714907
0000d0 9a f3 a2 be 39 59 53 3c d8 fd a0 be 76 6d 11 3e
       -0.31826478 0.01289969 -0.31443667 0.14201912
0000e0 bf 75 12 3e 5e 0a 1c be 91 28 e7 bd 2b f5 db 3d
       0.14302729 -0.1523833 -0.11287034 0.107401215
0000f0 6b 9c 08 3e ce e6 65 be 68 87 94 be 4b 22 cc bd
       0.13340919 -0.22451326 -0.29009557 -0.09967478
000100 af 7b 0c be 0d ee 97 be 34 d4 95 be c6 22 78 3e
       -0.13719057 -0.29673806 -0.2926346 0.24232015
000110 5e d4 25 be 21 95 c2 bd ce d0 32 be fa 31 52 3d
       -0.16194293 -0.095011 -0.17462465 0.051317193
000120 ec 11 4d 3d 42 0e 96 be 4a 9e 46 bd 12 dc 65 3e
       0.05006592 -0.29307753 -0.0484908 0.22447231
000130 5c a8 01 be 3b ae 91 3e
       -0.1266188 0.2845324
