etc/old3/models/best_model_AUC_0.9211.pt (torch, 465825 bytes, 144 tensors)

encoder.convs.0.convs.<user___healthness___food>.att_src f4 [1, 1, 54]
000000 ac ba 13 3d e3 49 14 3d 5f ce 9d bd 4b 5e b5 3d
       0.036066696 0.036203276 -0.07705378 0.088558756
000010 bc a1 eb 3d 1e 85 da be e7 65 02 3e 02 2f df 3c
       0.11505458 -0.42679685 0.12734185 0.027244095
000020 65 29 3e 3e 69 e5 9d bd 57 53 cf 3d 66 bb ac be
       0.18570478 -0.07709772 0.10123318 -0.33736724
000030 e9 da 1a 3e 42 5f 23 be b5 22 83 3d 60 c3 af 3e
       0.1512257 -0.15954307 0.06403104 0.34328747
000040 3b 04 2b bd 32 ca 22 3e 39 c4 16 bd 61 ed ec 3c
       -0.04175208 0.15897444 -0.036808226 0.028921785
000050 79 05 cc be c5 f6 4c 3d 56 56 a2 be af 35 d9 be
       -0.39847925 0.050040025 -0.31706494 -0.4242377
000060 01 a8 28 be 42 7e f4 be c5 de 37 3e 80 44 c8 3d
       -0.16470338 -0.47752577 0.17956074 0.0977869
000070 f7 81 97 3d 37 05 dd 3e 93 da ae be 5f 8a 81 3e
       0.07397836 0.4316804 -0.34151134 0.2530088
000080 9f 5f ce be 7f ae 67 be c3 c5 e6 3d cb 5b d1 bd
       -0.40307328 -0.22625159 0.11268189 -0.10222586
000090 1a e1 db bd 3e ca d5 bd 06 a5 1b be 65 14 bb 3d
       -0.10736294 -0.10438965 -0.1519967 0.09134749
0000a0 09 17 e4 3e dd c7 5b bd ca 1f 43 be 88 f1 c6 3e
       0.44548824 -0.0536574 -0.19055095 0.3885615
0000b0 f3 28 ba 3e 70 30 cb bd a6 b1 49 3d d2 4d f7 bd
       0.36359367 -0.09921348 0.049241684 -0.1207539
0000c0 cb a1 1d be 2f e5 2a be 00 ee 0d bd 54 af 81 3e
       -0.1539375 -0.16688989 -0.034650803 0.25329077
0000d0 00 b5 c8 3e 51 64 a7 bd
       0.39200592 -0.08173431

encoder.convs.0.convs.<user___healthness___food>.att_dst f4 [1, 1, 54]
000000 1b 48 45 be 17 9b 41 bd 79 cb 2f 3e 61 4c 44 be
       -0.19265787 -0.047267046 0.17167462 -0.19169761
000010 5f c5 52 3d ba ec b8 3e a8 28 c7 be c2 81 4f be
       0.05145776 0.36118108 -0.38898206 -0.20264342
000020 07 c8 3e be 8b 2e 91 3e f2 35 71 be 01 65 79 3e
       -0.18630992 0.28355822 -0.23555735 0.24354936
000030 c2 29 35 bd 28 8f 76 3e 1b 12 41 be 5e 32 32 3e
       -0.044229276 0.24078047 -0.18854563 0.17402026
000040 ed 40 36 bd 88 48 72 be 6d 30 3a 3e 1d 76 be be
       -0.04449551 -0.23660481 0.18182535 -0.37199488
000050 1a 44 8c 3c 5a 43 46 3d 67 e2 b7 3d ab 4d d0 3e
       0.017122317 0.048404075 0.0897873 0.40684256
000060 29 08 97 be 6f e2 2b be 81 07 94 be 39 74 55 3e
       -0.29498413 -0.16785596 -0.28911975 0.20845117
000070 3f 07 71 3e 60 46 e1 be ae d9 8e bc ea 9d 09 be
       0.2353792 -0.43999004 -0.017437782 -0.13439146
000080 87 cd 9f be 11 50 8c bc fb 09 f1 bd 4d 00 3e be
       -0.31211492 -0.017128022 -0.11769482 -0.18554802
000090 7e 84 6c be 8c 26 a9 be b5 95 b1 bd 04 ed 1d be
       -0.23097417 -0.3303722 -0.086711325 -0.15422446
0000a0 52 58 c6 be 35 fa 19 be 2d 0d 19 3e 2c 41 bd 3e
       -0.38739258 -0.15036853 0.14946432 0.36963785
0000b0 4a 89 61 be e8 8d 16 bd 81 9f 8f 3d 45 a2 7f be
       -0.22025028 -0.036756426 0.07012845 -0.24964245
0000c0 3d 1b 2f 3d 98 5d af be 06 8d 04 be 58 47 04 3e
       0.042750586 -0.34251094 -0.12944421 0.1291784
0000d0 85 fd ad be a1 51 c5 3e
       -0.33982483 0.3853884

encoder.convs.0.convs.<user___healthness___food>.att_edge f4 [1, 1, 54]
000000 84 69 5f 3e 12 92 15 3e 38 c6 30 bd 1b 8f 03 be
       0.21817595 0.14606503 -0.043157786 -0.12847559
000010 ca af 39 be fa 37 75 be 58 d8 a4 be f0 0f 42 bd
       -0.18133464 -0.23947135 -0.32196307 -0.04737848
000020 44 7c 86 3d 77 b1 a3 be d2 76 a6 3e 18 a9 71 be
       0.065666705 -0.31971332 0.32512528 -0.2359966
000030 70 98 d5 3c 76 42 e5 bd 5a e7 99 3e 1c 3b 13 be
       0.026073664 -0.11194317 0.3005932 -0.14378017
000040 48 b3 b0 3d 08 99 d7 3d e2 17 1b 3e cb 1b 6d be
       0.08627945 0.10527235 0.1514583 -0.23155133
000050 5d 4f 3b be 00 34 71 3b 70 cc a6 be 8c fc 03 be
       -0.18291993 0.0036804676 -0.32577848 -0.12889308
000060 b0 e4 8d be ce 7f 15 3e 98 2f 0c 3d 02 07 9e be
       -0.27713537 0.14599535 0.034225076 -0.30864722
000070 22 61 a5 3e 46 a6 0a 3e 15 d7 41 be b0 35 08 bd
       0.3230067 0.13539991 -0.18929704 -0.033254325
000080 f0 5c 65 3e f9 00 49 be 30 2c a9 3d d8 f9 db 3d
       0.22398734 -0.19629277 0.08260381 0.10741013
000090 36 6e 59 be 50 be 31 be 10 e9 6f bd d9 48 84 be
       -0.21233448 -0.17357755 -0.058571875 -0.25836828
0000a0 36 87 91 3e a0 25 c1 3d 04 52 d7 bd 00 7c 7e bb
       0.2842347 0.094310045 -0.1051369 -0.0038831234
0000b0 00 91 6c 3b ec 06 e0 3d 50 3d 70 3e f6 1c 8e be
       0.003609717 0.1093882 0.23460889 -0.2775647
0000c0 9a 9d f0 bd 9c e5 f3 3d e1 e6 3c be 40 4c 85 bc
       -0.1174881 0.11909029 -0.18447448 -0.01627171
0000d0 b2 e6 c5 bd e0 ca 41 3e
       -0.09663142 0.18925047

encoder.convs.0.convs.<user___healthness___food>.bias f4 [54]
000000 14 96 52 37 47 a5 1f 36 1d 9c 78 36 f0 14 f4 36
       1.2551918e-05 2.378905e-06 3.704575e-06 7.274204e-06
000010 12 20 bc 36 ee 58 5d b5 49 fe 01 36 76 7b ba b4
       5.60657e-06 -8.2458325e-07 1.9370511e-06 -3.473503e-07
000020 d7 0f 27 33 41 52 3f b2 6d b7 05 37 80 50 86 35
       3.8897124e-08 -1.1136366e-08 7.970125e-06 1.0007207e-06
000030 30 5b 70 b4 01 57 65 35 b1 e6 94 35 5f e7 d2 b5
       -2.2384916e-07 8.5435755e-07 1.1093999e-06 -1.5713557e-06
000040 9a 7b 30 b5 54 63 30 b5 25 b5 2b b5 4c e8 c2 b4
       -6.5744973e-07 -6.570965e-07 -6.3966064e-07 -3.6304334e-07
000050 bc 1a 34 35 5d af d0 34 cf ae 23 37 dd 12 9e b5
       6.709413e-07 3.8870613e-07 9.756258e-06 -1.1777407e-06
000060 cc 0c 10 36 b1 c9 1b 35 32 2d 2c b6 ed 88 94 b4
       2.146512e-06 5.80355e-07 -2.5656304e-06 -2.7666775e-07
000070 75 ac 0e 35 50 57 89 b5 56 a8 1c b5 62 f1 c3 b5
       5.315008e-07 -1.0232707e-06 -5.835949e-07 -1.4598884e-06
000080 28 fb 14 34 ac 0f 2f 36 7f e4 91 b5 8e 6f 08 b6
       1.3874944e-07 2.6086154e-06 -1.0869843e-06 -2.0330513e-06
000090 a2 25 00 36 d7 75 34 b4 70 87 f2 b4 17 a8 47 36
       1.9095392e-06 -1.6806676e-07 -4.5174556e-07 2.9751152e-06
0000a0 69 9e 8d 35 85 8a 0b 36 90 63 ff b5 8c 54 3d b3
       1.0551422e-06 2.0793243e-06 -1.9027957e-06 -4.4081887e-08
0000b0 7f 6b 61 b4 96 15 43 34 3d 8a 1e b4 ad 81 e5 b5
       -2.0993865e-07 1.8168643e-07 -1.4765187e-07 -1.709957e-06
0000c0 3e 63 42 b1 3e 03 a2 b5 9c 79 22 b3 f6 13 c8 b5
       -2.8287128e-09 -1.2070884e-06 -3.7829167e-08 -1.4906971e-06
0000d0 e3 80 1e b6 b2 4a 98 34
       -2.3618857e-06 2.8366554e-07

encoder.convs.0.convs.<user___healthness___food>.lin_src.weight f4 [54, 29]
000000 43 f9 4d 3d f5 c5 62 be ba 1a 25 bd c7 19 59 be
       0.050286543 -0.22145827 -0.04030869 -0.2120124
000010 1c cb 2d bd f9 a5 11 be 98 49 e4 3d 64 fe ea bc
       -0.04243003 -0.1422347 0.111468494 -0.028685756
000020 62 4b 9f 3d 70 67 d6 bd 6a 1b 6a be ce d3 68 3e
       0.0777805 -0.10468948 -0.2286202 0.22737047
000030 9e a6 22 3e fb ca a9 bd e2 8a 19 be d2 f2 65 be
       0.15883872 -0.082906686 -0.14994386 -0.2245591
000040 79 8f a4 3d 58 42 12 be 34 64 a8 bd 5f 2a 80 3c
       0.08035178 -0.1428312 -0.08222237 0.015645204
000050 c4 e0 a5 be 00 38 8b 3e 46 00 26 3e 89 5f 01 bd
       -0.32398045 0.27191162 0.16211042 -0.03158525
000060 25 7b 98 bd ed 7d c0 bd f2 30 43 be 7a 09 15 3d
       -0.07445363 -0.093990184 -0.1906164 0.03638599
000070 a7 25 02 3e d3 fd 86 3a 8e c2 9f be d7 0e 04 be
       0.12709676 0.0010299034 -0.3120312 -0.12896286
000080 51 25 56 3d a3 59 84 be 47 99 38 bd b2 94 3a 3e
       0.05228168 -0.25849637 -0.04506805 0.18220785
000090 69 9d fc bd 6f c7 55 be ba 97 7c be a2 70 84 3e
       -0.12334711 -0.20876859 -0.24667254 0.25867182
0000a0 71 41 72 3d 70 1e 62 bd a8 3a ae 3d 76 58 c6 3d
       0.05914444 -0.05520481 0.085072815 0.09684841
0000b0 7d 73 67 3e 84 e9 55 3e 3c 6e 63 be 2b 7a 90 3e
       0.22602649 0.2088986 -0.2221002 0.28218207
0000c0 6c 73 bb be 86 b4 ea 3d 7b b0 77 be 12 dc 97 3e
       -0.36611497 0.11460213 -0.24188416 0.29660088
0000d0 d7 62 31 3d 64 34 6c 3d b1 2f 2b bd a5 a4 8b be
       0.04330715 0.05766715 -0.04179353 -0.2727405
0000e0 ae 7c 29 3d ec c8 d4 3c 19 1d b3 bd 00 27 35 3e
       0.04137867 0.025974713 -0.08745784 0.17690659
0000f0 d4 74 75 bc e8 3c 41 be 61 c3 c2 be ad cc bd 39
       -0.014981467 -0.1887089 -0.38039687 0.00036201385
000100 73 97 a2 bc 53 3c 2e be e6 34 36 bd cd 95 ec bd
       -0.019847607 -0.170152 -0.04448404 -0.1155201
000110 03 c0 ef 3d ab 79 9e bd 18 d5 ed 3d 30 45 b1 3d
       0.11706545 -0.0773805 0.1161291 0.086557746
000120 01 46 94 bd fe f1 79 be 1c ad 77 3e 83 52 1e 3d
       -0.07239915 -0.24408719 0.2418713 0.038652908
000130 d0 67 6a 3d ac 06 cb bd 27 ca 23 3e c9 27 48 be
       0.05722791 -0.09913382 0.15995084 -0.19546427
000140 d9 e0 5b 3e d3 45 1b be aa 21 4c 3d 52 b7 89 3d
       0.21472491 -0.15163355 0.049836792 0.06724419
000150 69 b0 ca 3e c7 6e 97 bd 5f 0b b8 bd dc 42 11 bd
       0.39587715 -0.07394176 -0.08986544 -0.035464153
000160 c4 e6 97 3d 98 10 ff bd 07 d5 f9 3d c4 6b d6 3d
       0.07417062 -0.12454337 0.12198835 0.104697734
000170 93 ed c3 39 98 2a bf 3d c0 a2 00 3d 6b 5f 94 be
       0.00037370305 0.09334296 0.03140521 -0.28979048
000180 ec b3 cc 3c 9f 5a 8e 3e 99 26 7c be cc 73 9a 3d
       0.024988137 0.27803513 -0.24624099 0.07541618
000190 a9 41 af be cc 0e b2 3e 2f 64 04 be 80 d0 4a 3d
       -0.34229782 0.34776914 -0.12928842 0.049515247
0001a0 46 ba 19 be b2 69 a3 bc 88 97 cb bd f0 2c a2 3e
       -0.15012464 -0.01994786 -0.09941012 0.3167491
0001b0 b1 2e 0a 3e 34 26 ae 3e 68 87 9f be 33 a3 98 be
       0.13494374 0.34013522 -0.31157994 -0.2981201
0001c0 e4 6e 71 3e 1c 8c a6 3d af 5e 26 3e 15 a9 8f 3e
       0.23577458 0.081321925 0.16247056 0.28058687
0001d0 c1 e2 ae 3b ed 36 71 3d 9a 4b 3d 3e a9 5c b2 3b
       0.0053370898 0.058890272 0.18485871 0.005443175
0001e0 90 2a 38 3d 14 48 68 bd de 0d a4 bd f6 70 d0 3e
       0.044962466 -0.056709364 -0.080104575 0.40711182
0001f0 7d bc b1 bd b8 3e ec bc 37 28 a5 bc 2c 6d d3 b8
       -0.086785294 -0.0288385 -0.020160777 -0.00010081599
000200 2c 0f b3 3e 59 6b c7 3c d4 18 8e bd d7 c7 0f be
       0.34972513 0.02434318 -0.06938329 -0.14041077
000210 ed f4 c1 3d c2 d2 a6 be 2f 7e de be 85 5d e3 bd
       0.09470544 -0.3258267 -0.43455645 -0.11101822
000220 08 6f 78 be 1f 99 84 3e e1 f2 93 be c0 47 c3 3e
       -0.24261105 0.25898072 -0.2889624 0.38140678
000230 f0 3a 4f 3d 6a 06 41 3e 49 42 28 be 79 d5 97 be
       0.050593317 0.18850103 -0.16431536 -0.29655054
000240 4b a1 40 bd 40 8c c4 be 0c 14 a0 3e 8a 47 97 3e
       -0.04702882 -0.38388252 0.31265295 0.29546767
000250 b4 4d 11 3e b4 50 53 bd 83 bb 7a bd 47 63 fd 3d
       0.14189798 -0.051590636 -0.06121398 0.12372451
000260 50 29 13 3e a1 7f 22 be 14 b9 3f bc ec 9b 9f 3d
       0.14371228 -0.15868999 -0.011701841 0.077934116
000270 d5 42 79 3e 2e b8 c0 bd 6b 90 cd 3e de 35 97 be
       0.243419 -0.094101295 0.40149245 -0.29533285
000280 27 30 5e 3d 64 39 03 be e2 1f 97 3d c0 20 84 3c
       0.05424514 -0.12814862 0.07379128 0.016128898
000290 46 2b 46 3e 5f 91 bb bd ec e8 10 3e ef cc 0a be
       0.19352445 -0.09158587 0.14151353 -0.13554738
0002a0 01 43 2c 3e d2 76 97 3e e5 85 c1 3d c8 90 9d 3e
       0.16822435 0.2958284 0.094493665 0.30774522
0002b0 6d 20 93 3e aa 90 70 be d5 e9 91 3d c4 79 e3 3d
       0.28735676 -0.23492685 0.07124678 0.11107209
0002c0 44 12 94 bd 3f a7 8a bd 4c f1 8b be fe 16 8d bd
       -0.072300464 -0.06770181 -0.27332532 -0.06889151
0002d0 31 f8 11 be 94 4b 39 3e 3b 97 06 3d c9 40 53 3e
       -0.14254834 0.18095237 0.03285907 0.20630182
0002e0 9d 35 3b be 6a 4c 42 bd d0 2a 57 3e f0 a4 91 be
       -0.1828217 -0.047436155 0.21012425 -0.2844615
0002f0 11 8e ee 3d 10 0d 71 3e c5 c9 b3 3e ad fb 7d be
       0.11648191 0.23540139 0.35114875 -0.24803038
000300 83 75 3d 3e 58 e2 52 3d 90 b3 c2 3d 17 3d b2 bc
       0.18501858 0.05148539 0.09506905 -0.021757646
000310 9d e3 95 3e f2 01 23 be 81 35 7d 3c 5c cf fa bd
       0.29275218 -0.15918711 0.015454651 -0.12246582
000320 3f 88 05 3e 70 c4 2a be 79 95 d8 3d 65 83 18 3c
       0.13040255 -0.16676497 0.10575385 0.009308671
000330 09 99 ea bd 5c 76 72 3e cd 1b c0 bc 9d f5 70 3d
       -0.114549704 0.23677963 -0.023450756 0.058827985
000340 11 f2 b2 bd 4c c6 9f bd 3f 06 23 be 4f ca 8e 3c
       -0.08737577 -0.07801494 -0.15920351 0.017430453
000350 6f 7a 6c bd 23 ff 19 3e da 5e 46 be 6a 88 1f 3e
       -0.05773395 0.15038733 -0.1937212 0.15579382
000360 ad 5f a2 3e 23 7a 1a 3e 95 3e 70 be 84 24 1a 3e
       0.3171362 0.15085654 -0.23461373 0.15052992
000370 23 d7 b3 bd b8 33 ad bb 24 bf d9 3e 63 f2 aa be
       -0.087812684 -0.0052857064 0.4252864 -0.3338805
000380 ca ed 77 3d fe 76 4c be 2e 98 a2 3d f8 fa 36 3d
       0.060529508 -0.19967267 0.07939182 0.044672936
000390 5f 64 b9 bc 0f 52 b8 bd 1f d4 aa 3d a9 53 34 3e
       -0.022630868 -0.090000264 0.0834124 0.17610039
0003a0 b8 ec d8 3e c0 21 03 3d 78 b7 d7 bd b2 52 3d be
       0.42368102 0.03201461 -0.10533041 -0.18488577
0003b0 22 47 1d be 19 89 c1 bd 10 fe 0b 3e 48 52 50 bd
       -0.15359166 -0.094499774 0.13671136 -0.05085972
0003c0 71 e8 5c be 20 86 3d 3e a2 6f 1e 3d 88 a5 79 3e
       -0.21573044 0.18508196 0.03868068 0.24379551
0003d0 92 2e 40 3e f0 b4 26 be 6f c4 c9 3a 72 ba 20 bd
       0.18767765 -0.1627996 0.0015393625 -0.039240308
0003e0 cc 1d 6b 3e 0b 12 60 be 26 f0 b1 3e 24 2e 10 3e
       0.22960585 -0.21881883 0.3475353 0.14080101
0003f0 99 81 af 3e eb b7 3c 3d b4 69 06 3e 0d 8a 8b be
       0.34278563 0.046073835 0.1312626 -0.27253762

encoder.convs.0.convs.<user___healthness___food>.lin_dst.weight f4 [54, 17]
000000 21 b4 2a 3e 31 58 a5 be f8 83 03 3e dc 16 b2 3d
       0.16670276 -0.32293847 0.12843311 0.08695766
000010 80 77 79 3e 05 39 24 3e 8c 71 bf 3e 32 68 2c 3e
       0.24361992 0.16037376 0.37391317 0.16836622
000020 ce 53 4c 3e 40 05 c4 3d 8a b6 0d 3e 1b cf e7 3d
       0.19953844 0.09571314 0.13839164 0.11318799
000030 4f 36 22 3e 0a 5b 83 bd 4c d9 e5 3d 7f 60 9b be
       0.1584103 -0.06413849 0.11223087 -0.30347058
000040 c7 69 3c 3c ee d1 99 be 15 21 39 3e ed 34 21 3e
       0.011499829 -0.30042976 0.18079026 0.15742846
000050 0f 9f 79 3d 78 3c 65 3e c9 56 26 bd f0 96 a6 3e
       0.060942706 0.22386348 -0.04061011 0.3253703
000060 0b 6a 09 3d e9 05 fb 3d a5 27 d1 bd 5d da 34 be
       0.033548396 0.12256987 -0.1021264 -0.17661424
000070 f6 a1 e5 bd d8 04 24 be 77 af b7 3c 2a 94 91 bd
       -0.11212532 -0.16017473 0.022422535 -0.07108338
000080 a9 9b 87 3d 31 c3 7b bb 38 21 13 3e 28 2e 1f be
       0.06621487 -0.0038415904 0.1436814 -0.15544951
000090 1d 33 9b 3d d1 a0 3e bd f1 73 6a 3d b0 90 14 be
       0.075781085 -0.046540085 0.057239477 -0.14508319
0000a0 76 e4 ac be 68 ec 96 3e 63 58 8a be 9c 68 0f be
       -0.33768052 0.2947724 -0.2702056 -0.14004749
0000b0 6f 00 31 3d 7a 2d 82 be 1d 54 ad 3d d4 5d a4 be
       0.043213304 -0.2542532 0.08463309 -0.32102835
0000c0 2c c0 c4 3e 61 41 33 3e ed d6 d5 bd 26 3d 4f be
       0.38427866 0.17505409 -0.104413845 -0.2023817
0000d0 33 c1 b8 be 15 56 8c bd c0 6f fc bd 44 95 16 3d
       -0.360849 -0.06852356 -0.12326002 0.036763445
0000e0 87 6b 9e 3e 09 0b 6f 3e fa f4 db 3d 2e c2 78 3e
       0.30941412 0.23344053 0.10740085 0.24292824
0000f0 56 b6 e7 bd fd a6 4b 3e 51 69 b2 3e a7 aa 81 3d
       -0.11314075 0.1988792 0.34845975 0.063313775
000100 7a b4 89 3d 5b be 29 3e 25 ff 96 3d 86 56 91 be
       0.06723876 0.16576521 0.07372884 -0.28386325
000110 dd bc 93 3c 49 a6 c4 3d 74 6a 6b 3e 51 65 17 be
       0.018034393 0.09602029 0.22989827 -0.14784743
000120 2a 45 ae 3e 84 7b 0b 3e d6 16 44 3d 09 6a 69 3d
       0.34037143 0.13621336 0.04787334 0.05698589
000130 54 f9 61 3e 95 96 f3 bc 50 cb 9a 3e 7f 29 2a 3e
       0.22067767 -0.029734889 0.3023324 0.16617392
000140 95 b5 79 bd ed 44 19 be fa 6d 1c 3e 4f 3d 03 3d
       -0.060964186 -0.149677 0.15276328 0.03204089
000150 99 5d 1f be 1b b6 9f 3e 31 b0 a0 3e ec fb 38 3e
       -0.15563048 0.31193623 0.31384423 0.1806485
000160 94 5c 16 be cd be 1d 3e db 16 91 be 7e 1f 88 be
       -0.14683753 0.15404816 -0.2833775 -0.26586527
000170 9d 27 e8 3d 55 e1 47 be 7f ef cb bd 8e ed 19 be
       0.11335681 -0.19519551 -0.0995779 -0.15032026
000180 50 64 73 bd b8 e9 25 be 89 9c a5 be 85 b9 0f 3d
       -0.059421837 -0.16202438 -0.3234599 0.035089035
000190 f8 5b cf 3e b6 02 65 3e da 30 c7 be 47 ce 69 be
       0.40499854 0.22364315 -0.38904458 -0.22832595
0001a0 1b 04 bf 3d 8c 50 11 3e 82 db c6 bb 2f 43 a3 bd
       0.09326955 0.14190882 -0.006068648 -0.07971799
0001b0 9c aa 86 3d 5c 52 76 be a8 43 87 3c 44 af ac 3d
       0.0657551 -0.24054855 0.016511753 0.08431867
0001c0 d3 96 da bd 8e cc 24 be 25 53 a9 3e 0f 85 a1 3e
       -0.10673299 -0.16093656 0.33071247 0.31546828
0001d0 34 a8 cf be db 2a 87 bd 89 04 45 be e2 eb 91 bd
       -0.40558016 -0.06599971 -0.19240011 -0.07125069
0001e0 25 af d3 bd 44 ee cc bd 10 6f b5 3e 05 e8 ed bd
       -0.103361405 -0.10006383 0.35436296 -0.1161652
0001f0 ac 58 8d 3d 90 39 f0 bd d0 7e 7a be d3 b4 58 3e
       0.069016784 -0.11729729 -0.24462438 0.21162729
000200 69 0f 51 3e 37 77 45 be f5 05 a2 3e 38 78 0c bd
       0.20416035 -0.19283758 0.3164517 -0.034294337
000210 29 1e 23 be 96 d6 29 be 55 76 c0 be 9a 57 a4 bd
       -0.15929474 -0.16585764 -0.3759028 -0.08024521
000220 ff d8 20 3e c4 6b 45 bd d7 23 54 3e f5 e4 05 3e
       0.15707777 -0.048198476 0.20716797 0.13075621
000230 a7 ea 88 3e ce de 3e be 41 a2 15 3d c9 a3 59 be
       0.26741526 -0.1863968 0.03653169 -0.21253885
000240 01 43 93 3b fc 70 97 3e c0 de c0 3d 29 35 fb bd
       0.0044940715 0.29578388 0.09417486 -0.12265999
000250 b2 bb f7 bd ee 5a f4 bd 5a 18 86 be 09 85 29 bd
       -0.12096347 -0.11931406 -0.26190454 -0.041386638
000260 30 66 77 be 78 be 4f 3d 03 ba b2 3e 3e e1 8d be
       -0.24160075 0.050718755 0.3490754 -0.2771091
000270 1e ca 2b be 62 ae 70 be 89 54 95 be 07 ca 57 be
       -0.1677632 -0.23504022 -0.29166058 -0.21073161
000280 1e 8e d0 bd 15 bd bd 3d cc b9 33 3e 8e dd 2b 3d
       -0.10183357 0.0926458 0.17551345 0.041959338
000290 20 ad c5 3d c6 b3 a7 be 69 31 68 be e0 fd f7 3d
       0.096521616 -0.32754344 -0.22675098 0.1210897
0002a0 1a 20 8c bd c9 e3 07 be 60 00 74 3d bb 59 22 be
       -0.068420604 -0.13270487 0.05957067 -0.15854542
0002b0 ee ee bc 3e 2d 49 2f be 35 4f bb 3e f9 b2 bf 3e
       0.3690104 -0.17117758 0.36583868 0.37441233
0002c0 62 91 bc 3b be ef 9f be 3a ae 27 bd f7 75 3b 3e
       0.0057546357 -0.31237596 -0.04093764 0.18306719
0002d0 ac 1c c8 bd 1a b7 73 3e ce 07 b7 3e c3 cf d9 bd
       -0.09771094 0.23800316 0.35748142 -0.106353305
0002e0 a6 67 8c be b4 94 ce 3c e7 26 25 3d f4 b2 1d 3e
       -0.27422827 0.025217392 0.040320303 0.15400296
0002f0 89 08 1a bc 3b d3 74 be 01 cd 86 bd d9 3c 85 be
       -0.009401449 -0.23908703 -0.0658207 -0.26022986
000300 7e 54 b4 bd 30 52 16 be 70 0d 7b 3e ab 4b cd 3c
       -0.08805178 -0.1467979 0.24516845 0.025060495
000310 b3 ac 32 be 17 e9 b9 bd d8 77 33 be 48 84 5f bc
       -0.17448692 -0.090776615 -0.17526186 -0.013642378
000320 9a 2f d1 3c ad bf 25 3e b2 a4 12 3e 2c fa 35 3e
       0.025535394 0.161864 0.14320639 0.17771214
000330 2d 2c 13 3e ac 71 33 be 00 14 c5 3d 2a 80 b2 bd
       0.1437232 -0.17523831 0.09622955 -0.087158516
000340 be 70 66 bd ee b9 ac 3e 85 a8 30 3e 13 b6 9e 3d
       -0.056259863 0.33735603 0.17251785 0.07749572
000350 16 1f 8f 3e c9 e0 6b 3e 93 cb 19 be 1a bd 4b 3e
       0.27953404 0.23034967 -0.15019064 0.19896355
000360 4d 11 a3 3e 22 99 08 3e 07 af 28 3e 2f 1d 36 3d
       0.31849137 0.13339666 0.16473018 0.044461425
000370 87 7d 17 be 64 43 b5 3e b5 33 87 3d 71 14 9e be
       -0.14793979 0.35402977 0.06601659 -0.3087497
000380 ab 83 e2 3d d4 5f b2 be 63 1f 7c be fa 92 b4 bc
       0.1106027 -0.34838736 -0.24621348 -0.02204274
000390 f2 e2 aa 3b d9 36 06 be d4 c5 45 3e aa 4b fe bd
       0.0052150423 -0.1310686 0.19313747 -0.124167755
0003a0 0c 0a 93 be 62 7d 2a 3e d1 55 43 3d a9 f3 8e 3e
       -0.28718603 0.16649392 0.047689263 0.27920273
0003b0 e8 5d 13 3e ed 33 c2 3e ed 22 fe 3d 75 ef c0 3d
       0.14391291 0.3793024 0.12409005 0.09420673
0003c0 c9 16 ad bc c9 db 24 be d0 16 76 3e 7f 8b 33 3e
       -0.021129029 -0.16099466 0.2403214 0.17533682
0003d0 30 60 d1 3d 66 d5 92 3d 52 19 31 be 4b a0 76 bd
       0.102234244 0.07169609 -0.17294815 -0.06021146
0003e0 81 7d ae 3d 78 ad 3e 3e f8 ff 93 3e 86 eb c9 3d
       0.08520032 0.1862086 0.28906226 0.09859376
0003f0 eb ab 9c be 2d da 0e bd 47 05 cb be e8 a3 96 3e
       -0.30599913 -0.034876037 -0.39652464 0.29421926

encoder.convs.0.convs.<user___healthness___food>.lin_edge.weight f4 [54, 1]
000000 2a 0b a9 be 00 eb 79 3d f9 bb 3e be 94 86 98 3e
       -0.3301633 0.06101513 -0.18626393 0.29790175
000010 24 23 b6 bd 0a 17 b8 bd a0 ed 48 bd d0 bd 9c 3e
       -0.08893421 -0.08988769 -0.04905474 0.30613565
000020 ac 50 14 3e 56 3d 69 be 58 13 6d 3d 1c 15 d7 3d
       0.14483899 -0.22777304 0.057879776 0.10502073
000030 d2 b1 af bd 8c 8e e0 3d 88 cb 97 be 1d 59 2e be
       -0.085788384 0.10964689 -0.2964747 -0.17026182
000040 a0 10 58 3e 9a 1a 9d 3e 88 de d6 3d fb 9c 3f be
       0.21100092 0.30684358 0.10491663 -0.18712227
000050 d0 84 f6 3d aa cd 42 be 1a 80 87 be be 2a 5f be
       0.12037051 -0.19023767 -0.2646492 -0.21793649
000060 f8 38 00 bd 40 a4 8f 3d a0 75 c9 3c ee 87 a2 3e
       -0.03130433 0.0701375 0.02459222 0.3174433
000070 60 fb bf bc ea 90 9b 3e 5a 5b 7b be d4 1d 2e be
       -0.023435295 0.30383998 -0.24546567 -0.17003566
000080 50 7c 39 3d b4 94 49 3e 74 c7 c8 3d ce d5 a5 3e
       0.04528457 0.19685632 0.09803668 0.32389683
000090 dc 49 34 be ba 42 9e 3e 74 f8 d7 3d 6c 9a b2 3d
       -0.176063 0.30910283 0.105454355 0.0872086
0000a0 00 bd 0a bc 50 70 73 be 84 ee 34 3e 28 b7 92 3d
       -0.008467913 -0.23773313 0.17669111 0.071638405
0000b0 fc 24 69 3e 9c e5 78 3e 68 a0 8f be 5a a7 9c 3e
       0.22768015 0.24306339 -0.28052068 0.3059643
0000c0 84 c3 9b bd 8e 96 62 be ec 98 93 3e d8 f4 55 bd
       -0.07605651 -0.22127745 0.28827608 -0.052235454
0000d0 30 ea 5e 3d e0 0f 4b 3d
       0.054422557 0.049575686

encoder.convs.0.convs.<user___eats___food>.att_src f4 [1, 1, 54]
000000 8b 97 87 bd 5b 5e 61 3e 37 0d 72 3e 7b 8f db bd
       -0.066207014 0.2200865 0.23637854 -0.10720726
000010 81 e5 88 bc 7a 4c 9f bd 6b 01 a7 be 13 b6 c4 be
       -0.016710998 -0.077782586 -0.3261827 -0.38420162
000020 10 a9 0e 3e e5 28 46 3e f1 63 fb bd 50 dd 91 bd
       0.1393168 0.19351538 -0.12274922 -0.0712229
000030 70 a6 15 3e 28 12 ff 3d 12 45 a4 3e c2 b1 29 3e
       0.14614272 0.12454635 0.32083946 0.16571715
000040 ef 00 7f 3e 1f 0e 8c be e7 e3 1e be 7e 3d ae 3d
       0.249027 -0.27354524 -0.15516625 0.085078225
000050 bf f4 a6 be 59 ba db be 7e 9d 80 3e 34 2b 17 3e
       -0.326086 -0.4291561 0.25120157 0.14762574
000060 e2 ff 69 3e 47 41 9b 3d fa 7e 01 3e a6 e7 f5 3d
       0.22851518 0.0758081 0.12646094 0.12007074
000070 49 19 6d 3c 89 b4 cc 3d 79 0a 76 bd 4f 4a 3f 3e
       0.0144713605 0.09995372 -0.06006858 0.1868069
000080 8e ee d0 3e eb 1d e2 3c 7a 0c 77 3e 04 f8 a7 bd
       0.40807003 0.027602157 0.24125853 -0.08201602
000090 1c 8e 11 3e 2c 62 bf be 28 79 07 3e 2e 67 05 be
       0.14214367 -0.37379587 0.13229811 -0.13027641
0000a0 d4 2a 05 3e bc e3 02 3e ab 98 62 bd f2 33 ce be
       0.13004619 0.12782186 -0.055321377 -0.40274006
0000b0 fa fa 84 be 6e df 33 3e 5b e6 fb bd 78 e1 86 3e
       -0.2597273 0.175657 -0.12299796 0.26343894
0000c0 ef 13 b3 be 9b 9a 48 3e cf b8 6f be c9 b8 68 3d
       -0.34976146 0.19590227 -0.23410343 0.05681685
0000d0 ce 87 bb 3e 6f f9 0d 3e
       0.36627048 0.13864683

encoder.convs.0.convs.<user___eats___food>.att_dst f4 [1, 1, 54]
000000 0d c5 9e be 66 3b 2a be ae f6 5b 3e 3f 29 a8 bd
       -0.31009713 -0.16624221 0.2148082 -0.08210992
000010 12 85 75 3e 60 87 21 3e 8c 7a 77 bd 50 07 6d be
       0.23976544 0.15774298 -0.060419604 -0.23147321
000020 92 e4 25 3d d4 e3 74 3e a8 66 6f 3e 2e 09 27 be
       0.040501185 0.23915035 0.23379004 -0.16312096
000030 64 72 91 bd 5c bc b0 3d 01 f9 84 be 5f 29 37 3d
       -0.071018964 0.08629677 -0.25971225 0.04471719
000040 d5 4c d8 3d 30 7c 9b 3e 3d 8e 10 bd 36 ba a9 3e
       0.105615295 0.30368185 -0.0352919 0.3314988
000050 7c 3c af 3e 28 0f 3c be 97 ac 93 3d e4 0e 56 3e
       0.34225833 -0.18365157 0.07210653 0.20904118
000060 90 c8 95 bc 99 ea 4e be 79 c3 b7 3d e0 0c fd 3d
       -0.018284112 -0.2020668 0.0897283 0.12355971
000070 4c 0d 94 be 94 8b 92 be 29 d9 6b be e2 fe 6d be
       -0.28916395 -0.28622115 -0.23032059 -0.23241761
000080 a7 fd 9d 3e 67 01 2a be a4 db 9e bc bf 62 8b bd
       0.30857584 -0.16602097 -0.019391842 -0.06805944
000090 71 1c 18 be 70 bd 85 3e 70 e2 d2 bd 7b ea 63 3e
       -0.148546 0.26121092 -0.10297096 0.22257416
0000a0 55 97 33 be 10 96 af 3e 47 6f 83 3d 17 61 1e bd
       -0.17538197 0.34294176 0.06417709 -0.03866681
0000b0 31 dc 88 bc 1d f1 1d 3e 37 d7 20 be f1 24 ef bd
       -0.016706558 0.15424009 -0.15707098 -0.11676968
0000c0 56 e8 87 be eb 80 4e be e4 cc 0d 3e 32 ad 56 bd
       -0.26544446 -0.20166366 0.13847691 -0.052411266
0000d0 a1 18 14 be a5 bd 10 3d
       -0.1446252 0.03533711

encoder.convs.0.convs.<user___eats___food>.bias f4 [54]
000000 14 96 52 37 47 a5 1f 36 1d 9c 78 36 f0 14 f4 36
       1.2551918e-05 2.378905e-06 3.704575e-06 7.274204e-06
000010 12 20 bc 36 ee 58 5d b5 49 fe 01 36 76 7b ba b4
       5.60657e-06 -8.2458325e-07 1.9370511e-06 -3.473503e-07
000020 d7 0f 27 33 41 52 3f b2 6d b7 05 37 80 50 86 35
       3.8897124e-08 -1.1136366e-08 7.970125e-06 1.0007207e-06
000030 30 5b 70 b4 01 57 65 35 b1 e6 94 35 5f e7 d2 b5
       -2.2384916e-07 8.5435755e-07 1.1093999e-06 -1.5713557e-06
000040 9a 7b 30 b5 54 63 30 b5 25 b5 2b b5 4c e8 c2 b4
       -6.5744973e-07 -6.570965e-07 -6.3966064e-07 -3.6304334e-07
000050 bc 1a 34 35 5d af d0 34 cf ae 23 37 dd 12 9e b5
       6.709413e-07 3.8870613e-07 9.756258e-06 -1.1777407e-06
000060 cc 0c 10 36 b1 c9 1b 35 32 2d 2c b6 ed 88 94 b4
       2.146512e-06 5.80355e-07 -2.5656304e-06 -2.7666775e-07
000070 75 ac 0e 35 50 57 89 b5 56 a8 1c b5 62 f1 c3 b5
       5.315008e-07 -1.0232707e-06 -5.835949e-07 -1.4598884e-06
000080 28 fb 14 34 ac 0f 2f 36 7f e4 91 b5 8e 6f 08 b6
       1.3874944e-07 2.6086154e-06 -1.0869843e-06 -2.0330513e-06
000090 a2 25 00 36 d7 75 34 b4 70 87 f2 b4 17 a8 47 36
       1.9095392e-06 -1.6806676e-07 -4.5174556e-07 2.9751152e-06
0000a0 69 9e 8d 35 85 8a 0b 36 90 63 ff b5 8c 54 3d b3
       1.0551422e-06 2.0793243e-06 -1.9027957e-06 -4.4081887e-08
0000b0 7f 6b 61 b4 96 15 43 34 3d 8a 1e b4 ad 81 e5 b5
       -2.0993865e-07 1.8168643e-07 -1.4765187e-07 -1.709957e-06
0000c0 3e 63 42 b1 3e 03 a2 b5 9c 79 22 b3 f6 13 c8 b5
       -2.8287128e-09 -1.2070884e-06 -3.7829167e-08 -1.4906971e-06
0000d0 e3 80 1e b6 b2 4a 98 34
       -2.3618857e-06 2.8366554e-07

encoder.convs.0.convs.<user___eats___food>.lin_src.weight f4 [54, 29]
000000 28 09 26 3e 42 67 5d be 58 fd 64 be 32 a1 ef bd
       0.1621443 -0.21621421 -0.22362268 -0.117006674
000010 62 8d 1e be 14 b8 89 3d c8 9c 15 3e b9 69 3f 3d
       -0.15483621 0.06724563 0.14610589 0.046731684
000020 20 70 3a 39 7f 26 3b be cd 6e 25 3e 7d 5a 16 be
       0.00017780112 -0.18276404 0.16155548 -0.14682956
000030 0a 9b 5c 3c ec 5c 2a bd 22 65 d3 bd dd 84 23 3e
       0.013464699 -0.041592523 -0.10322024 0.15968652
000040 b3 79 a0 be 6d 71 9b 3e 55 2f 80 be 60 52 ef 3d
       -0.3134285 0.30359975 -0.2503611 0.11685634
000050 1a f2 5e 3e ab 39 be bd 70 6d 6e 3c e0 74 c0 bd
       0.21772042 -0.09288343 0.014552459 -0.09397292
000060 b8 a0 1a bd 89 19 b9 bd ff e1 46 3d 1e 1f 62 be
       -0.03775093 -0.090380736 0.04855537 -0.22082183
000070 74 ca 35 3d 0f 22 2f be 31 25 43 be fd 43 07 bd
       0.044382527 -0.17102836 -0.19057156 -0.033023823
000080 54 0f 19 bd ac 46 2d be a4 a7 52 3e 02 1c 1e bc
       -0.037368134 -0.1692149 0.20571762 -0.009650232
000090 39 c3 2e 3d 7e 81 b9 bd 02 df fc bd 9c ce fa bd
       0.042666648 -0.09057902 -0.12347223 -0.12246439
0000a0 16 c6 66 be f6 82 83 3d 9e dd 8f be a0 4a 08 3e
       -0.22536501 0.06421463 -0.28098768 0.13309717
0000b0 74 fe 32 3d f6 16 60 3e 96 10 d7 3d 01 66 56 3e
       0.043699697 0.21883759 0.105012104 0.20937349
0000c0 8a 5d ac 3d 51 70 b2 bd 2e 7a 10 3e c5 47 09 be
       0.08416279 -0.08712829 0.14109108 -0.13406284
0000d0 c3 d1 85 bd 25 55 8a bd cf ea f1 bd 70 92 1e 3c
       -0.065341495 -0.06754521 -0.11812364 0.009678468
0000e0 f1 b8 9e 3d 73 21 76 be e6 9f a0 3e 2d 79 7a 3e
       0.077501185 -0.24036197 0.31371993 0.24460287
0000f0 13 61 81 be 23 6e ff 3c 24 00 43 be c6 cf 1f 3d
       -0.25269374 0.031180447 -0.19043022 0.039016508
000100 59 da 95 3d 09 35 9b bd 87 8b 66 3e 2c 44 05 be
       0.07317037 -0.07578475 0.22514163 -0.13014287
000110 49 38 26 be 4c dd cc 3c 81 86 76 bd 76 1c d2 bd
       -0.16232409 0.025007866 -0.060186867 -0.10259335
000120 21 f8 21 be 7f 72 75 3d b1 60 16 bd 7b 03 3f bd
       -0.1581731 0.059923645 -0.036713306 -0.04663418
000130 15 40 1b 3e 01 e6 a8 bd 1d b4 b8 bd 4c f5 4e be
       0.15161164 -0.08246995 -0.09018729 -0.20210761
000140 50 42 f9 bb 4d 91 ed bd 73 8d 6b 3d 12 00 00 3e
       -0.007606782 -0.115999795 0.057507943 0.12500027
000150 54 bc 2d be e5 41 11 3d 2a 1d 08 3e c1 46 3e 3e
       -0.16966373 0.035463233 0.13292375 0.18581678
000160 51 55 8c 3d d2 ee 2c bd 60 a5 4a be 3c 65 04 3e
       0.0685221 -0.042219944 -0.19789648 0.12929243
000170 71 19 1e be c2 80 12 3d d4 9e 55 be c3 6f 91 bc
       -0.15439393 0.035767324 -0.2086137 -0.017753487
000180 4f 01 ca 3d ab c4 05 3e 39 e8 53 be 36 a3 87 3d
       0.09863531 0.13063304 -0.20694055 0.06622927
000190 5e 84 73 be 56 a7 f5 bd 01 87 d7 3c 00 be b6 3d
       -0.23780963 -0.119948074 0.026309492 0.089229584
0001a0 83 03 41 be 2d be 56 be f8 8d 8b bd e7 8f 5c bd
       -0.18848996 -0.20970984 -0.06814188 -0.053848173
0001b0 f1 46 2a be dc b6 67 be 51 ba 84 3e fd a2 b6 3d
       -0.16628624 -0.22628349 0.25923398 0.08917806
0001c0 67 56 91 be e4 f8 db 3d 16 97 7a 3e 0b ec 1a 3e
       -0.28386232 0.107408315 0.24471697 0.15129106
0001d0 9b b5 4f 3e 71 07 04 3e 84 2a 80 be d6 d7 05 bd
       0.2028412 0.12893464 -0.25032437 -0.03267654
0001e0 7c d3 77 3e 21 02 70 be a7 8b 5d 3d 52 f1 00 be
       0.24201769 -0.23438312 0.05408826 -0.12592056
0001f0 78 ce f3 3d de 87 15 bd 47 9c 74 be 82 44 3a be
       0.11904615 -0.036506526 -0.2388774 -0.18190196
000200 4c 6f 7a 3d 46 65 66 3e b1 99 a7 bd f8 64 28 bd
       0.061141297 0.2249957 -0.08183611 -0.041111916
000210 5e 27 89 be 6c 3b f9 3d d6 6e 39 be 5b 44 26 3d
       -0.26787847 0.12169537 -0.18108687 0.040592533
000220 13 85 8d be 78 ae 11 3e 5a 9c ad be 42 4b fa 3c
       -0.2764059 0.14226711 -0.3390835 0.030553464
000230 8e 75 13 3d 7d a8 95 be 38 50 ce bd f1 1c 63 3e
       0.03600078 -0.2923011 -0.10073894 0.22179009
000240 10 a7 36 3e cd 48 e1 bd 92 47 65 bd 29 02 85 3d
       0.17837167 -0.11000214 -0.055976458 0.06494553
000250 ba d7 6a be 6b c9 74 bd 66 8c 3a 3e 97 4c 04 be
       -0.22933856 -0.0597624 0.1821762 -0.12919842
000260 49 c0 34 be 66 2a 4a 3e 15 9d a0 3e 41 6e 23 be
       -0.17651476 0.19742736 0.31369844 -0.15960027
000270 d3 58 6f 3e fb 74 8e 3d 4f 8a 32 be bb 13 23 be
       0.23373728 0.06955906 -0.17435573 -0.15925495
000280 0f 1f 32 bb 01 3e 19 be 4c 14 8f bc a8 59 c6 3c
       -0.0027179157 -0.14965059 -0.017465733 0.024212673
000290 fd 48 a6 3d 35 54 59 3b ee ee 24 3e 33 ea 9b 3d
       0.0811939 0.0033161764 0.1610677 0.07613029
0002a0 cb d7 be bd 3a 3f 3b 3e 76 e9 ac 3d 99 97 23 3e
       -0.09318503 0.18285838 0.08442967 0.15975799
0002b0 56 0c 72 3e bc dc 04 3e 5f 4f 1a be 8e 3f 94 3c
       0.23637518 0.12974828 -0.1506934 0.018096711
0002c0 b9 43 99 3d ef b0 ec bc 74 44 35 be d0 ab b9 3d
       0.0748362 -0.028892962 -0.17701894 0.09065974
0002d0 88 0d 1a be c2 4e 1a be e7 4d 3d 3e 5a 3f 1b be
       -0.15044224 -0.15069106 0.18486749 -0.15160885
0002e0 1f 41 aa bd 16 78 ed bc 3e f9 25 be ff 75 01 3e
       -0.08313202 -0.028987925 -0.1620836 0.12642668
0002f0 7c 83 2f bd 5f 7a 73 3e 7e 23 80 be 3e c5 d2 3c
       -0.042850003 0.2377715 -0.25027078 0.025728818
000300 3a e9 e9 3d d9 8d 36 3e b0 32 78 be 37 3a a8 3d
       0.114214376 0.17827548 -0.24238086 0.082142286
000310 89 01 23 bc 3b df 6d be 53 23 6c ba 17 7a 1a 3e
       -0.0099490965 -0.23229687 -0.0009007949 0.15085636
000320 c8 fa 00 3e 66 f8 91 3d 3d fc 59 3e bd 3e ca be
       0.12595665 0.07127456 0.21287628 -0.3950099
000330 ee cd a1 3a b2 39 80 3e fd bb ba bd 84 44 a2 3d
       0.0012344697 0.25044018 -0.09117887 0.079232246
000340 c1 72 cf bd 79 18 7a bd 14 be 66 ba ae 99 51 3e
       -0.101293094 -0.061058495 -0.00088021276 0.2046878
000350 ab 25 d8 bd 6c 79 8c 3e 28 5b 30 be 07 bc 49 bd
       -0.105540596 0.27436388 -0.17222273 -0.049251582
000360 d7 2b 23 3e bb 19 af bc 3b d1 26 3e 92 1c f9 bd
       0.15934692 -0.021374574 0.16290753 -0.121636525
000370 53 d2 00 be 05 72 72 3e 81 c4 03 be b1 e2 91 3d
       -0.12580232 0.23676307 -0.12867929 0.07123316
000380 22 9b 19 be 9c 0f 15 3c dd 44 76 3e 68 f0 12 3e
       -0.15000585 0.00909796 0.24049707 0.1434952
000390 64 a9 a4 be f5 66 30 3e d3 92 fc 3d 93 69 48 bd
       -0.32160485 0.17226775 0.12332692 -0.04892881
0003a0 75 44 25 bd cb 06 3d 3e 29 04 09 3e 96 4e 00 3e
       -0.04034849 0.18459623 0.13380493 0.12529978
0003b0 ea fd 53 be 1c 14 96 bd 71 fe a7 3d 73 0e 0d 3e
       -0.2070233 -0.07328054 0.08202828 0.13775043
0003c0 32 f0 99 3d b3 04 b3 3d e8 7a ba 3d 70 03 ab 3d
       0.07516517 0.08741131 0.09105474 0.08350265
0003d0 bc 26 69 3e ec 63 bd bd 18 92 5f 3d e4 2c e9 bc
       0.22768682 -0.09247574 0.054582685 -0.028463788
0003e0 b1 3e f4 3b ef fc 76 3d 66 22 84 3c f7 dd 00 3d
       0.0074537625 0.06029981 0.016129684 0.031461682
0003f0 f6 c0 14 be a7 38 1d ba 82 41 56 3e 7b 5e 5c be
       -0.14526734 -0.00059975166 0.20923427 -0.21520416

encoder.convs.0.convs.<user___eats___food>.lin_dst.weight f4 [54, 17]
000000 1a a3 c6 bd cf 6a 9e 3e 1f f5 82 be d0 df 01 be
       -0.09699078 0.30940863 -0.25577638 -0.12683034
000010 89 04 c2 ba ea 21 58 be 85 bc 23 3d 10 e5 40 3e
       -0.0014802377 -0.21106687 0.039974708 0.1883738
000020 c9 07 1d bd b8 11 6b be 51 5d 08 be 27 de 06 3d
       -0.038337503 -0.22955978 -0.13316847 0.032926705
000030 e3 ce 91 3e 23 2b 32 be 08 1c 3c 3d 87 43 04 be
       0.28478155 -0.17399268 0.04592517 -0.12916385
000040 87 01 47 bd 62 7b 4c bd 21 5c 69 3d fc a0 3a 3e
       -0.04858544 -0.049922355 0.056972627 0.18225473
000050 ad c6 92 be 46 59 83 be 2b a5 88 3e b2 8a 47 be
       -0.28667203 -0.25654048 0.26688513 -0.19486502
000060 03 88 4d 3d 48 a4 8b 3e 78 e1 af 3c 52 72 af bd
       0.05017854 0.27273774 0.021469817 -0.08566727
000070 72 17 66 3e d9 bc 45 3e e9 97 eb bc cc 4c 1d 3e
       0.22469881 0.19310321 -0.02875896 0.15361327
000080 b0 7e 2b 3d 4c d3 b3 bd a9 ba 65 be fd 43 71 be
       0.041868865 -0.08780536 -0.22434486 -0.23561092
000090 78 e7 d2 bd f4 0d 55 bd 69 68 9f 3d 75 1e 07 be
       -0.102980554 -0.05201526 0.077835865 -0.13195212
0000a0 d3 54 02 be a8 da 2a 3d e3 5b bd 3d 55 71 82 3d
       -0.1272767 0.041712433 0.092460416 0.063692726
0000b0 a4 e9 2e bc b1 1c 03 3e ca 45 86 be d8 2c 80 3e
       -0.010675821 0.12803914 -0.2622512 0.25034213
0000c0 be ed 25 be 18 22 1f bc f7 f5 65 3e c5 b3 d2 3d
       -0.16203973 -0.009712718 0.2245711 0.102881946
0000d0 d7 a3 9c 3e ed 7a cc bd f5 e1 a2 3d bf 52 02 bd
       0.3059375 -0.09984384 0.07953254 -0.031817194
0000e0 fa 70 40 3e 27 54 37 be 34 59 62 3d ad f7 82 3d
       0.18793097 -0.17903195 0.055260852 0.06394897
0000f0 96 e2 2f 3e 3a 94 4c bd fa 2b f4 bd 71 4a a2 bb
       0.1717628 -0.049946047 -0.1192245 -0.0049527218
000100 1b 9f 3b be cd 7f 47 be 3e 19 53 be 2a fa 3b be
       -0.18322413 -0.19482346 -0.20615098 -0.18357149
000110 2f 9b 20 3e 71 71 51 3e 57 e5 d5 bd e0 4e 73 3e
       0.15684198 0.2045343 -0.10444134 0.23760557
000120 b2 fe 8e 3e 21 7a 26 bc d7 bc 8e be b8 b4 1e be
       0.27928692 -0.010160954 -0.27878448 -0.15498626
000130 c0 7d 1e bc d1 80 f4 3d c0 09 71 3e 8f 8f d4 bd
       -0.009673536 0.11938632 0.23538876 -0.10378944
000140 0c ff 10 bd 5b ca 23 3d 0d 2a f4 bd 68 3b 1e be
       -0.03539948 0.039987903 -0.11922083 -0.15452349
000150 51 fb 17 3d 4b 00 82 3e 4b a2 6f be a7 3a 8e 3d
       0.03710491 0.2539085 -0.23401754 0.06944781
000160 d4 30 1d 3e c1 81 b6 ba 79 e6 c1 3d 1a 35 57 be
       0.15350658 -0.0013924168 0.09467787 -0.2101635
000170 00 41 6d 3e 1c 62 93 3d c9 2e 22 be 50 68 93 be
       0.23169327 0.07196447 -0.1583816 -0.28790522
000180 e6 28 16 be f2 04 89 3e 24 aa 55 bd 93 4a 70 3e
       -0.14664039 0.26761585 -0.052164212 0.23465948
000190 89 3c 56 3e df 2c 0b 3e 18 0e 9b 3d 58 56 b1 3d
       0.2092153 0.13591336 0.075710475 0.08659047
0001a0 92 cd d0 3d 3b 72 53 3c 22 c7 6d 3e ec 39 a1 bd
       0.101954594 0.012905653 0.23220494 -0.07872376
0001b0 97 1f 05 be 70 77 86 be 2f 87 86 3c 91 41 6e 3e
       -0.13000332 -0.26263 0.016421882 0.23267199
0001c0 ba 98 7f be 8c a2 69 bc b4 f3 b9 3d 59 ac f8 3d
       -0.24960604 -0.014259946 0.09079686 0.12142248
0001d0 ab bb 0a be bc ed 85 3d 2c d0 e1 bd f3 6d 1c be
       -0.13548152 0.06539485 -0.11026034 -0.15276317
0001e0 68 e7 70 3d 2b 43 87 be 7c ec 0e bd d7 85 6b 3e
       0.058814436 -0.26418433 -0.034893498 0.23000275
0001f0 4e 5d 8c bd ef 3f e2 3d 2b 0f 8c 3e b1 c8 fb bd
       -0.06853734 0.110473506 0.27355322 -0.12294138
000200 1d 09 91 3e b7 27 7c be 16 96 25 be 1e f5 33 3e
       0.28327265 -0.24624525 -0.16170534 0.17573974
000210 97 ea 8e 3e b4 82 aa bd 3b 8a ba bd 2a 7a 4e be
       0.27913353 -0.08325711 -0.091083966 -0.2016379
000220 89 dc 7e be 88 68 9a be c4 83 87 3e d5 94 50 be
       -0.24888815 -0.30157876 0.26467717 -0.20369275
000230 70 87 44 3d 76 a3 16 3e c4 3b 94 3e 58 99 7b be
       0.047980726 0.14710793 0.28951848 -0.24570215
000240 31 03 a0 bc da a7 29 be a1 2c 39 be 16 65 65 3d
       -0.019532772 -0.16567937 -0.18083431 0.056004606
000250 c2 6a 87 3d 1f 1b ba bc b9 58 67 3e be 2c 24 3e
       0.06612159 -0.02271801 0.22592439 0.16032693
000260 54 5d 3f 3e d0 91 f2 3d 3e f3 3c 3e 8f 24 32 be
       0.18687946 0.11844218 0.18452165 -0.17396758
000270 bb d9 48 3e 4f 61 3c be 99 65 1d 3d e2 69 60 3e
       0.19614308 -0.18396495 0.03842697 0.21915391
000280 67 5d 1c 3e 1b 7b 67 3e 9a 99 96 3c 20 e5 8f 3d
       0.15270005 0.22605555 0.01838379 0.07026124
000290 3b 94 bd bd 76 a8 09 be cf 23 b1 bd 2a 71 44 be
       -0.09256788 -0.13443169 -0.08649408 -0.19183794
0002a0 40 84 12 3e c3 18 e1 bd ea 2b 91 be 58 3d 3e 3e
       0.14308262 -0.10991051 -0.28353816 0.18578088
0002b0 c8 e5 4f be aa c9 75 3e 08 68 87 be 8b e3 24 3e
       -0.20302498 0.2400271 -0.26446557 0.16102426
0002c0 8d 1d 7b be 81 9c 7e be f8 84 db 3d 94 4d 52 3e
       -0.24522991 -0.24864389 0.10718721 0.20537406
0002d0 4f 4c 93 be 11 dd 2a 3e 80 58 8e be db 36 3f be
       -0.28769156 0.16685893 -0.27801895 -0.1867327
0002e0 c2 89 b7 3d e2 d6 a0 3c e3 73 25 3d 83 92 0b be
       0.08961822 0.019633714 0.04039372 -0.13630109
0002f0 57 fe 24 3e 18 c6 65 3e 92 fb 0f 3e 0e 35 41 be
       0.16112648 0.22438848 0.1406081 -0.18867895
000300 fb df 70 be 73 2c 6e be 79 a4 23 3e ea 38 5f 3e
       -0.23522942 -0.23259144 0.1598071 0.21799055
000310 6e 29 fd 3d 8f f9 37 bd ae 54 43 be 54 6b 1f be
       0.12361418 -0.044915732 -0.19075271 -0.15568286
000320 86 a2 89 3e c2 5f b5 ba c9 a5 4f 3e 12 72 81 3e
       0.26881808 -0.0013837742 0.20278086 0.2528234
000330 f6 91 c2 bc 78 2e 28 be 46 b6 92 be e7 b1 09 be
       -0.02375124 -0.16423976 -0.2865469 -0.1344677
000340 3a 8e a3 bd e0 08 d1 bd 34 4a dd bd 2a 9c dc 3d
       -0.07986112 -0.10206771 -0.10805169 0.107719734
000350 c3 8c 8e bd 12 7c c0 3d 45 4c 95 be ea 8f 8b bd
       -0.06960442 0.093986645 -0.29159752 -0.06814559
000360 01 79 44 3e 6e 84 66 be c2 c4 9d bc 34 6a dd bd
       0.19186784 -0.22511455 -0.01925886 -0.10811272
000370 55 3f 00 3d 60 e3 50 bd c4 46 1b 3e 6b ca dc 3d
       0.031310398 -0.05099809 0.15163714 0.10780796
000380 ae 8e e3 3d 41 2e df bd 39 71 a6 3d 8c b5 db 3c
       0.11111198 -0.10897494 0.08127064 0.026819967
000390 5d 4a 6e 3e 06 b9 d1 bd 08 fd 87 3d b6 88 92 3e
       0.23270555 -0.102403685 0.06640059 0.28619927
0003a0 f4 2a 9e 3c 30 23 00 bd ea 6b 19 be 6b dd 9d 3c
       0.019307591 -0.031283557 -0.14982572 0.01927062
0003b0 9c 5f c4 3d 7b 48 59 be fc 8e 2f be 9c 09 78 be
       0.095885485 -0.21219055 -0.17144388 -0.24222416
0003c0 28 08 31 3d 02 da 8b 3e b9 e8 d0 3d b2 d4 5c 3d
       0.04322067 0.27314764 0.10200638 0.05391378
0003d0 0f 44 64 3e 94 f7 35 be b7 6e 8e 3e e8 70 58 3e
       0.22291587 -0.17770225 0.27818844 0.2113682
0003e0 86 ad 5a 3d 2f b2 06 bd 21 7c 2d 3e b6 4a 88 3e
       0.05338814 -0.032884773 0.16941883 0.266195
0003f0 45 59 1b 3e e7 75 01 bd 8a c5 07 3e c7 e0 2a 3e
       0.15170772 -0.03160658 0.13258949 0.16687308

encoder.convs.0.convs.<food___contains___ingredient>.att_src f4 [1, 1, 54]
000000 8f d1 42 3d 4b 05 8e 3e 8f 66 81 be be d9 a6 bd
       0.047563132 0.27738413 -0.25273558 -0.08147
000010 8b 76 52 3d ae 35 c6 bd fd 54 e9 3d 56 ae 09 be
       0.051382583 -0.09678207 0.11393163 -0.1344541
000020 ad b3 ff 3d cc 44 dd 3e 1f 03 04 3e f9 e3 ac ba
       0.12485442 0.4321655 0.12891816 -0.00131905
000030 f1 f0 27 be 0a 8b d3 be 3d 8f 39 3e da f3 a3 be
       -0.16400506 -0.41317016 0.18121047 -0.3202198
000040 12 1c 2f be cd 10 e4 3e 4d fd dc bb 80 2e fc 3c
       -0.17100552 0.44544068 -0.006744063 0.030783892
000050 17 7f 67 3e b9 8e 75 3d 66 bb b8 bd 33 c9 17 3e
       0.22607075 0.059950564 -0.090201184 0.14822845
000060 c9 3f 99 3c f3 e5 c6 3e 0b 2a 43 be 92 e0 cd 3d
       0.018707173 0.38847312 -0.19059007 0.10052599
000070 1c 95 52 be 5e 6b db 3d 3d 03 30 be 8d 3f de be
       -0.20564693 0.10713838 -0.17188735 -0.4340786
000080 58 af 4e 3e cd 61 a0 3e f5 e2 8b 3e 4d de 6d 3e
       0.20184076 0.31324616 0.27321592 0.23229332
000090 ba ce 8d be f0 c6 6d ba 1e 64 b8 3e 44 95 5a be
       -0.27696782 -0.00090704765 0.36013883 -0.21346003
0000a0 51 34 3d be 80 7d c8 be cf de 7a be 98 be 04 bd
       -0.18476988 -0.3915825 -0.24499057 -0.032408327
0000b0 c1 1e 93 be 92 76 06 3f b8 a7 22 3e 1d b1 14 bd
       -0.287344 0.52524674 0.15884292 -0.03630172
0000c0 50 e8 68 bd 76 f4 97 3c 34 c2 8c 3e 5f c0 7b bd
       -0.056862175 0.018549185 0.27491915 -0.061462756
0000d0 c5 23 8f 3e c2 59 6b be
       0.27956977 -0.22983459

encoder.convs.0.convs.<food___contains___ingredient>.att_dst f4 [1, 1, 54]
000000 38 45 cb bd dc 9b 99 be 98 5f c5 be 23 b9 4b 3e
       -0.09925312 -0.30001724 -0.38549495 0.19894843
000010 f1 59 7d be af 3d 6c be 04 38 44 be ab 06 54 be
       -0.24741341 -0.23070405 -0.19161993 -0.20705669
000020 f9 b7 9f be 1a 6e 8b be c1 87 a9 3e 3d 86 3f bd
       -0.31195047 -0.27232438 0.33111385 -0.04675888
000030 f4 39 02 be cb 5e 2a bd f8 cb 9f 3e 7f bb 73 be
       -0.1271742 -0.041594308 0.31210303 -0.23801993
000040 4b 2a 39 3e 0c ce ac bd e7 85 a3 be fc 75 7b 3e
       0.1808254 -0.08437738 -0.31938097 0.24556726
000050 6c c5 4c 3e 1e da 99 3e d6 3a 59 3e 1b ba 01 bd
       0.19997185 0.30049223 0.2121385 -0.031671625
000060 29 e8 af 3b 37 ce 65 be b3 65 bf 3e e7 3c 8c be
       0.005368252 -0.22441946 0.37382278 -0.27390215
000070 48 3f 93 3e a6 3e 7c be ec b1 77 be af 55 3e 3e
       0.28759217 -0.24633273 -0.24188966 0.18587373
000080 4c a1 89 3e 59 2e 4a bd 5b 62 0f 3e 8e 67 b1 be
       0.26880872 -0.049360607 0.14002363 -0.34649318
000090 76 ae 3b bd a0 78 aa 3e 62 e3 ba 3e 4d ae 64 bd
       -0.045820676 0.33295155 0.36501604 -0.05583029
0000a0 0d 08 2e 3e 6d df b7 3e f3 e7 12 3e f7 99 8f 3d
       0.16995259 0.35912648 0.14346294 0.07011788
0000b0 ba 91 8d be c7 d2 c2 ba e7 b1 37 3d 92 d3 7b be
       -0.27650243 -0.0014863842 0.044847395 -0.24592426
0000c0 6b 01 48 3e dd e6 86 be d4 81 c0 3e 32 73 4b 3c
       0.19531791 -0.2634801 0.3759905 0.012417601
0000d0 db 95 5b 3e a2 96 0d be
       0.21443884 -0.13826993

encoder.convs.0.convs.<food___contains___ingredient>.bias f4 [54]
000000 be d8 9b b2 e2 48 c4 b4 41 b4 4e 34 02 87 af b4
       -1.8142938e-08 -3.6560874e-07 1.9250821e-07 -3.269452e-07
000010 7e 83 3a 34 05 40 fa b5 ff 1e 9c 35 7d f6 f0 34
       1.7370436e-07 -1.8645084e-06 1.1631927e-06 4.4882827e-07
000020 a7 0a a9 35 4b 8e 0f b5 f9 39 9e b5 c6 f9 b9 35
       1.2594581e-06 -5.3478715e-07 -1.178879e-06 1.3856268e-06
000030 f4 7c c4 b3 a7 c2 4b 35 c1 6e 69 35 21 7e ab b5
       -9.14969e-08 7.590665e-07 8.696043e-07 -1.2777201e-06
000040 06 db b2 34 42 63 ae 34 6a 3f 3a b5 fd 80 a5 b6
       3.3314444e-07 3.2482245e-07 -6.938268e-07 -4.9323994e-06
000050 c9 59 26 b5 6f be a7 35 fb 36 91 b4 af 43 37 b7
       -6.1970474e-07 1.2497893e-06 -2.7048358e-07 -1.0923409e-05
000060 ba e8 80 b5 97 79 0f b7 f6 f8 dc 32 5a da 1c 35
       -9.604476e-07 -8.551774e-06 2.5724585e-08 5.843227e-07
000070 07 95 b1 35 b0 f0 9c 37 f3 12 34 b5 ec fd 8b 34
       1.32309e-06 1.8708728e-05 -6.70828e-07 2.607552e-07
000080 56 61 ca b4 55 d0 4c b4 b5 86 a3 b3 b5 56 1c 34
       -3.7696253e-07 -1.9074771e-07 -7.614782e-08 1.4560176e-07
000090 a0 da 19 37 c2 74 1e 35 43 e4 74 b7 a2 4b d5 b4
       9.170413e-06 5.902949e-07 -1.459668e-05 -3.9729372e-07
0000a0 6e 41 fd b5 01 00 b9 b4 47 af 6c b5 6b 71 8d b6
       -1.8869011e-06 -3.4458938e-07 -8.8171913e-07 -4.215331e-06
0000b0 ea ac 34 b6 f5 31 c7 34 a7 9e 84 b6 7d 73 e8 b4
       -2.692274e-06 3.7102987e-07 -3.952376e-06 -4.3297396e-07
0000c0 a5 12 a6 b5 39 49 5d b6 53 f5 33 35 48 a5 b8 b3
       -1.237339e-06 -3.2974187e-06 6.703969e-07 -8.598232e-08
0000d0 8b 88 29 b3 fa 5a 1e 35
       -3.9472564e-08 5.8991975e-07
