etc/old3/models/best_model_AUC_0.9529.pt (torch, 127329 bytes, 144 tensors)

encoder.convs.0.convs.<user___healthness___food>.att_src f4 [1, 1, 18]
0.2795305 -0.0823781 -0.063734755 -0.041529786 0.5728005 -0.4077584 0.32560363 0.009311746
-0.19142155 0.34876353 -0.44178092 -0.38437596 -0.07412689 -0.5351514 0.32460594 -0.40913123
0.47169784 -0.37497392
00000000: 9f1e 8f3e d9b5 a8bd 5e87 82bd 231b 2abd
00000010: 0ea3 123f b6c5 d0be 85b5 a63e 4b90 183c
00000020: 0304 44be 2291 b23e 1c31 e2be edcc c4be
00000030: d7cf 97bd afff 08bf c032 a63e a679 d1be
00000040: 6182 f13e 95fc bfbe

encoder.convs.0.convs.<user___healthness___food>.att_dst f4 [1, 1, 18]
-0.14291713 0.027609197 0.27971658 -0.28425077 0.17954873 0.020753676 0.28944537 0.08664379
0.21536788 -0.17331325 -0.5780197 0.3227736 -0.44204953 -0.15449782 0.04902586 0.33695245
-0.094979815 -0.6434477
00000000: de58 12be af2c e23c 0337 8f3e 5189 91be
00000010: 9fdb 373e 9d03 aa3c 2f32 943e 4d72 b13d
00000020: 6689 5c3e 0779 31be 19f9 13bf 9542 a53e
00000030: 5154 e2be ad34 1ebe 57cf 483d 0885 ac3e
00000040: c784 c2bd fdb8 24bf

encoder.convs.0.convs.<user___healthness___food>.att_edge f4 [1, 1, 18]
-0.14245409 0.28986645 0.22269583 0.46489805 -0.11504096 0.2647047 -0.52881885 0.21744138
0.2581963 0.36250758 -0.32224667 -0.15002888 0.13595277 -0.39933097 -0.4470217 -0.54062134
0.031369746 0.34896505
00000000: 7cdf 11be 6069 943e 600a 643e 1e07 ee3e
00000010: 989a ebbd 6087 873e ac60 07bf f4a8 5e3e
00000020: 4e32 843e 989a b93e 84fd a4be 2ca1 19be
00000030: 3437 0b3e 1c75 ccbe 07e0 e4be 2966 0abf
00000040: 907d 003d 8cab b23e

encoder.convs.0.convs.<user___healthness___food>.bias f4 [18]
5.24482e-06 4.5212e-06 3.476991e-06 1.54097e-06 3.7134157e-06 -1.0990946e-06 -9.448934e-06 -3.3264496e-05
-2.0352954e-06 2.4005271e-06 1.1826274e-06 2.6144521e-06 1.8309335e-06 1.1371856e-06 5.606686e-07 3.2707949e-06
-6.7806167e-07 -2.0461173e-06
00000000: a9fc af36 d0b4 9736 4056 6936 53d3 ce35
00000010: ff33 7936 9a84 93b5 dd86 1eb7 7b85 0bb8
00000020: 1c96 08b6 be18 2136 c5ba 9e35 f273 2f36
00000030: 65be f535 66a1 9835 da80 1635 d47f 5b36
00000040: 0b04 36b5 0750 09b6

encoder.convs.0.convs.<user___healthness___food>.lin_src.weight f4 [18, 29]
0.16086219 -0.025948334 -0.034903023 -0.16843987 -0.07941125 -0.18448927 0.21980534 -0.12388939
-0.1687083 0.22042316 -0.37126738 0.3016464 0.08264369 0.20174278 -0.26689005 -0.2979159
0.2037932 0.113198034 -0.17704575 -0.19300817 -0.19406624 0.15061052 0.14710385 -0.25611404
-0.13796028 -0.36588112 -0.007950842 -0.00782935 -0.035061173 -0.23210408 -0.1153644 -0.7191393
0.50202775 -0.13042027 -0.22000505 0.3993175 -0.24882917 0.012205954 -0.33352384 0.15942533
0.07846528 0.7966722 -0.50100315 -0.055261806 0.2998633 0.17832156 -0.5548145 0.19061555
0.5047272 -0.31319603 -0.07323296 0.20974441 1.0532486 -0.49862444 0.2569277 -0.19784023
1.2358285 -0.06981173 -0.1929604 -0.93826383 -0.24317548 -0.07307134 -0.38339943 0.07418516
0.11338369 -0.049413536 0.5364505 -0.5738073 0.7855682 -0.10265845 1.5197576 -0.94774055
0.53421074 -0.32382366 0.0047349674 -0.37695122 0.7061834 0.5854484 -0.42227396 0.36311233
0.9151304 0.51639795 0.41140327 0.0053137597 0.15512587 0.6182314 -0.08741599 -0.30825785
0.44486177 -0.23112503 0.3567033 0.37803847 -0.25775433 0.20544966 -0.056528363 -0.45168978
0.3082656 0.0969623 -0.32668093 0.015805583 0.031008188 0.18947574 -0.1715237 -0.12095977
-0.018780144 -0.2983638 0.23327129 0.3571051 0.08928047 0.17934802 -0.048553374 -0.43279448
-2.4273892e-05 0.48662612 0.5759766 0.15764457 0.29972965 0.32086167 0.2774276 0.20224997
0.04456255 -0.042091567 0.28436556 0.18940498 -0.41530967 0.28343236 0.0967377 -0.00013374959
0.08038628 0.6125368 0.03143549 -0.18627924 -0.11156065 0.13888858 -0.4530295 -0.37090048
-0.14349681 0.07260972 -0.25987414 0.27983543 0.16539039 -0.23353969 0.34467793 -0.43726698
-0.60619944 -0.49351177 -0.015877001 0.26218846 -0.015619374 -0.41674757 0.2619996 0.08626113
0.2545189 -0.058959663 -0.45516226 0.42762607 0.32293716 0.17097169 -0.3715976 -0.06757664
0.07196543 0.049017835 -0.36194882 0.34563076 0.11134143 -0.2547836 0.25199753 0.14440604
0.079564385 0.16676089 0.67301416 -0.12602693 0.316368 0.2062864 -0.18930122 0.58086824
-0.10232292 0.082360625 -0.12503347 -0.37733498 -0.108637765 0.10778545 -0.1499377 0.6606777
-0.52272844 -0.06293219 0.01925457 0.36660153 -0.12565073 0.3123005 0.22246106 0.023616318
-0.034725033 0.32626897 0.1480822 -0.07787987 0.10820198 0.044190682 0.15638806 -0.63878906
0.6256324 -0.065515146 -0.33943737 0.016168928 0.27311882 0.006170072 0.33138984 -0.09676088
-0.16905709 0.025464548 -0.5707239 -0.15826453 -0.010003306 0.13562028 -0.25700456 0.30643564
0.07990949 0.13624276 -0.3112556 0.19758692 -0.30285138 -0.07090683 0.88489836 -0.7334077
0.3187449 -0.3287948 0.42947215 -0.37524801 -0.02548502 -0.2287559 0.5669002 -0.19794336
0.014200734 -0.18960397 0.028719407 -0.20996134 -0.2745251 -0.11300983 0.02894858 -0.031288736
-0.016368018 -0.1724748 0.048442572 0.32343668 0.1699866 -0.44189608 -0.0008317618 -0.05205901
-0.0039965166 -0.39083952 0.45819148 0.25990817 0.1896568 0.19791943 0.17126836 -0.2855771
00000000: 0fb9 243e 9a91 d4bc 79f6 0ebd 807b 2cbe
00000010: 5ea2 a2bd c1ea 3cbe a714 613e b8b9 fdbd
00000020: dec1 2cbe 9cb6 613e c216 bebe 6671 9a3e
00000030: 1841 a93d a995 4e3e d0a5 88be 6f88 98be
00000040: 2aaf 503e 5fd4 e73d 7b4b 35be efa3 45be
00000050: 4db9 46be a539 1a3e 64a2 163e 6121 83be
00000060: 7645 0dbe c554 bbbe 4044 02bc ad46 00bc
00000070: 4e9c 0fbd b1ac 6dbe 2c44 ecbd 8319 38bf
00000080: e484 003f e48c 05be 0149 61be 5873 cc3e
00000090: 13cd 7ebe 7bfb 473c a3c3 aabe 6540 233e
000000a0: 68b2 a03d b6f2 4b3f be41 00bf 345a 62bd
000000b0: af87 993e ed99 363e 5308 0ebf b930 433e
000000c0: cd35 013f 3b5b a0be 2afb 95bd 3dc7 563e
000000d0: dad0 863f b44b ffbe 078c 833e a196 4abe
000000e0: a12f 9e3f 74f9 8ebd 6997 45be 0f32 70bf
000000f0: fe02 79be 6da6 95bd ee4c c4be 64ee 973d
00000100: b535 e83d d965 4abd d254 093f 09e5 12bf
00000110: ff1a 493f 983e d2bd 6b87 c23f 209f 72bf
00000120: 09c2 083f 37cc a5be c927 9b3b c0ff c0be
00000130: 6fc8 343f f2df 153f 4b34 d8be dce9 b93e
00000140: fc45 6a3f a832 043f 73a3 d23e 0c1f ae3b
00000150: 51d9 1e3e 6a44 1e3f 2807 b3bd f9d3 9dbe
00000160: ecc4 e33e 0aac 6cbe d1a1 b63e 428e c13e
00000170: 60f8 83be 6561 523e 498a 67bd e243 e7be
00000180: fdd4 9d3e 2c94 c63d b942 a7be b67a 813c
00000190: e204 fe3c ee05 423e e9a3 2fbe c2b9 f7bd
000001a0: d1d8 99bc 24c3 98be abde 6e3e 7bd6 b63e
000001b0: aed8 b63d 02a7 373e e7df 46bd 3d97 ddbe
000001c0: c99f cbb7 0f27 f93e 3473 133f 946d 213e
000001d0: 2a76 993e fb47 a43e fe0a 8e3e 9e1a 4f3e
000001e0: 3887 363d 3568 2cbd 5d98 913e 61f3 413e
000001f0: 78a3 d4be 0c1e 913e 6a1e c63d 223f 0cb9
00000200: 90a1 a43d 36cf 1c3f 80c2 003d fcbf 3ebe
00000210: e979 e4bd cf38 0e3e 7cf3 e7be abe6 bdbe
00000220: d4f0 12be 68b4 943d 390e 85be 9746 8f3e
00000230: 195c 293e 0725 6fbe a079 b03e 75e1 dfbe
00000240: e32f 1bbf 93ad fcbe 7c10 82bc 913d 863e
00000250: 67e8 7fbc f05f d5be d024 863e ada9 b03d
00000260: 4d50 823e b07f 71bd 070b e9be cef1 da3e
00000270: 0558 a53e 3413 2f3e 0a42 bebe 9f65 8abd
00000280: 9d62 933d edc6 483d 5b51 b9be 84f6 b03e
00000290: fa06 e43d ff72 82be d205 813e 2ddf 133e
000002a0: a7f2 a23d 5ec3 2a3e a84a 2c3f 340d 01be
000002b0: fdfa a13e be3c 533e 2ed8 41be c8b3 143f
000002c0: ae8e d1bd b0ac a83d c608 00be 0d32 c1be
000002d0: 7a7d debd 9ebe dc3d 4589 19be 2c22 293f
000002e0: 88d1 05bf 98e2 80bd c3bb 9d3c 32b3 bb3e
000002f0: 96aa 00be dae5 9f3e d5cc 633e 0277 c13c
00000300: d63b 0ebd ba0c a73e dca2 173e 7b7f 9fbd
00000310: 0099 dd3d 4a01 353d 3124 203e ae87 23bf
00000320: 7229 203f ce2c 86bd bcca adbe b374 843c
00000330: 3bd6 8b3e 512e ca3b eeab a93e 912a c6bd
00000340: 4d1d 2dbe 079b d03c f61a 12bf 1910 22be
00000350: e8e4 23bc 0be0 0a3e 1a96 83be 22e5 9c3e
00000360: 96a7 a33d 3983 0b3e e55c 9fbe 3a54 4a3e
00000370: 560f 9bbe 9a37 91bd b388 623f 9bc0 3bbf
00000380: 8832 a33e cb57 a8be c6e3 db3e 8220 c0be
00000390: f6c5 d0bc fd3e 6abe 5f20 113f aab1 4abe
000003a0: 32aa 683c 8b27 42be f644 eb3c 1b00 57be
000003b0: 8e8e 8cbe b371 e7bd 9325 ed3c 9e28 00bd
000003c0: 3916 86bc 3c9d 30be b86b 463d 7e99 a53e
000003d0: f810 2e3e 3440 e2be 970a 5aba d43b 55bd
000003e0: 36f5 82bb 1e1c c8be 1398 ea3e af12 853e
000003f0: 6435 423e 64ab 4a3e f960 2f3e 2937 92be

encoder.convs.0.convs.<user___healthness___food>.lin_dst.weight f4 [18, 17]
0.49066713 -0.4555209 -0.03853344 -0.0671825 0.11688879 -0.007859913 0.29574955 0.3839055
0.14046243 0.061011992 -0.051657625 -0.078862116 -0.0087974 -0.2889242 0.22594616 -0.1619036
0.2687241 -0.3613086 0.27586654 0.18730222 0.06851676 0.27004516 -0.11446519 0.40743613
0.06849872 0.20185995 -0.064803205 -0.31854525 -0.2185593 -0.28253514 0.009971917 -0.0794451
0.16496927 0.058977164 -0.03358807 -0.2176204 0.29501012 0.11475589 0.2572315 -0.024102507
-0.3012905 0.2526152 -0.2314937 -0.0916672 0.2668589 -0.17010573 0.30428186 -0.27012464
0.37680602 -0.0159242 -0.40677226 -0.027375849 -0.50502115 -0.3275816 -0.37537622 -0.18972181
0.19139044 0.083346255 0.3166067 0.19277245 -0.24804641 0.024276003 0.2438999 -0.15667987
-0.11083461 0.35599864 0.37659255 -0.14366409 0.07394147 0.4112343 0.33995822 -0.19092393
0.5009614 0.2063529 0.08481769 0.068722256 0.37106198 0.06016803 0.42145544 0.23797882
-0.08020356 -0.19895236 0.36155623 0.116861224 -0.15000232 0.18234336 0.4276224 0.4791076
-0.011125261 0.45058897 -0.16863433 -0.1456614 -0.0080938535 -0.12424524 -0.050662003 0.03354001
0.158286 0.00945706 -0.25619406 -0.17500255 0.30415386 0.051521454 -0.48387527 -0.030168647
0.10080767 0.19231339 -0.05585769 -0.16252361 0.046799324 -0.33159706 0.05850854 0.21077809
-0.20910545 -0.28640705 0.4127384 0.43433338 -0.3833429 -0.022919213 -0.20033233 -0.028844578
0.1359402 -0.16891041 0.48451328 -0.19823283 0.06125153 -0.1993588 -0.3035672 0.31801653
0.3496423 -0.3246282 0.40266237 -0.094515465 -0.24923778 0.056861382 -0.46258405 -0.028638724
0.27909893 0.21532197 0.2907964 0.1889316 0.3783064 -0.2701663 0.05169451 -0.29340672
0.043699186 0.5028936 0.10985921 -0.19232146 -0.18675789 -0.17115974 -0.16900657 0.008223751
-0.27205008 0.0057754875 0.20793566 -0.36842716 -0.23371205 -0.29823405 -0.37461427 -0.26244467
-0.1461495 0.0898632 0.15022391 0.111375056 0.18596001 -0.41930267 -0.31240585 0.018224819
-0.16842976 -0.2599177 0.33772016 -0.2231845 0.30956185 -0.43958923 0.30205148 0.3078344
-0.21500349 -0.2758532 -0.2143042 0.16197544 -0.3800527 0.107868366 0.28394118 -0.353374
-0.25578165 0.30412093 0.31621808 -0.04228413 -0.023887975 -0.111008026 0.110301726 -0.12940536
0.1205562 0.036303878 0.17069699 0.19539751 -0.14906785 0.12756154 0.0010854455 0.22707248
0.24580991 0.05762423 -0.06758243 -0.010708699 0.4615293 -0.24545835 -0.08146136 -0.32030255
-0.3025673 0.24972598 0.016859256 0.2770953 0.2469033 0.23856005 -0.45954424 0.04721538
0.2237458 -0.01302475 0.37419146 0.3348296 0.051661685 0.4365689 -0.19372201 -0.41674122
0.16737917 -0.46524808 -0.3169924 -0.0022099933 -0.016279008 -0.21603933 0.19648153 -0.1300241
-0.3646825 0.2789953 0.0820165 0.1623181 0.13453074 0.4628982 0.4218814 0.2002419
-0.21727425 -0.40928453 0.16541529 0.070204414 -0.028378358 0.26635453 -0.39380533 -0.18327191
-0.083516635 0.07061582 0.22241174 -0.045839496 -0.1508439 0.21855906 -0.29623 0.15514863
00000000: b938 fb3e 093a e9be 3ed5 1dbd fb96 89bd
00000010: 6463 ef3d ddc6 00bc 7c6c 973e 438f c43e
00000020: 62d5 0f3e b6e7 793d f296 53bd 7682 a1bd
00000030: f822 10bc dfed 93be 6e5e 673e 0fca 25be
00000040: 3596 893e 71fd b8be 613e 8d3e 27cc 3f3e
00000050: 8452 8c3d 5c43 8a3e ba6c eabd 789b d03e
00000060: 0f49 8c3d 60b4 4e3e 8bb7 84bd 5d18 a3be
00000070: 02ce 5fbe 72a8 90be 4061 233c 1db4 a2bd
00000080: b4ed 283e 0a92 713d a593 09bd e2d7 5ebe
00000090: 910b 973e 2305 eb3d d9b3 833e 9f72 c5bc
000000a0: c042 9abe c856 813e af0c 6dbe 03bc bbbd
000000b0: bba1 883e 3230 2ebe d5ca 9b3e c74d 8abe
000000c0: b8ec c03e 7873 82bc 7444 d0be 5143 e0bc
000000d0: 1149 01bf c7b8 a7be 5031 c0be 6f46 42be
000000e0: dbfb 433e 71b1 aa3d 461a a23e 2466 453e
000000f0: e1ff 7dbe 78de c63c e5c0 793e b070 20be
00000100: 42fd e2bd 7445 b63e bdd0 c03e ae1c 13be
00000110: a06e 973d 4d8d d23e 010f ae3e 9081 43be
00000120: 023f 003f 2d4e 533e e6b4 ad3d 41be 8c3d
00000130: d6fb bd3e c172 763d 02c9 d73e b8b0 733e
00000140: c441 a4bd 2bba 4bbe e61d b93e f054 ef3d
00000150: 359a 19be 38b8 3a3e 53f1 da3e 974d f53e
00000160: ba46 36bc 99b3 e63e 7aae 2cbe 4328 15be
00000170: 159c 04bc 4a74 febd f682 4fbd 4061 093d
00000180: ba15 223e c9f1 1a3c de2b 83be de33 33be
00000190: 0eba 9b3e 2908 533d 80be f7be 3d24 f7bc
000001a0: 4074 ce3d cded 443e 08cb 64bd 976c 26be
000001b0: a6b0 3f3d 17c7 a9be a7a6 6f3d 36d6 573e
000001c0: bd1f 56be f2a3 92be 7352 d33e f260 de3e
000001d0: 8545 c4be 13c1 bbbc eb23 4dbe 774b ecbc
000001e0: e833 0b3e daf6 2cbe 2012 f83e 8cfd 4abe
000001f0: e2e2 7a3d b724 4cbe 296d 9bbe 10d3 a23e
00000200: 5104 b33e ab35 a6be c329 ce3e 5391 c1bd
00000210: 3038 7fbe 7be7 683d d1d7 ecbe c29b eabc
00000220: 0ee6 8e3e 5d7d 5c3e 44e3 943e 4977 413e
00000230: 60b1 c13e 3d53 8abe 9fbd 533d 6839 96be
00000240: ebfd 323d a3bd 003f defd e03d ebef 44be
00000250: 763d 3fbe 8044 2fbe 0f10 2dbe e9bc 063c
00000260: 264a 8bbe 4d40 bd3b 16ed 543e 7ca2 bcbe
00000270: 3652 6fbe 22b2 98be 71cd bfbe 265f 86be
00000280: 37a8 15be 330a b83d 4cd4 193e 9b18 e43d
00000290: 4d6c 3e3e d7ae d6be a9f3 9fbe 374c 953c
000002a0: da78 2cbe ef13 85be a8e9 ac3e 7a8a 64be
000002b0: e47e 9e3e d711 e1be 7ea6 9a3e 789c 9d3e
000002c0: e029 5cbe a13c 8dbe 8f72 5bbe e4dc 253e
000002d0: 4496 c2be 17ea dc3d bd60 913e 70ed b4be
000002e0: d0f5 82be bdb5 9b3e 56e7 a13e 2032 2dbd
000002f0: b7b0 c3bc 2d58 e3bd dfe5 e13d d782 04be
00000300: 2be6 f63d 60b3 143d 31cb 2e3e 4916 483e
00000310: 3ea5 18be 7e9f 023e 8245 8e3a b085 683e
00000320: 98b5 7b3e 6207 6c3d a868 8abd 8a73 2fbc
00000330: 924d ec3e 6f59 7bbe 37d5 a6bd b2fe a3be
00000340: 1aea 9abe 2bb8 7f3e 6c1c 8a3c 6fdf 8d3e
00000350: 38d4 7c3e 1649 743e 6249 ebbe ea64 413d
00000360: 9e1d 653e c365 55bc 0696 bf3e c96e ab3e
00000370: 349b 533d f585 df3e 105f 46be 1b5f d5be
00000380: 7265 2b3e ff34 eebe d44c a2be 89d5 10bb
00000390: 8e5b 85bc 6a39 5dbe 7432 493e 0a25 05be
000003a0: aab7 babe 79d8 8e3e 44f8 a73d b736 263e
000003b0: 6dc2 093e fe00 ed3e d700 d83e 360c 4d3e
000003c0: 247d 5ebe be8d d1be a062 293e 55c7 8f3d
000003d0: bb79 e8bc 9f5f 883e daa0 c9be a2ab 3bbe
000003e0: c50a abbd 079f 903d e7bf 633e 32c2 3bbd
000003f0: d376 1abe f2cd 5f3e 75ab 97be 48df 1e3e

encoder.convs.0.convs.<user___healthness___food>.lin_edge.weight f4 [18, 1]
0.1803872 -0.012346923 0.02601546 0.071192026 0.20928103 -0.17049682 -0.33509034 0.1325782
-0.066538185 -0.25457972 0.23599881 0.005096376 -0.081744075 -0.27203158 -0.07393366 -0.47784144
0.12783849 0.008433044
00000000: 6cb7 383e c04a 4abc 601e d53c 20cd 913d
00000010: c44d 563e b896 2ebe f690 abbe 94c2 073e
00000020: 2c45 88bd 4658 82be aca9 713e 80ff a63b
00000030: 7069 a7bd b947 8bbe 886a 97bd a2a7 f4be
00000040: 18e8 023e c02a 0a3c

encoder.convs.0.convs.<user___eats___food>.att_src f4 [1, 1, 18]
-0.14539532 0.3062745 -0.11242785 0.2506323 0.26069692 0.39115268 -0.033580903 -0.028285887
0.39330626 -0.7236115 -0.079185665 -0.25987348 0.2992969 0.24506493 -0.26179326 -0.46975452
0.4358518 0.28268042
00000000: 83e2 14be 03d0 9c3e 9340 e6bd e052 803e
00000010: 117a 853e 2a45 c83e 218c 09bd ceb7 e7bc
00000020: 705f c93e 9a3e 39bf 182c a2bd 230e 85be
00000030: 713d 993e 4df2 7a3e c409 86be aa83 f0be
00000040: f827 df3e 7dbb 903e

encoder.convs.0.convs.<user___eats___food>.att_dst f4 [1, 1, 18]
-0.16464074 0.60296375 -0.7068235 -0.13036014 -0.18944371 0.5371526 0.0382108 -0.663531
0.17058395 -0.6132511 0.62374145 -0.24789478 0.053610858 -0.004119637 0.40563104 -0.57349163
0.48631015 0.051114995
00000000: 9597 28be d55b 1a3f 63f2 34bf 217d 05be
00000010: 88fd 41be d582 093f ee82 1c3d 2bdd 29bf
00000020: 8fad 2e3e 06fe 1cbf 85ad 1f3f 21d8 7dbe
00000030: 0f97 5b3d 05fe 86bb dfae cf3e 59d0 12bf
00000040: a5fd f83e f55d 513d

encoder.convs.0.convs.<user___eats___food>.bias f4 [18]
5.24482e-06 4.5212e-06 3.476991e-06 1.54097e-06 3.7134157e-06 -1.0990946e-06 -9.448934e-06 -3.3264496e-05
-2.0352954e-06 2.4005271e-06 1.1826274e-06 2.6144521e-06 1.8309335e-06 1.1371856e-06 5.606686e-07 3.2707949e-06
-6.7806167e-07 -2.0461173e-06
00000000: a9fc af36 d0b4 9736 4056 6936 53d3 ce35
00000010: ff33 7936 9a84 93b5 dd86 1eb7 7b85 0bb8
00000020: 1c96 08b6 be18 2136 c5ba 9e35 f273 2f36
00000030: 65be f535 66a1 9835 da80 1635 d47f 5b36
00000040: 0b04 36b5 0750 09b6

encoder.convs.0.convs.<user___eats___food>.lin_src.weight f4 [18, 29]
0.22957551 -0.27443266 -0.055824358 -0.004775024 0.104359925 0.09022394 0.10377652 0.47659543
0.92459667 -0.67911685 -0.4190084 -0.1947946 0.6157426 0.00043088678 -0.7702788 0.21185155
-0.7844922 1.3354354 -0.96548635 0.22325438 0.5732209 0.1442321 -0.6140329 -0.06833635
0.46775326 -0.4603749 0.32170764 -0.8627072 -1.1641315 -0.29775804 -1.6592288 0.79823196
0.91443187 0.5049181 0.0055217845 -0.39705095 0.8247756 0.9546236 -1.142495 -0.019756928
-0.29898587 0.5479465 -0.6295691 0.31928945 0.05797506 -0.6061128 1.6886584 0.42048302
-0.25155285 0.15528177 1.228803 -0.035144377 -0.45488143 0.5821166 -0.3663725 1.1244053
-1.2672029 -0.93394643 0.9522955 -0.5949405 -2.538692 -1.0904227 -1.9476182 1.1353418
0.41162285 -1.3392498 -0.30962726 -0.58923894 0.52841896 0.033177245 -1.3601575 -0.13682921
0.533926 0.07949902 -1.2178075 -0.09222166 0.9449088 0.46003968 -1.9708047 -1.5246657
0.7336779 0.40050614 0.5870477 -0.82842296 -1.3176523 0.57149994 1.1942186 -0.043078303
-0.08088819 0.5939169 -0.24799657 0.3785692 -0.49576727 0.5119523 -0.83728826 -0.8989662
0.7359341 0.884741 -0.27454188 -0.44024235 -0.33123755 0.552302 0.034904048 1.1563697
-1.7071034 0.43321764 -0.32192373 -0.42505994 -0.63044995 0.41122976 0.12975979 -0.53265095
0.5611608 -0.2115108 0.3583039 0.39149153 0.27454862 -1.4016238 0.6806904 -0.5924169
0.15110067 -0.231427 -0.23649572 0.036587507 1.0033733 -1.0693609 -0.31028882 -0.2413243
-0.5066048 0.90180725 -0.101946466 -0.054541983 -0.8652564 0.6955118 -0.23361935 -0.5109292
-1.1232978 1.307206 -0.44322953 -0.5352966 0.39373848 -0.41360182 -0.40339008 -0.25992978
-2.0275326 -0.1980067 -0.59306294 1.414588 -0.05439358 0.7987778 -0.50920177 -0.050151553
-0.03533447 0.26991132 0.11794401 0.7489158 0.3100928 -0.14262234 -0.37227628 0.7493739
-0.003605777 0.41982484 -0.90195966 0.99277544 -0.7329851 -0.69645923 1.6735271 1.0616529
-0.94931155 -0.5942407 2.009587 0.08001176 -0.53089076 -0.5099978 -0.097290836 -0.386361
1.3821359 0.40254462 1.1687974 -0.15552564 0.18876149 0.8693497 0.9852295 0.20035243
0.33793116 -0.038457483 0.7163207 0.40980405 0.39137205 0.31544486 0.9117117 0.009572571
0.59974504 -0.30524305 0.78846675 1.5354618 0.4350208 -0.8392183 -0.11652515 1.7355328
0.8643715 0.09463704 0.19081189 -0.6044268 1.0407908 1.9607173 2.007324 1.5625867
-0.63802165 -1.2981312 2.4219406 2.5938535 -0.904303 -1.3007724 -0.22848268 2.7649412
-0.16911693 -1.6931206 0.21612476 -0.45894796 2.1863606 -1.3506567 0.04611054 2.274322
1.3423905 -1.6526937 0.51765555 1.5371526 -0.9808881 1.6404241 -0.9095971 -1.1501814
-0.8248881 -0.03651956 2.030912 0.9425558 0.72147566 -0.8276786 -0.24747422 0.9126456
0.24516794 0.23378049 -0.007151254 0.11078047 0.35730797 0.20050688 -0.055537503 -0.037762146
0.2844339 0.24230124 -0.10655198 -0.38941446 0.12180769 1.0887539 0.14963439 -0.70495576
00000000: d815 6b3e 7082 8cbe 15a8 64bd ce77 9cbb
00000010: a8ba d53d 54c7 b83d c988 d43d 5104 f43e
00000020: 5eb2 6c3f 9ada 2dbf 4588 d6be 3c78 47be
00000030: 4fa1 1d3f a5e8 e139 fe30 45bf 9def 583e
00000040: 7bd4 48bf 8cef aa3f 1d2a 77bf cc9c 643e
00000050: 9bbe 123f 94b1 133e 4331 1dbf eef3 8bbd
00000060: 5b7d ef3e 42b6 ebbe ddb6 a43e 61da 5cbf
00000070: 4302 95bf be73 98be 9c61 d4bf ee58 4c3f
00000080: 3518 6a3f 5042 013f 16f0 b43b 434a cbbe
00000090: 7e24 533f 3662 743f 473d 92bf 48d9 a1bc
000000a0: ad14 99be 3946 0c3f 712b 21bf e879 a33e
000000b0: 4277 6d3d 352a 1bbf f525 d83f 8d49 d73e
000000c0: 89cb 80be 2f02 1f3e 6b49 9d3f 8df3 0fbd
000000d0: 38e6 e8be 9805 153f 2d95 bbbe 83ec 8f3f
000000e0: b433 a2bf 1d17 6fbf a3c9 733f 054e 18bf
000000f0: ee79 22c0 f992 8bbf 8e4b f9bf e152 913f
00000100: 3bc0 d23e 8a6c abbf 7787 9ebe 5dd8 16bf
00000110: 7746 073f dde4 073d a419 aebf f51c 0cbe
00000120: 60af 083f 62d0 a23d 1ee1 9bbf b6de bcbd
00000130: 8be5 713f 528a eb3e 5443 fcbf 3f28 c3bf
00000140: 51d2 3b3f 240f cd3e c248 163f 8713 54bf
00000150: d5a8 a8bf d24d 123f 28dc 983f e072 30bd
00000160: b5a8 a5bd f00a 183f d0f2 7dbe d2d3 c13e
00000170: 35d5 fdbe 4e0f 033f 8658 56bf a622 66bf
00000180: 2d66 3c3f 637e 623f c190 8cbe 7267 e1be
00000190: f897 a9be aa63 0d3f 8cf7 0e3d ec03 943f
000001a0: 5d82 dabf b4ce dd3e 30d3 a4be 75a1 d9be
000001b0: 2b65 21bf b58c d23e c0df 043e d05b 08bf
000001c0: 3ca8 0f3f 4a96 58be 9c73 b73e 9471 c83e
000001d0: a391 8c3e 6968 b3bf ba41 2e3f a2a8 17bf
000001e0: 22ba 1a3e 33fb 6cbe ef2b 72be c8dc 153d
000001f0: 896e 803f d1e0 88bf 2dde 9ebe b81d 77be
00000200: dab0 01bf d7dc 663f 4fc9 d0bd 6a67 5fbd
00000210: 7281 5dbf 100d 323f e939 6fbe 42cc 02bf
00000220: 39c8 8fbf 8752 a73f fbee e2be 3309 09bf
00000230: 1798 c93e 9ec3 d3be 2589 cebe 8415 85be
00000240: 18c3 01c0 45c2 4abe f9d2 17bf 3811 b53f
00000250: cdcb 5ebd b47c 4c3f 0c5b 02bf b76b 4dbd
00000260: e1ba 10bd d131 8a3e a18c f13d f2b8 3f3f
00000270: 7cc4 9e3e 970b 12be ff9a bebe f8d6 3f3f
00000280: e64e 6cbb 48f3 d63e d4e6 66bf 8826 7e3f
00000290: e9a4 3bbf 274b 32bf 2336 d63f 3ee4 873f
000002a0: 1506 73bf 2920 18bf 139d 0040 35dd a33d
000002b0: 75e8 07bf 378f 02bf 6b40 c7bd 1cd1 c5be
000002c0: d4e9 b03f 541a ce3e 279b 953f 1d42 1fbe
000002d0: b14a 413e b48d 5e3f 0038 7c3f 3029 4d3e
000002e0: 5005 ad3e 9885 1dbd cb60 373f d6d1 d13e
000002f0: eb61 c83e fd81 a13e f065 693f 46d6 1c3c
00000300: e488 193f d148 9cbe f5d8 493f 038a c43f
00000310: 0cbb de3e 03d7 56bf bda4 eebd f025 de3f
00000320: 7347 5d3f 10d1 c13d 3164 433e b7bb 1abf
00000330: a238 853f c9f8 fa3f ff77 0040 d702 c83f
00000340: 6355 23bf 2a29 a6bf 1301 1b40 b201 2640
00000350: 6780 67bf b67f a6bf 5df7 69be ccf4 3040
00000360: fd2c 2dbe 2db8 d8bf cf4f 5d3e 3afb eabe
00000370: 55ed 0b40 52e2 acbf 68de 3c3d 7e8e 1140
00000380: 74d3 ab3f 788b d3bf 1385 043f 6bc1 c43f
00000390: 7c1b 7bbf 6bf9 d13f 5bdb 68bf 2539 93bf
000003a0: de2b 53bf 8995 15bd 76fa 0140 564b 713f
000003b0: a1b2 383f bfe2 53bf e269 7dbe 24a3 693f
000003c0: 4e0d 7b3e 2764 6f3e 1155 eabb dfe0 e23d
000003d0: 12f1 b63e ad51 4d3e 4b7b 63bd 7bac 1abd
000003e0: 52a1 913e d11d 783e ed37 dabd 5561 c7be
000003f0: 4f76 f93d 4a5c 8b3f c239 193e fb77 34bf

encoder.convs.0.convs.<user___eats___food>.lin_dst.weight f4 [18, 17]
-0.13570176 0.6716982 -0.3063494 -0.20301981 0.15370414 -0.2107115 0.129223 0.5388807
0.052855216 -0.3134877 -0.1331616 0.16744044 0.5745835 -0.11263121 -0.11205982 -0.19992976
-0.14448418 0.047375202 -0.31390193 0.0943808 -0.4540045 -0.6471455 0.19174029 -0.46537113
-0.27801013 0.4174034 0.072830535 -0.16721217 0.0754528 -0.03923878 -0.25062415 0.4041064
0.12120168 -0.11869273 -0.45551106 0.11225538 0.029539943 -0.011544409 0.38969502 0.007145963
0.015837431 0.42522028 0.118842445 0.024227582 0.057447117 0.43207315 -0.054785814 0.5786355
-0.40818942 -0.09090078 0.30040509 0.1091039 0.2252699 -0.16874926 0.1466016 -0.11466207
0.21498641 -0.2720632 -0.11034839 -0.10867659 0.3381659 -0.20547898 -0.24831465 -0.073440745
-0.2919854 -0.047651462 -0.15151083 -0.08629505 0.11280691 0.38239628 -0.054123186 0.36814156
0.5924239 0.07327585 -0.30718157 -0.0002212788 -0.23160952 0.19989094 0.22096547 -0.025476027
0.16895802 0.21378358 -0.4109391 -0.15058354 0.23335083 0.4712259 -0.63855034 -0.0608585
0.17904386 -0.2819118 -0.047265347 -0.48388395 -0.016275177 0.14039698 -0.2037797 -0.44739625
-0.43435982 0.08502381 -0.25591758 0.553316 0.33119485 0.25178075 0.14797595 -0.16388997
0.07096244 0.02897056 0.16229637 -0.22197495 -0.28733644 -0.67023855 -0.10286472 0.3841723
-0.4340273 -0.18046288 -0.06718133 -0.01052753 -0.044359934 0.14415205 -0.117249526 -0.3129104
0.3896242 -0.22854637 -0.016689261 0.59315956 0.07863838 0.34135526 0.7362039 -0.18325076
0.37793475 -0.30223334 -0.009057631 0.53088427 0.57690686 -0.32727897 -0.15926558 -0.35023928
-0.2707132 -0.20552665 0.3623499 -0.32058212 0.035499264 0.20917548 0.37725374 -0.3819101
0.22024632 -0.30002004 -0.096356645 0.07708214 0.039611176 -0.126596 0.16741948 0.016769717
0.0005371485 0.05856087 0.63103884 -0.09223754 0.31628907 0.01842914 0.2402447 0.5007386
0.560707 0.29961756 -0.016190153 0.13847597 0.11652421 0.12237884 0.08989782 -0.45585924
0.1464876 -0.16190334 -0.32039067 -0.063023075 -0.42679635 0.31223756 -0.6251954 0.064093344
-0.51864773 -0.6997677 0.13941732 0.31985566 -0.46751124 0.028482718 -0.662241 -0.44137886
0.3281412 0.06050225 0.1210307 -0.5774141 0.44769683 0.64328575 0.39000168 0.12237244
-0.069600835 -0.07550424 0.55022985 0.011861757 0.09450853 -0.03871387 0.0035304485 0.11570685
0.39976195 -0.58167756 0.0969566 0.25288364 0.104812235 -0.0066579795 -0.44504994 -0.25299573
-0.10461198 -0.1604833 -0.20450553 0.30061138 0.14397414 0.15627216 -0.33945352 -0.08753076
0.3065079 -0.23069009 -0.134523 -0.1620308 -0.032098815 -0.005909425 0.47207394 0.15040474
0.10163761 -0.074211806 0.14790303 0.039581843 0.53031546 0.03326892 0.112304196 0.4584109
0.10147224 0.06866046 -0.07873245 -0.087204054 0.11621118 -0.31920475 -0.1320976 -0.73266184
-0.09739596 0.34624702 -0.13373964 -0.090135925 0.16426258 -0.5717985 0.4807871 0.31890276
0.06801161 -0.2678437 -0.067484036 0.18384418 0.42816725 0.004783025 0.16565998 0.16813257
00000000: 67f5 0abe 6af4 2b3f d4d9 9cbe 6de4 4fbe
00000010: 9e64 1d3e c1c4 57be 0953 043e 16f4 093f
00000020: b67e 583d 7681 a0be 845b 08be 8275 2b3e
00000030: e717 133f 31ab e6bd 9e7f e5bd 63ba 4cbe
00000040: a9f3 13be 800c 423d c1b7 a0be b94a c13d
00000050: 4773 e8be 54ab 25bf 9157 443e 2045 eebe
00000060: 5857 8ebe e6b5 d53e 2d28 953d ab39 2bbe
00000070: ff86 9a3d d8b8 20bd cf51 80be 09e7 ce3e
00000080: 9638 f83d 2d15 f3bd bf38 e9be 26e6 e53d
00000090: c0fd f13c c324 3dbc 1b86 c73e af28 ea3b
000000a0: 80bd 813c 79b6 d93e ab63 f33d ec78 c63c
000000b0: ab4d 6b3d b138 dd3e 1767 60bd 7521 143f
000000c0: 34fe d0be 302a babd b2ce 993e de71 df3d
000000d0: 27ad 663e 9bcc 2cbe bb1e 163e f3d3 eabd
000000e0: 6625 5c3e de4b 8bbe 56fe e1bd d591 debd
000000f0: 1524 ad3e 1569 52be 3246 7ebe 1a68 96bd
00000100: 1c7f 95be 2e2e 43bd a825 1bbe 76bb b0bd
00000110: 4f07 e73d 72c9 c33e 46b0 5dbd 0d7d bc3e
00000120: 18a9 173f a611 963d e746 9dbe 1307 68b9
00000130: 0c2b 6dbe 36b0 4c3e c644 623e 1ab3 d0bc
00000140: 5503 2d3e 15ea 5a3e 9c66 d2be 9232 1abe
00000150: 85f3 6e3e 8544 f13e 0978 23bf c346 79bd
00000160: 4657 373e be56 90be 4f99 41bd a3bf f7be
00000170: 8553 85bc 3ac4 0f3e a0ab 50be 1f11 e5be
00000180: 6964 debe f720 ae3d a107 83be 1ea6 0d3f
00000190: 5f92 a93e 68e9 803e 0287 173e c6d2 27be
000001a0: c154 913d ab53 ed3c 0531 263e 674d 63be
000001b0: c31d 93be c194 2bbf bdaa d2bd 3bb2 c43e
000001c0: d438 debe 43cb 38be 5d96 89bd a97b 2cbc
000001d0: c3b2 35bd 989c 133e 8520 f0bd cb35 a0be
000001e0: d37c c73e 0f08 6abe ebb7 88bc 4ed9 173f
000001f0: 290d a13d 1ec6 ae3e dc77 3c3f 16a6 3bbe
00000200: aa80 c13e 54be 9abe 7566 14bc 08e8 073f
00000210: 2bb0 133f 1c91 a7be 8416 23be 9052 b3be
00000220: ec9a 8abe 9475 52be ed85 b93e 5723 a4be
00000230: ad67 113d 1932 563e 6727 c13e b889 c3be
00000240: 4088 613e 3a9c 99be a256 c5bd 3edd 9d3d
00000250: 543f 223d 62a2 01be 0370 2b3e a560 893c
00000260: 6dcf 0c3a 86dd 6f3d c38b 213f 09e7 bcbd
00000270: a4f0 a13e b5f8 963c b502 763e 6830 003f
00000280: 7e8a 0f3f 7967 993e 36a1 84bc a5cc 0d3e
00000290: 3fa4 ee3d c2a1 fa3d 591c b83d 6266 e9be
000002a0: d800 163e fdc9 25be 3f0a a4be 3e12 81bd
000002b0: 0d85 dabe 9add 9f3e ce0c 20bf 5f43 833d
000002c0: 19c6 04bf fa23 33bf 6ac3 0e3e 1fc4 a33e
000002d0: a25d efbe 9754 e93c a088 29bf 69fc e1be
000002e0: 2002 a83e 35d1 773d f2de f73d 69d1 13bf
000002f0: 8538 e53e 60ae 243f 4dae c73e 679e fa3d
00000300: e28a 8ebd f8a1 9abd dddb 0c3f d157 423c
00000310: b08d c13d 6f92 1ebd 195f 673b b7f7 ec3d
00000320: 99ad cc3e d2e8 14bf 2f91 c63d f779 813e
00000330: cca7 d63d 2e2b dabb 96dd e3be a888 81be
00000340: ce3e d6bd bc55 24be e669 51be bce9 993e
00000350: f56d 133e cf05 203e dacc adbe 5443 b3bd
00000360: 9aee 9c3e 063a 6cbe 66c0 09be 67eb 25be
00000370: 0c7a 03bd daa3 c1bb adb3 f13e b303 1a3e
00000380: 6127 d03d 5cfc 97bd e473 173e 9220 223d
00000390: c1c2 073f fe44 083d beff e53d d5b4 ea3e
000003a0: aed0 cf3d db9d 8c3d 7b3e a1bd 0a98 b2bd
000003b0: 2100 ee3d ce6e a3be 9844 07be ba8f 3bbf
000003c0: 8877 c7bd 4a47 b13e 0bf3 08be 2f99 b8bd
000003d0: 7334 283e 6361 12bf ba29 f63e 3947 a33e
000003e0: ac49 8b3d cf22 89be 1235 8abd a641 3c3e
000003f0: bd38 db3e ecba 9c3b c5a2 293e f22a 2c3e

encoder.convs.0.convs.<food___contains___ingredient>.att_src f4 [1, 1, 18]
0.33613443 0.36110276 -0.27148253 0.5120879 0.16550541 0.16038068 0.15735018 0.51268613
0.027833972 0.09536894 0.016540894 -0.97491956 0.07714784 -0.4946977 0.6032608 -0.48935756
-0.24809693 0.31556165
00000000: d019 ac3e 76e2 b83e c2ff 8abe 3118 033f
00000010: 407a 293e d53a 243e 6820 213e 663f 033f
00000020: 1204 e43c ca50 c33d c580 873c 5494 79bf
00000030: b0ff 9d3d 0449 fdbe 4d6f 1a3f 138d fabe
00000040: 1f0d 7ebe 4c91 a13e

encoder.convs.0.convs.<food___contains___ingredient>.att_dst f4 [1, 1, 18]
1.0316535 -0.8439916 -0.8168311 0.51819795 0.7459585 -0.60563946 -0.65742046 -1.111884
0.9908938 1.2841169 -0.79032135 0.9619188 0.7911172 0.9034661 -0.5741761 0.67023355
0.91691315 0.9063786
00000000: 390d 843f d50f 58bf d81b 51bf 9fa8 043f
00000010: 23f7 3e3f 300b 1bbf b54c 28bf 3752 8ebf
00000020: 37ab 7d3f f15d a43f 8052 4abf 4f40 763f
00000030: a886 4a3f 8e49 673f 34fd 12bf 6d94 2b3f
00000040: d2ba 6a3f 6e08 683f

encoder.convs.0.convs.<food___contains___ingredient>.bias f4 [18]
3.979975e-06 -1.4883301e-05 1.0773327e-05 4.1745432e-05 1.869193e-05 4.1204607e-05 7.6231004e-06 1.9656607e-06
1.1764779e-05 1.1132559e-05 -3.0050767e-05 7.2077055e-06 1.7277742e-06 2.5198027e-05 1.6346144e-07 9.544054e-06
3.975286e-05 0.00015032805
00000000: ba8b 8536 4bb3 79b7 16bf 3437 d117 2f38
00000010: 9dcc 9c37 1cd3 2c38 efc9 ff36 cbe9 0336
00000020: 5761 4537 fac5 3a37 8815 fcb7 b8d9 f136
00000030: dfe5 e735 5a60 d337 f083 2f34 661f 2037
00000040: 4fbc 2638 61a1 1d39

encoder.convs.0.convs.<food___contains___ingredient>.lin_src.weight f4 [18, 17]
-0.3355653 -0.44249153 0.36922428 0.6747708 0.050007287 0.005715703 -0.041361373 0.28980622
0.8257881 1.6093832 0.8650267 0.80449015 0.46512595 0.20361713 0.09440927 -0.42546213
-0.11644817 -0.17460057 -0.8126821 0.37734243 0.9523541 -0.10126046 -0.07149411 -0.20907146
0.1351846 1.0279682 0.57997316 0.5802424 0.09954094 0.3753511 -0.14015302 0.15514307
-0.4844672 0.16547157 0.013681898 -0.21477799 -0.30022576 -0.3538538 0.2909727 0.34629267
-0.3477465 0.15441352 -0.9483224 -0.58711696 -0.4085126 -0.10640806 0.03773047 0.20202348
-0.19232038 -0.20916933 -0.46919551 -0.5537886 -0.63232416 0.8881783 0.78059363 -0.42855966
-0.015134469 -0.1941977 -0.1098523 1.3647009 1.2082037 1.0364504 0.060310263 0.44214228
0.020471284 0.054360148 -0.31046787 0.46040884 -0.7109644 -0.002693605 -1.0544866 -1.4046649
0.4438862 0.19795999 -1.0779876 1.2690266 0.5546416 -2.2274992 1.4315953 -0.64341974
-0.09221259 -0.5079468 0.4156781 -0.10420066 0.015335364 -0.12585329 -0.51612824 -0.75321865
-0.62295955 0.61087346 -0.06791329 -0.41731584 0.1637969 0.81568015 -0.9051702 0.54311067
-0.8218297 -0.12748145 -0.32279465 0.10527121 -0.41846576 -0.20976906 -0.8780523 -0.48403654
-1.0415667 -1.0751336 0.1824056 -0.63516563 -1.421542 0.28028026 0.85560954 -1.2008697
1.3315946 -1.4047616 -0.4134801 -0.23116945 0.406899 -0.58080393 0.08139561 -0.80089754
-0.6227343 0.90781665 0.7964047 0.115151875 0.1536408 -0.22511224 -0.30365416 1.5123492
0.96834075 0.8168182 0.46764737 0.29522985 0.32583687 0.026209006 -0.5102467 0.02126071
-0.47678584 0.077656105 1.3364964 1.6914531 -0.47925186 0.81018454 1.0345917 -0.09798958
1.0813271 2.0343907 0.6173266 1.2024187 0.53309095 0.5666547 -0.07829413 -0.3455732
0.20174338 -0.20702493 -0.011380337 -1.0777694 -2.5852664 1.6449456 0.39956975 -0.59857893
3.3032162 -0.22783916 -2.462472 1.3058128 -0.96930003 -0.5009492 -1.027618 0.165921
-0.41190425 -0.13367744 0.3254712 0.18281077 1.0244322 1.7353699 -0.61471 0.1875975
1.1866112 -0.5295023 0.3814698 2.4690263 0.36059657 1.4577667 -0.013318996 0.08180588
-0.020100864 0.18314955 0.54764146 0.4240466 0.34586772 -0.20783997 -0.30893776 0.009580365
0.31966236 0.20680863 0.16868588 -1.2828426 -0.9665715 -0.7590586 -0.03019458 -0.24175984
-0.3877359 -0.64217633 0.22935042 -0.25137043 -1.0963169 -0.77884483 -0.11383912 -0.21887675
-0.032350298 -0.5951377 -0.5681716 -0.044205014 1.334521 -0.37011936 1.3261098 0.052370183
-0.30153507 -0.029188406 0.18499812 -0.5916306 -0.27594587 0.6457334 -0.07190929 -0.27977902
-0.27903217 0.50395966 -0.12402406 -0.17261772 0.18751523 -0.64422965 -0.25269723 -0.72635406
-0.5931565 -0.044997305 0.2940437 -0.46234542 0.21378744 -0.4337631 -0.8175274 -0.6983007
0.49803668 0.65564203 0.06005211 0.015078223 0.123175964 0.28131416 1.4244521 0.43321776
1.2004491 0.20209362 0.1517385 0.36423576 0.48819378 -0.008956514 0.5244791 0.3738481
00000000: 37cf abbe 408e e2be f70a bd3e c7bd 2c3f
00000010: 71d4 4c3d cb4a bb3b 8b6a 29bd 7b61 943e
00000020: d966 533f 4500 ce3f 6472 5d3f 11f3 4d3f
00000030: fd24 ee3e 0281 503e a659 c13d 2cd6 d9be
00000040: 617c eebd 7eca 32be ef0b 50bf 0733 c13e
00000050: 7acd 733f a561 cfbd 816b 92bd d416 56be
00000060: d56d 0a3e 7694 833f 1f79 143f c48a 143f
00000070: 1fdc cb3d 052e c03e 4684 0fbe d3dd 1e3e
00000080: 160c f8be 6171 293e 0a2a 603c c3ee 5bbe
00000090: 31b7 99be 532c b5be 60fa 943e 464d b13e
000000a0: d40b b2be 941e 1e3e 42c5 72bf 4c4d 16bf
000000b0: 9028 d1be 78ec d9bd 448b 1a3d 3edf 4e3e
000000c0: a2ef 44be 7c30 56be 653a f0be 17c5 0dbf
000000d0: ffdf 21bf a75f 633f fcd4 473f 2c6c dbbe
000000e0: 90f6 77bc c3db 46be 3efa e0bd 85ae ae3f
000000f0: 6ba6 9a3f 68aa 843f e507 773d 7960 e23e
00000100: 65b3 a73c bfa8 5e3d a5f5 9ebe b5ba eb3e
00000110: c301 36bf 3187 30bb 6bf9 86bf 0fcc b3bf
00000120: 0d45 e33e 06b6 4a3e 7ffb 89bf 776f a23f
00000130: fefc 0d3f 598f 0ec0 843e b73f 28b7 24bf
00000140: f4d9 bcbd cd08 02bf c3d3 d43e 2867 d5bd
00000150: 2e41 7b3c afdf 00be fb20 04bf f0d2 40bf
00000160: 477a 1fbf 3462 1c3f 1f16 8bbd 6caa d5be
00000170: 60ba 273e 6ad0 503f 3cb9 67bf 4d09 0b3f
00000180: 6e63 52bf 7f8a 02be 5745 a5be 6f98 d73d
00000190: 2541 d6be b3cd 56be 09c8 60bf a3d3 f7be
000001a0: 0f52 85bf fa9d 89bf 89c8 3a3e 379a 22bf
000001b0: 17f5 b5bf e580 8f3e 3a09 5b3f 19b6 99bf
000001c0: b171 aa3f 3acf b3bf aab3 d3be afb7 6cbe
000001d0: 1155 d03e 91af 14bf beb2 a63d 9f07 4dbf
000001e0: 846b 1fbf ac66 683f 2ee1 4b3f bfd4 eb3d
000001f0: 0454 1d3e d383 66be 8f78 9bbe a994 c13f
00000200: 2ee5 773f ff1a 513f 7a6f ef3e 5e28 973e
00000210: 17d4 a63e 45b4 d63c 879f 02bf f12a ae3c
00000220: 461d f4be 2a0a 9f3d 5012 ab3f 8981 d83f
00000230: 8060 f5be 4168 4f3f 806d 843f c3ae c8bd
00000240: ed68 8a3f 7533 0240 1e09 1e3f dbe8 993f
00000250: a678 083f 4810 113f ac58 a0bd f8ee b0be
00000260: d195 4e3e 58fe 53be 9874 3abc 59f4 89bf
00000270: 0175 25c0 948d d23f 6894 cc3e 783c 19bf
00000280: e567 5340 ab4e 69be 2499 1dc0 e024 a73f
00000290: 0c24 78bf 353e 00bf fd88 83bf 32e7 293e
000002a0: 1de5 d2be bde2 08be 29a4 a63e bf32 3b3e
000002b0: 9820 833f 9a20 de3f a25d 1dbf 8f19 403e
000002c0: e0e2 973f 768d 07bf 0250 c33e 8704 1e40
000002d0: 1da0 b83e 1998 ba3f eb37 5abc d789 a73d
000002e0: 91aa a4bc 8e8b 3b3e 3b32 0c3f a31c d93e
000002f0: 9315 b13e 00d4 54be 172d 9ebe f7f6 1c3c
00000300: c9aa a33e a4c5 533e febb 2c3e 3034 a4bf
00000310: 3b71 77bf aa51 42bf a05a f7bc e48f 77be
00000320: 5285 c6be ab65 24bf d6da 6a3e a0b3 80be
00000330: 1d54 8cbf 6062 47bf 7c24 e9bd 3a21 60be
00000340: bf81 04bd f25a 18bf b273 11bf 5110 35bd
00000350: 96d1 aa3f 4980 bdbe f7bd a93f 1e82 563d
00000360: ce62 9abe 861c efbc 2670 3d3e 1a75 17bf
00000370: c748 8dbe c94e 253f 2e45 93bd 323f 8fbe
00000380: 4edd 8ebe 8003 013f 5400 febd b3c2 30be
00000390: fe03 403e 3cec 24bf 8861 81be 57f2 39bf
000003a0: 1bd9 17bf 184f 38bd e58c 963e 8ab8 ecbe
000003b0: 18eb 5a3e 3216 debe 7a49 51bf d6c3 32bf
000003c0: aafe fe3e 28d8 273f 34f9 753d a70a 773c
000003d0: ae43 fc3d 6908 903e 7254 b63f b8ce dd3e
000003e0: 51a8 993f a1f1 4e3e 5661 1b3e 1c7d ba3e
000003f0: 89f4 f93e 58be 12bc 4344 063f 0569 bf3e

encoder.convs.0.convs.<food___contains___ingredient>.lin_dst.weight f4 [18, 101]
0.3813627 0.20614477 0.009243469 0.33590636 -0.105376 0.08270781 0.25641918 0.18039107
0.25728443 0.13595302 -0.160811 0.3248575 0.5108254 0.42230275 0.24944842 0.2510408
0.36401114 0.20009291 0.43868163 0.46830183 0.16056943 0.43606776 0.42087436 0.5131429
0.41153693 0.45885795 0.19928265 0.14826596 0.28598958 0.2816096 0.5514656 0.5826434
0.33687994 0.38255438 0.5334972 0.42666855 0.2501344 0.3774175 0.15589796 0.038763564
0.3394728 0.53970665 0.2641928 0.30532572 0.5848991 0.16507383 0.5659519 0.25364625
0.15114254 0.4171646 0.5360375 0.38076124 0.1706174 0.2245068 0.14317389 0.15933897
0.13729322 0.3820267 0.4590386 0.3463612 0.49332407 0.524107 0.16971138 0.20562847
0.37060463 0.5131521 0.4178334 0.35888886 0.18924814 0.5102762 0.21207412 0.30210596
0.3417011 0.40684336 0.49164242 0.36115104 0.24395967 0.54716766 0.25980216 0.41677773
0.31616512 0.39643922 0.25168392 0.40655136 0.49424264 0.3760295 0.18006946 0.24569026
0.33745795 0.27107626 0.46331248 0.40129414 0.4374991 0.1679874 0.57761127 0.2001552
0.40527895 0.46399337 0.26899743 0.4490414 0.4864416 -0.4743464 -0.0699918 -0.03411278
-0.15165673 -0.28172675 -0.22279085 -0.051345177 -0.21227503 -0.03014403 -0.19432679 0.13603793
-0.32072398 -0.1611453 -0.3127863 -0.5058503 -0.53562325 -0.16280617 -0.16755159 -0.43629262
-0.37263328 -0.26217696 -0.11300389 -0.13909793 -0.1569004 -0.22748964 -0.26194057 -0.19927737
-0.21204887 -0.39727026 -0.30626887 -0.1382799 -0.14047417 -0.38324943 -0.42331138 -0.2749213
-0.18543653 -0.2636586 -0.4653615 -0.5202782 -0.18835822 -0.23407492 -0.3231276 -0.28406397
-0.099763006 -0.3727395 -0.5231706 -0.16204573 -0.26254052 -0.14377561 -0.4839674 -0.19104694
-0.08108135 -0.3639862 -0.43084666 -0.5042284 -0.33485034 -0.35474488 -0.50012004 -0.121068135
-0.11024923 -0.13464828 -0.41667372 -0.21801274 -0.3961171 -0.51621747 -0.37173638 -0.1978033
-0.35248378 -0.33223447 -0.27294636 -0.23186705 -0.37806228 -0.37193945 -0.34573877 -0.5295612
-0.16723718 -0.49284637 -0.21810672 -0.41772863 -0.25237563 -0.5396944 -0.16789147 -0.38644797
-0.25299728 -0.1304644 -0.09504352 -0.30191156 -0.5172455 -0.32555577 -0.314205 -0.20584466
-0.14191452 -0.35206738 -0.13652298 -0.40512252 -0.3044587 -0.118376546 -0.29458058 -0.40410072
-0.23935473 -0.20906965 -0.41223633 -0.052675698 -0.12571156 -0.23424913 -0.21825483 -0.12736593
-0.25317642 0.081840344 -0.30639717 -0.20886067 0.11141482 -0.15867671 -0.41926408 -0.25353482
-0.2971514 -0.10280696 -0.042051345 -0.5026571 -0.34074363 -0.087182775 -0.27408966 -0.32849756
-0.4080647 -0.34201282 -0.31420594 -0.25206342 -0.12153565 -0.43332788 -0.23390786 -0.30108243
-0.11333364 -0.50341326 -0.32961407 -0.36218065 -0.21282908 -0.14551347 -0.3841996 -0.28991166
-0.21468821 -0.062183417 -0.2135223 -0.44373015 -0.280807 -0.4888131 -0.32047874 -0.5209713
-0.21497831 -0.21973799 -0.19655259 -0.4622249 -0.18766423 -0.3460011 -0.25533456 -0.36563063
00000000: f941 c33e 9d17 533e eb71 173c ebfb ab3e
00000010: 5fcf d7bd b662 a93d 6049 833e 70b8 383e
00000020: c9ba 833e 4537 0b3e a4ab 24be b953 a63e
00000030: 74c5 023f 1138 d83e 686f 7f3e 6b88 803e
00000040: ab5f ba3e 28e5 4c3e e19a e03e 42c5 ef3e
00000050: 506c 243e 4644 df3e d87c d73e 555d 033f
00000060: f8b4 d23e 6eef ea3e c010 4c3e 08d3 173e
00000070: 3a6d 923e 222f 903e d92c 0d3f 1e28 153f
00000080: 877b ac3e 2bde c33e 4693 083f 4d74 da3e
00000090: 9e11 803e de3c c13e b7a3 1f3e 8bc6 1e3d
000000a0: 61cf ad3e 372a 0a3f 4744 873e a753 9c3e
000000b0: f3bb 153f 1d09 293e 39e2 103f ecdd 813e
000000c0: 1cc5 1a3e 9996 d53e c139 093f 23f3 c23e
000000d0: 54b6 2e3e 1ce5 653e 2d9c 123e c129 233e
000000e0: 9896 0c3e 0199 c33e 1b07 eb3e 4156 b13e
000000f0: f994 fc3e e02b 063f d2c8 2d3e 4590 523e
00000100: e4bf bd3e f05d 033f 42ee d53e 48c0 b73e
00000110: 44ca 413e 76a1 023f f529 593e a2ad 9a3e
00000120: 72f3 ae3e c64d d03e 8eb8 fb3e cae8 b83e
00000130: 90d0 793e 2e13 0c3f ca04 853e e463 d53e
00000140: 65e0 a13e 15fa ca3e b7dc 803e 8027 d03e
00000150: 5f0d fd3e f086 c03e 2164 383e 3a96 7b3e
00000160: 4ac7 ac3e 82ca 8a3e 4b37 ed3e 6d76 cd3e
00000170: e2ff df3e e404 2c3e 55de 133f 7cf5 4c3e
00000180: b980 cf3e 8a90 ed3e 08ba 893e c1e8 e53e
00000190: e00e f93e 88dd f2be dc57 8fbd d8b9 0bbd
000001a0: e74b 1bbe 7d3e 90be 4923 64be 524f 52bd
000001b0: a05e 59be 9df0 f6bc 9afd 46be 874d 0b3e
000001c0: ef35 a4be 4603 25be 8725 a0be 687f 01bf
000001d0: 9b1e 09bf a9b6 26be a592 2bbe bf61 dfbe
000001e0: cac9 bebe 0f3c 86be 956e e7bd b06f 0ebe
000001f0: 80aa 20be 0bf3 68be 131d 86be 5e0f 4cbe
00000200: 5723 59be 0267 cbbe 46cf 9cbe 3f99 0dbe
00000210: 76d8 0fbe 4539 c4be 45bc d8be 7cc2 8cbe
00000220: 13e3 3dbe 43fe 86be dd43 eebe f430 05bf
00000230: fae0 40be 56b1 6fbe fb70 a5be d570 91be
00000240: 8c50 ccbd b6d7 bebe 82ee 05bf 51ef 25be
00000250: b66b 86be ea39 13be 93ca f7be cfa1 43be
00000260: fb0d a6bd 665c babe ef97 dcbe 1d15 01bf
00000270: 8171 abbe 1fa1 b5be de07 00bf 92f2 f7bd
00000280: 59ca e1bd 3de1 09be 4256 d5be bb3e 5fbe
00000290: dccf cabe d426 04bf 3b54 bebe f38c 4abe
000002a0: c178 b4be a31a aabe a0bf 8bbe 8e6e 6dbe
000002b0: 6191 c1be d96e bebe ac04 b1be 5391 07bf
000002c0: 3940 2bbe 5c56 fcbe 5e57 5fbe 87e0 d5be
000002d0: 6137 81be 6a29 0abf beeb 2bbe 82dc c5be
000002e0: dc88 81be 7698 05be 2da6 c2bd 2794 9abe
000002f0: 336a 04bf 3faf a6be 7adf a0be f1c8 52be
00000300: 0a52 11be 2d42 b4be aecc 0bbe 386c cfbe
00000310: 03e2 9bbe 676f f2bd 44d3 96be 4ae6 cebe
00000320: 6819 75be 5b16 56be a410 d3be 79c2 57bd
00000330: 88ba 00be 01df 6fbe 327e 5fbe 376c 02be
00000340: 57a0 81be e99b a73d 17e0 9cbe 92df 55be
00000350: 742d e43d 267c 22be c8a9 d6be 51cf 81be
00000360: 3a24 98be 758c d2bd 083e 2cbd 23ae 00bf
00000370: f375 aebe e28c b2bd 7b55 8cbe d530 a8be
00000380: dbed d0be 4e1c afbe 9adf a0be 750e 81be
00000390: afe7 f8bd 27dd ddbe 8b85 6fbe 7a27 9abe
000003a0: 781b e8bd b1df 00bf 2dc3 a8be be6f b9be
000003b0: deef 59be 7c01 15be cfb5 c4be 4d6f 94be
000003c0: 3ad7 5bbe 0ab4 7ebd 97a5 5abe 9930 e3be
000003d0: efc5 8fbe b645 fabe ca15 a4be 605e 05bf
000003e0: 4623 5cbe ff02 61be 1545 49be bea8 ecbe
000003f0: 0d2b 40be 0e27 b1be 36bb 82be f033 bbbe

encoder.convs.0.convs.<food___eaten_at___time>.att_src f4 [1, 1, 18]
-0.13233638 -0.19349006 0.3346003 0.605243 -0.562499 0.30520898 -0.49401063 0.14319174
-0.40304205 0.62223953 -0.04904325 -0.6825395 -0.19547097 0.10371526 -0.03797959 0.47377852
0.52354693 0.1269154
00000000: 3083 07be 4222 46be bb50 ab3e 35f1 1a3f
00000010: efff 0fbf 5a44 9c3e f6ee fcbe dba0 123e
00000020: 875b cebe 174b 1f3f 93e1 48bd e9ba 2ebf
00000030: 8b29 48be ab68 d43d 7d90 1bbd 1993 f23e
00000040: 2c07 063f 1cf6 013e

encoder.convs.0.convs.<food___eaten_at___time>.att_dst f4 [1, 1, 18]
-0.14419161 -0.46978357 0.3026001 0.4256682 -0.28494403 0.2143945 -0.08852911 0.31432283
0.0026832502 -0.15057036 0.58418316 0.230937 0.4238404 -0.04171436 0.046777233 0.23007697
0.4996719 0.0013406003
00000000: f7a6 13be 7987 f0be 66ee 9a3e 2ff1 d93e
00000010: 2fe4 91be 3b8a 5b3e c04e b5bd ecee a03e
00000020: 78d9 2f3b 1e2f 1abe 078d 153f c07a 6c3e
00000030: 9c01 d93e addc 2abd 7c99 3f3d 4c99 6b3e
00000040: ffd4 ff3e 15b7 af3a

encoder.convs.0.convs.<food___eaten_at___time>.bias f4 [18]
-0.08273254 0.09772422 -0.024639593 0.010451289 -0.045361836 -0.02910012 -0.10222176 0.1146203
-0.08722784 -0.03507019 0.019707937 0.032147966 -0.050528865 0.020889292 0.38874197 -0.0016847376
0.11794127 0.010471847
00000000: ae6f a9bd a323 c83d f9d8 c9bc e23b 2b3c
00000010: 55cd 39bd 6063 eebc a459 d1bd 0cbe ea3d
00000020: 83a4 b2bd c2a5 0fbd 8a72 a13c 96ad 033d
00000030: 5bf7 4ebd 0520 ab3c 3009 c73e 6ad2 dcba
00000040: 318b f13d 1c92 2b3c

encoder.convs.0.convs.<food___eaten_at___time>.lin_src.weight f4 [18, 17]
-0.25490528 -0.66416043 -0.37114215 0.070729434 -0.2711533 0.02114928 -0.059799746 0.18902054
0.07026283 0.1394776 0.21424493 -0.2028745 -0.12213142 0.8705049 -0.25886086 0.21964803
-0.20132445 -0.075137064 -0.7842802 0.06373606 0.024371475 -0.07847586 0.33088621 0.5561839
0.010187738 -0.10778653 0.30773774 0.5433498 0.09457871 0.27288085 0.0326719 0.36284125
-0.40002722 -0.29969034 0.31355196 -0.5453422 0.33685046 -0.16420731 0.25606906 -0.06867785
-0.14811441 0.14813302 -0.3819271 -0.26474348 -0.040630437 -0.45033538 0.24545677 0.3760217
-0.57551485 -0.58358693 -0.2162527 0.516403 0.71076465 -0.27168563 -0.38471806 -0.37010127
-0.17742415 0.10598181 0.148029 0.17130473 -0.3152989 -0.09803942 -0.23029876 -0.60841674
0.09380603 -0.5792862 -0.59686005 -0.54902965 -0.23437054 -0.5148954 0.3966034 -0.2562509
0.16275108 -0.34651223 -0.134717 0.26396558 0.5269352 -0.16510877 0.06778807 -0.15513511
0.5955166 0.42204434 0.6868673 0.3628479 0.3715654 1.1075704 0.53696954 0.2566438
-0.27125123 -0.5208714 -0.06739723 0.13985737 -0.53324 -0.27971694 0.11933244 0.35591477
-0.18590271 -0.44062698 -0.05148033 -0.41853374 -0.41063026 -0.33203766 -0.47698525 -1.563451
0.006613114 0.30778575 -0.023854038 0.3841204 0.3016518 -0.22148615 -0.48879838 0.15402307
-0.28037822 0.08284962 0.12564738 -0.005589 0.33984685 0.54104555 0.31614175 -0.11128048
0.78876317 -0.52112895 -0.13869809 0.13879807 -0.02357553 -0.061239943 -0.0014266052 -0.22995393
0.33575812 -0.69905853 -0.6010967 -0.14841259 -0.3633224 0.054767024 -0.5017911 -0.3941217
-0.43245584 -0.75418496 0.22457014 -0.052020315 0.31282905 0.28297877 0.082080774 -0.043745495
0.5375287 0.4278146 0.081068255 0.22930439 0.05780213 0.19378927 0.44021085 0.34944072
0.43455765 1.2058685 1.0706794 0.16375566 0.3123539 0.53138936 0.23311663 -0.30562067
0.22605498 -0.18805735 -0.27415007 0.40507802 0.06785771 0.2601126 0.03141315 -0.8232422
-0.24902706 -0.2775883 -0.06404497 -0.1699962 -0.010203416 -0.14197151 -0.5411734 0.16946207
0.247266 0.052813165 0.03360753 -0.076792695 -0.3131503 -0.012079323 -0.3260921 -0.33065096
-0.22854018 -0.14816862 -0.36548087 -0.33425084 -0.68656373 0.37089726 0.23813029 0.4369407
-0.22019428 0.21390447 0.26412758 0.021605814 0.10686561 0.12313067 0.3746043 -0.10972739
0.053596616 0.4017399 0.4381928 0.5141066 0.18273456 -0.6355962 0.22528724 0.12420114
-0.033144217 0.1992644 0.20982571 0.36141968 0.0989023 -0.09660168 0.3753913 0.21444409
0.1281302 0.43121475 -0.10551524 0.5099327 0.22305825 -0.026798457 0.56126386 -0.006243192
-0.08809264 0.4967398 -0.023344265 0.43994194 -0.06684393 -0.092300124 0.0076570427 -0.1346073
0.6518727 -0.081008576 -0.1425941 -0.04124894 -0.04994415 0.37872636 0.61681134 -0.19601618
-0.054718003 0.2984057 -0.20434618 0.2871793 0.41457585 -0.29761302 0.20758304 0.20032698
0.2127947 0.010242823 -0.3812615 0.26778427 -0.13421226 -0.2040057 -0.8107256 0.2645612
00000000: f282 82be 6b06 2abf 5806 bebe 98da 903d
00000010: 9bd4 8abe 4141 ad3c 94f0 74bd 9a8e 413e
00000020: f5e5 8f3d 37d3 0e3e 0663 5b3e 55be 4fbe
00000030: 0a20 fabd 69d9 5e3f 6989 84be 6aeb 603e
00000040: ff27 4ebe 76e1 99bd 96c6 48bf 0d88 823d
00000050: b0a6 c73c f4b7 a0bd eb69 a93e 1162 0e3f
00000060: 78ea 263c 2fbf dcbd cd8f 9d3e f918 0b3f
00000070: 7cb2 c13d 0ab7 8b3e f8d2 053d 54c6 b93e
00000080: 5ed0 ccbe 0371 99be e289 a03e 8c9b 0bbf
00000090: aa77 ac3e f625 28be 7c1b 833e f9a6 8cbd
000000a0: 4eab 17be 2fb0 173e f38b c3be 758c 87be
000000b0: 1a6c 26bd 5c92 e6be 0559 7b3e eb85 c03e
000000c0: f154 13bf f465 15bf 5971 5dbe fd32 043f
000000d0: acf4 353f 611a 8bbe c4f9 c4be ea7d bdbe
000000e0: adae 35be fe0c d93d ea94 173e 826a 2f3e
000000f0: db6e a1be e4c8 c8bd 70d3 6bbe 33c1 1bbf
00000100: 601d c03d 1a4c 14bf d2cb 18bf 358d 0cbf
00000110: d5fe 6fbe 2fd0 03bf 9a0f cb3e 5133 83be
00000120: 38a8 263e 0d6a b1be 41f3 09be 7f26 873e
00000130: 3ae5 063f 4612 29be 79d4 8a3d bddb 1ebe
00000140: c773 183f 3216 d83e 89d6 2f3f 33c7 b93e
00000150: d23d be3e dec4 8d3f d676 093f d166 833e
00000160: 71e1 8abe d457 05bf 8f07 8abd c536 0f3e
00000170: 6b82 08bf 0f37 8fbe 9164 f43d 763a b63e
00000180: 485d 3ebe dc99 e1be 0add 52bd 0e4a d6be
00000190: 213e d2be d700 aabe 6937 f4be 2a1f c8bf
000001a0: d2b2 d83b 1896 9d3e 8b69 c3bc 6eab c43e
000001b0: 1b72 9a3e 44cd 62be c843 fabe 39b8 1d3e
000001c0: bc8d 8fbe 10ad a93d b5a9 003e ee23 b7bb
000001d0: 6800 ae3e f681 0a3f 55dd a13e 05e7 e3bd
000001e0: 62ec 493f b568 05bf df06 0ebe 1521 0e3e
000001f0: 7821 c1bc bcd6 7abd edfc baba 0b79 6bbe
00000200: 7de8 ab3e 80f5 32bf 79e1 19bf 78f9 17be
00000210: 6505 babe 6353 603d 6275 00bf 52ca c9be
00000220: da6a ddbe 4412 41bf b7f5 653e 4113 55bd
00000230: 212b a03e 98e2 903e f719 a83d 7a2e 33bd
00000240: 7b9b 093f 840a db3e 1d07 a63d c5ce 6a3e
00000250: edc1 6c3d b270 463e 5163 e13e e5e9 b23e
00000260: 577e de3e e659 9a3f 060c 893f 90af 273e
00000270: daec 9f3e 2209 083f 20b6 6e3e 507a 9cbe
00000280: f57a 673e 1b92 40be 665d 8cbe 6366 cf3e
00000290: fcf8 8a3d 7b2d 853e 13ab 003d 00c0 52bf
000002a0: f300 7fbe 0e20 8ebe 022a 83bd 7c13 2ebe
000002b0: 3b2c 27bc fb60 11be 578a 0abf 7787 2d3e
000002c0: 4c33 7d3e 9e52 583d 0da8 093d 7d45 9dbd
000002d0: 3c55 a0be 5ae8 45bc 8bf5 a6be 154b a9be
000002e0: 7006 6abe 84b9 17be 4f20 bbbe ed22 abbe
000002f0: a4c2 2fbf 3fe6 bd3e 6dd8 733e b1b6 df3e
00000300: 9c7a 61be c609 5b3e bb3b 873e adfe b03c
00000310: 5bdc da3d ef2b fc3d 23cc bf3e c1b8 e0bd
00000320: 2088 5b3d dab0 cd3e cf5a e03e 7d9c 033f
00000330: c51e 3b3e 6fb6 22bf b3b1 663e 2b5d fe3d
00000340: 3bc2 07bd f80b 4c3e 8ddc 563e 000c b93e
00000350: 4a8d ca3d 1ad7 c5bd 4a33 c03e 3b97 5b3e
00000360: 9034 033e 2ec8 dc3e 6018 d8bd f38a 023f
00000370: 6269 643e 7088 dbbc fdae 0f3f b193 ccbb
00000380: ea69 b4bd ae54 fe3e 793c bfbc 1240 e13e
00000390: 78e5 88bd d907 bdbd eee7 fa3b 7fd6 09be
000003a0: 21e1 263f d3e7 a5bd 3004 12be a6f4 28bd
000003b0: 3d92 4cbd 6ce8 c13e 59e7 1d3f 77b8 48be
000003c0: fc1f 60bd a2c8 983e 2040 51be 2a09 933e
000003d0: 4943 d43e bc60 98be a690 543e 8422 4d3e
000003e0: dbe6 593e 83d1 273c b534 c3be 051b 893e
000003f0: f06e 09be dfe6 50be b78b 4fbf 9174 873e
