etc/old3/models/best_model_AUC_0.8855.pt (torch, 343393 bytes, 144 tensors)

encoder.convs.0.convs.<user___healthness___food>.att_src f4 [1, 1, 44]
0	0x3e9c44d7	0.3052127
1	0x3e2905d0	0.16506124
2	0x3d6951e3	0.05696286
3	0xbda50a9b	-0.080586635
4	0x3ea08cbc	0.31357372
5	0xbe7eb7ad	-0.24874754
6	0x3e94be60	0.29051495
7	0x3e9ed560	0.31022167
8	0x3d9028d8	0.0703904
9	0xbe177adf	-0.14792965
10	0xbe9c4153	-0.30518588
11	0xbcfbc71a	-0.030734587
12	0x3ea48884	0.32135403
13	0x3b991f75	0.0046729394
14	0xbda5ebbf	-0.081016056
15	0xbe330359	-0.17481746
16	0x3d1f55b2	0.038900085
17	0x3e595e2d	0.21227331
18	0x3da8febb	0.08251711
19	0x3d58fa18	0.052972883
20	0xbe86fd67	-0.26365206
21	0x3e29d0dd	0.16583581
22	0x3cfbfef0	0.030761212
23	0xbeb62afe	-0.35579675
24	0x3e964e56	0.2935664
25	0x3e642598	0.22279966
26	0xbb610c2d	-0.0034339533
27	0xbdaa166d	-0.08305059
28	0x3eacf50e	0.33780712
29	0x3ebe1ea5	0.37132755
30	0x3d4599d9	0.048242424
31	0x3eb2bb6c	0.34908617
32	0x3e1362f2	0.14393213
33	0x3e2745d7	0.16335236
34	0xbc1cac74	-0.0095626
35	0xbd16a233	-0.03677578
36	0x3e73504a	0.23761097
37	0xbe188584	-0.14894682
38	0xbe8b0c78	-0.2715795
39	0x3e5dfd67	0.21678697
40	0xbd9f40ea	-0.07776053
41	0x3e7cf7c6	0.24703893
42	0xbd90e40d	-0.07074747
43	0xbe5b006f	-0.21386884

encoder.convs.0.convs.<user___healthness___food>.att_dst f4 [1, 1, 44]
0	0xbc1531c9	-0.009106108
1	0xbd2eed68	-0.042706877
2	0x3da55865	0.080735005
3	0xbe91dcd4	-0.2848879
4	0xbe9f0f6e	-0.3106646
5	0x3c9fb288	0.01949431
6	0x3ea997df	0.3312368
7	0xbe6a6f33	-0.22893982
8	0xbe398660	-0.18117666
9	0x3d0e8eb4	0.03480406
10	0x3e8cdbaf	0.27511355
11	0x3e8eaab4	0.2786461
12	0xbda1c555	-0.07898966
13	0xbcafb5e1	-0.021449031
14	0xbe91bda6	-0.28465003
15	0x3eb73873	0.35785255
16	0x3e6148a9	0.22000374
17	0x3dc14a87	0.09438043
18	0xbeb51691	-0.3536878
19	0x3e538a92	0.20658329
20	0xbe52dda8	-0.20592368
21	0x3c8dd994	0.017315663
22	0x3e314958	0.17313135
23	0xbc824198	-0.015900418
24	0xbe390070	-0.18066573
25	0x3e7fa24c	0.24964255
26	0x3e7f9556	0.24959311
27	0x3d16975d	0.036765445
28	0xbe699751	-0.22811629
29	0xbe3fd1ce	-0.18732378
30	0xbea9872f	-0.3311095
31	0xbe48373c	-0.1955232
32	0xbea5d89d	-0.32391825
33	0xbcfa420c	-0.030549072
34	0xbe833687	-0.2562754
35	0x3e55d990	0.20883775
36	0xbe962c2b	-0.29330572
37	0xbe80227a	-0.25026304
38	0xbe65cf8d	-0.22442456
39	0xbdc7a222	-0.09747721
40	0x3e151463	0.14558558
41	0x3e865d69	0.2624314
42	0x3ebace57	0.3648555
43	0xbdb6cf99	-0.08926315

encoder.convs.0.convs.<user___healthness___food>.att_edge f4 [1, 1, 44]
0	0x3daf9178	0.08572668
1	0x3cd29b30	0.025708765
2	0x3e4e3894	0.2013877
3	0x3e2fb618	0.17159307
4	0x3e5bd8d8	0.21469438
5	0x3e7f0b74	0.24906713
6	0x3e9ba298	0.30397487
7	0x3c98d1a0	0.018654644
8	0x3e82e092	0.2556196
9	0xbe5219e3	-0.20517687
10	0xbd9d0cc0	-0.076684475
11	0xbdd0ed44	-0.10201505
12	0xbddfe914	-0.10933128
13	0x3cab49c0	0.02090919
14	0xbeafe581	-0.34354785
15	0xbe53ec34	-0.20695573
16	0xbd0c3488	-0.034229785
17	0x3d9664dc	0.07343456
18	0x3e847638	0.25871444
19	0xbe805d45	-0.2507116
20	0x3db675c0	0.08909178
21	0x3e2c8e48	0.16851151
22	0xbe47826e	-0.19483349
23	0x3d7e58b8	0.062096328
24	0xbe43fb45	-0.1913882
25	0xbc1f8000	-0.009735107
26	0xbe4d7736	-0.20065007
27	0xbdd146a8	-0.10218555
28	0xbe13eae1	-0.14445068
29	0x3ea1c216	0.31593388
30	0x3db47d38	0.08812946
31	0xbeb5610c	-0.35425603
32	0x3d3d4358	0.046206802
33	0x3e4be6d0	0.19912267
34	0xbe22d4ed	-0.15901537
35	0xbe5f9abf	-0.21836375
36	0xbd92d5f4	-0.071697146
37	0xbea52378	-0.32253623
38	0xbe0b1e4a	-0.13585773
39	0x3d37b970	0.04485458
40	0xbe8b7b76	-0.2724263
41	0xbeb192c6	-0.34682292
42	0xbe5e4bc5	-0.21708591
43	0xbe8891ea	-0.26673824

encoder.convs.0.convs.<user___healthness___food>.bias f4 [44]
0	0x32bd6bb1	2.2051468e-08
1	0xb31c2b0a	-3.6360724e-08
2	0x331b21ca	3.611948e-08
3	0xb20729fa	-7.867579e-09
4	0xb2179525	-8.823268e-09
5	0xb294ea1b	-1.7335926e-08
6	0xb40d4947	-1.3158306e-07
7	0x3096c14b	1.0968874e-09
8	0x33a01ee7	7.456202e-08
9	0x346e4437	2.2190294e-07
10	0x3298c0ac	1.7782746e-08
11	0xb264e327	-1.3322995e-08
12	0x31bb6783	5.454184e-09
13	0x3278a0a2	1.4472024e-08
14	0x34d6337a	3.989806e-07
15	0x329b2081	1.8059156e-08
16	0x3277c901	1.4422995e-08
17	0x33794f16	5.804676e-08
18	0xb1be7017	-5.542471e-09
19	0xb2c1e9c8	-2.2574469e-08
20	0xb0d92cca	-1.5801558e-09
21	0x31a99192	4.9350968e-09
22	0xb2dae48e	-2.5482475e-08
23	0xb10e4d21	-2.0707562e-09
24	0x324982ec	1.1729508e-08
25	0xb21eed57	-9.250775e-09
26	0xb39c1d95	-7.269697e-08
27	0xb28c919d	-1.6364362e-08
28	0xb16da461	-3.4581478e-09
29	0x33c0e2fd	8.9819856e-08
30	0x327ef8ef	1.4841347e-08
31	0x3135fa8d	2.6481388e-09
32	0x3150db99	3.039281e-09
33	0xb13595c8	-2.6424107e-09
34	0x348698ec	2.507071e-07
35	0x3206f64c	7.855828e-09
36	0x31816569	3.765923e-09
37	0x32e791a6	2.6958173e-08
38	0x319d6228	4.5804605e-09
39	0x3139bfdd	2.7030105e-09
40	0x31208351	2.335771e-09
41	0xb192cdd7	-4.2725605e-09
42	0xb2912f5a	-1.6901755e-08
43	0x31b84024	5.3623967e-09

encoder.convs.0.convs.<user___healthness___food>.lin_src.weight f4 [44, 29]
0	0x3dab3422	0.08359553
1	0xbe8c2c73	-0.27377662
2	0xbd5f8899	-0.05457363
3	0xbe86383b	-0.26214775
4	0xbe4631d9	-0.19354953
5	0xbc5ea210	-0.013588443
6	0x3e097772	0.13424471
7	0xbd57d46b	-0.052692812
8	0x3c85f4c0	0.016352057
9	0xbdfec5e0	-0.124400854
10	0xbe1cd81d	-0.15316816
11	0x3e7843fb	0.24244682
12	0x3e46905a	0.19391003
13	0xbe88b7c7	-0.2670271
14	0xbd8de042	-0.069275394
15	0xbe7531fd	-0.2394485
16	0x3e2a5585	0.16634186
17	0xbe022469	-0.12709202
18	0x3b406c6b	0.0029361497
19	0xbe32ceee	-0.1746175
20	0xbe8c0dbd	-0.2735423
21	0x3e579c82	0.21055797
22	0x3e86e555	0.2634684
23	0xbe65b87d	-0.22433658
24	0xbe359f1d	-0.17736478
25	0xbcd8f01a	-0.026481677
26	0xbe80ce2c	-0.25157297
27	0xbbe64fa4	-0.007028537
28	0x3e823a07	0.25434896
29	0xbd9e15a0	-0.077189684
30	0xbe804817	-0.25055
31	0xbe05806f	-0.13037275
32	0x3db264f5	0.08710662
33	0xbe04f151	-0.1298268
34	0xbe436a8a	-0.1908361
35	0x3e501b9d	0.20323034
36	0xbe024601	-0.12722017
37	0xbe251841	-0.16122533
38	0xbe7e092c	-0.24808186
39	0x3e198b41	0.14994527
40	0x3d81289a	0.06306572
41	0xbdad37f2	-0.08457936
42	0x3e8e78a6	0.27826422
43	0xbcb9343b	-0.022607913
44	0x3e76cc4f	0.24101375
45	0x3e0622d2	0.1309922
46	0xbe685477	-0.22688471
47	0x3e333701	0.17501451
48	0xbe6c0519	-0.2304882
49	0x3d931b66	0.0718296
50	0xbe435ecf	-0.19079135
51	0x3e42f56a	0.1903893
52	0x3e52f3f0	0.20600867
53	0x3e027ff8	0.12744129
54	0xbe0e5ddf	-0.13902996
55	0xbe3dc048	-0.1853038
56	0x3e04609a	0.12927476
57	0xbd559329	-0.052142296
58	0xbdb2b429	-0.08725769
59	0x3e390e6d	0.18071909
60	0xbd42225d	-0.047396053
61	0xbe4d8116	-0.20068774
62	0xbe8a32e0	-0.2699194
63	0xbe202b78	-0.15641582
64	0xbe1f9089	-0.1558248
65	0xbd699af5	-0.057032544
66	0xbbadd282	-0.0053046355
67	0xbde0b1a0	-0.10971379
68	0x3d8553fc	0.065101594
69	0xbda8fb86	-0.08251099
70	0x3dbbb6eb	0.09165748
71	0x3e7ce2bc	0.24695867
72	0xbe0c3605	-0.13692482
73	0xbe854221	-0.26027015
74	0x3e954e1a	0.2916115
75	0xbe024f4d	-0.12725563
76	0x3aa9f5fc	0.0012966986
77	0x3d444980	0.047921658
78	0x3d9b40d4	0.07580724
79	0xbdd0f315	-0.10202614
80	0x3e2d4c45	0.16923626
81	0xbc0b2875	-0.008493532
82	0x3de173cd	0.11008415
83	0x3dae0864	0.08497694
84	0x3e742291	0.23841311
85	0xbdca8077	-0.09887784
86	0xbe32a962	-0.17447427
87	0xbdfb275a	-0.12263365
88	0x3e0b0c9f	0.13579033
89	0xbe035b88	-0.12827885
90	0x3e282030	0.16418529
91	0x3e709cea	0.23497358
92	0xbe0bd5e4	-0.13655812
93	0x3de7949c	0.11307642
94	0x3b5bd632	0.0033544418
95	0xbe8ea350	-0.27858973
96	0x3d139293	0.036028456
97	0x3e40e238	0.18836296
98	0xbe866f25	-0.26256672
99	0x3bec77b5	0.0072164186
100	0xbe369e7c	-0.17833894
101	0x3e86831b	0.262719
102	0xbe0d2b59	-0.13786067
103	0xbde1bad4	-0.11021963
104	0xbdf5a654	-0.11994615
105	0xbe047b82	-0.1293774
106	0x3d7d7aa9	0.061884556
107	0x3e63c3ef	0.22242711
108	0x3e54f31a	0.20795861
109	0x3e82583f	0.2545795
110	0xbe281c9e	-0.16417167
111	0xbe859a8d	-0.26094475
112	0x3e14081b	0.14456217
113	0x3e3795a8	0.17928183
114	0x3e8c6075	0.2741734
115	0x3e5958f9	0.21225347
116	0x3d9d314c	0.07675418
117	0xbc4d8c90	-0.01254572
118	0x3e3ee342	0.1864138
119	0x3d47016d	0.048585344
120	0xbdd5e75b	-0.10444518
121	0x3de212ed	0.11038766
122	0x3e3aed5b	0.18254606
123	0x3e4edf19	0.20202293
124	0xbe1d663d	-0.15371032
125	0xbded51a3	-0.115878366
126	0x3e729001	0.23687746
127	0xb8e171ed	-0.000107500564
128	0x3e663c3a	0.22483912
129	0xbbf47787	-0.007460538
130	0x3e3cd0f0	0.18439078
131	0xbe19504e	-0.1497204
132	0xbddbb5cd	-0.10728035
133	0xbe05386b	-0.13009803
134	0xbe51ea3d	-0.20499511
135	0xbe8a54a7	-0.2701771
136	0xbe89ef51	-0.26940396
137	0x3de9a253	0.11407914
138	0xbd4bc433	-0.049747657
139	0x3e8218fe	0.25409693
140	0x3d26b442	0.04069925
141	0x3de625ca	0.112376764
142	0xbc4a841b	-0.012360598
143	0xbe8bb37b	-0.2728537
144	0xbe1c497d	-0.15262409
145	0xbe898de1	-0.26866058
146	0x3e822fb0	0.25427008
147	0x3e8844a1	0.2661486
148	0x3dc792ab	0.097447716
149	0xbe434348	-0.19068635
150	0x3d87244f	0.06598722
151	0x3ddb8423	0.107185625
152	0x3e2b6748	0.16738617
153	0xbe750a0f	-0.23929618
154	0xbb918d71	-0.00444191
155	0x3e451f81	0.19250299
156	0x3e84e4be	0.25955766
157	0xbd1cbaa6	-0.03826394
158	0x3e6ca443	0.23109536
159	0xbe52720c	-0.20551318
160	0x3d6ceb94	0.057841852
161	0x3d674892	0.056465693
162	0xbce751b7	-0.028237207
163	0x3e01a36e	0.1266
164	0x3d31371c	0.043265447
165	0xbd05932f	-0.03261107
166	0x3df5c0bf	0.11999654
167	0xbd0fe7d1	-0.035133187
168	0x3c852a9d	0.016255671
169	0x3e7e39de	0.24826762
170	0x3e6312bc	0.22175115
171	0x3e4f5be1	0.20249893
172	0x3e1abcea	0.15111127
173	0xbe2c5d4a	-0.16832462
174	0x3c897b00	0.016782284
175	0x3e571d00	0.21007156
176	0xbda47235	-0.08029596
177	0xbd3e504d	-0.0464633
178	0xbe5999c2	-0.2125006
179	0xbe2e7a7f	-0.17038916
180	0xbdfd8f64	-0.12380865
181	0x3e0bf2a6	0.13666782
182	0x3d80549c	0.06266138
183	0x3e5b035c	0.21388
184	0xbe8b254a	-0.27176887
185	0xbd4f2e7a	-0.050581433
186	0x3e0a1724	0.1348539
187	0xbdd79d9f	-0.10528111
188	0x3d42109d	0.047379125
189	0x3e808430	0.2510085
190	0x3e30c415	0.172623
191	0xbe3456dd	-0.1761126
192	0x3df6b3b7	0.12045997
193	0x3e7f004c	0.24902457
194	0x3b3f0980	0.002914995
195	0x3bf94f56	0.0076083345
196	0x3e70fc37	0.23533712
197	0x3cbed23c	0.023293607
198	0x3de0091b	0.10939237
199	0xbe86fdda	-0.26365548
200	0x3e6a8aa4	0.2290445
201	0xbd37af9f	-0.04484522
202	0xbb7e1a9a	-0.003877318
203	0xbced50ff	-0.028969286
204	0xbe314152	-0.17310074
205	0x3e92dae6	0.2868263
206	0xbd51dd1a	-0.05123625
207	0xbd1676b8	-0.036734313
208	0x3c52e348	0.012871571
209	0xbde85246	-0.113438174
210	0xbe0a66b9	-0.13515748
211	0xbc3eea0b	-0.01165248
212	0xbdbcc774	-0.0921773
213	0x3e8b6fc7	0.27233717
214	0xbe538605	-0.20656593
215	0x3e59fda2	0.2128816
216	0x3e208e5c	0.15679306
217	0x3e8bb15a	0.27283746
218	0xbe80161b	-0.25016865
219	0x3e834857	0.25641128
220	0xbd587ee3	-0.052855384
221	0x3dd9ca66	0.106343076
222	0x3e85d142	0.26136214
223	0xbe7edb6b	-0.24888389
224	0xbd106be3	-0.03525914
225	0xbdceb5df	-0.10093283
226	0xbddbc233	-0.107304
227	0xbce228ef	-0.02760741
228	0x3d51b2d4	0.051195934
229	0xbe28723b	-0.16449825
230	0x3d288ab1	0.04114789
231	0x3e8b741e	0.27237028
232	0x3e895ef0	0.26830244
233	0x3dc2d05e	0.09512399
234	0x3cfa7626	0.030573916
235	0xbd328ea8	-0.04359308
236	0xbdd49b39	-0.10381169
237	0xbe50bd1c	-0.2038464
238	0x3d938388	0.07202822
239	0xbd87c0ae	-0.066285476
240	0xbe0c8591	-0.13722827
241	0x3e177cbb	0.14793675
242	0xbdc6db85	-0.09709839
243	0x3e85195d	0.25995913
244	0x3d907416	0.07053392
245	0x3c1bc0c8	0.009506412
246	0xbe0bfb8a	-0.13670173
247	0xbd2b6293	-0.041842055
248	0x3cd8d564	0.02646894
249	0xbe03acb1	-0.12858845
250	0x3e6dcf12	0.23223522
251	0x3e7d2817	0.24722324
252	0x3e8d9d77	0.276592
253	0x3d9501ee	0.07275759
254	0x3ad49ca5	0.0016221
255	0xbe44d900	-0.19223404

encoder.convs.0.convs.<user___healthness___food>.lin_dst.weight f4 [44, 17]
0	0x3e9ca218	0.30592418
1	0xbe6e6ecc	-0.23284453
2	0x3d1f8d79	0.03895328
3	0x3c632936	0.013864806
4	0x3e1d068f	0.15334533
5	0x3d7549cf	0.059884842
6	0x3e953d0b	0.29148135
7	0x3e7f94ca	0.24959102
8	0x3e2f5389	0.1712171
9	0x3dd7f2f5	0.10544387
10	0x3ced7a4b	0.028988978
11	0x3b920fe5	0.004457461
12	0x3d62a581	0.055333618
13	0xbe1d05c3	-0.15334229
14	0x3e7f0de3	0.24907641
15	0xbe49489f	-0.19656609
16	0x3e0faabb	0.14029972
17	0xbe4eb2c4	-0.20185381
18	0x3e9cb5d6	0.3060748
19	0x3da58fb2	0.08084048
20	0xbc151030	-0.009098098
21	0x3e188041	0.14892675
22	0xbe0ff852	-0.1405957
23	0x3e83511a	0.25647813
24	0x3dceae7d	0.10091875
25	0x3dbc4ea0	0.09194684
26	0xbdd9e336	-0.1063904
27	0xbe994a8f	-0.29939696
28	0xbe65c3fc	-0.22438043
29	0xbe8b98c9	-0.27265003
30	0xbd61861d	-0.05505954
31	0x3d5356e3	0.051596534
32	0x3e4ec234	0.2019127
33	0x3dfdf4e3	0.12400224
34	0x3d45e33b	0.048312407
35	0xbe8a7400	-0.27041626
36	0x3e17bc94	0.1481803
37	0x3c50e639	0.012750202
38	0x3df6a350	0.12042868
39	0xbdc04de8	-0.093898594
40	0xbe9c03fa	-0.30471784
41	0x3e83d4a8	0.2574818
42	0xbe7ffa69	-0.24997868
43	0xbe117631	-0.14205243
44	0x3e0129e2	0.12613633
45	0xbe506bf0	-0.20353675
46	0x3e2149a5	0.1575075
47	0xbe8f2955	-0.2796122
48	0x3e9590c7	0.2921202
49	0x3d82edcc	0.063930124
50	0xbe7168d8	-0.23575151
51	0xbdbbb7e2	-0.09165932
52	0xbe8ba92d	-0.27277508
53	0xbe32da41	-0.1746607
54	0xbe5a88b3	-0.21341209
55	0xbd92b7bf	-0.07163953
56	0x3e6026a1	0.21889736
57	0x3e0d52ce	0.13801119
58	0x3e3c770c	0.18404788
59	0x3e5eed41	0.21770193
60	0xbdf610c3	-0.12014916
61	0x3dbec1a5	0.093142785
62	0x3e837445	0.25674644
63	0xbd4882f8	-0.048953027
64	0xbc452dbb	-0.012034829
65	0x3e9e0330	0.30861807
66	0x3e587578	0.21138561
67	0xbe358966	-0.17728195
68	0x3e04dbd1	0.12974478
69	0x3e55d3ac	0.20881528
70	0x3e3d21e7	0.18469964
71	0xbe5ddc06	-0.21665964
72	0x3e9e14b5	0.30875173
73	0x3dadc63e	0.08485077
74	0xbbf9c268	-0.007622052
75	0x3de8aaab	0.11360677
76	0x3e56d3e6	0.2097927
77	0xbcc2baa7	-0.023770643
78	0x3e7cac23	0.2467504
79	0x3dded20f	0.10879909
80	0xbe069c28	-0.13145506
81	0xbe64d6e0	-0.22347593
82	0x3e960b13	0.29305324
83	0x3e29ce34	0.16582566
84	0xbd1ede9c	-0.038786516
85	0x3e58fae2	0.21189454
86	0x3e6569d9	0.22403659
87	0x3e9630ba	0.2933405
88	0xbd9ff238	-0.078098714
89	0x3e8ca103	0.27466592
90	0xbe471852	-0.19442871
91	0xbe34dfc9	-0.17663492
92	0x3d59d4a2	0.053181298
93	0xbe27dd28	-0.16392958
94	0xbdd7bc83	-0.10534003
95	0xbd3228c4	-0.04349591
96	0x3d54816d	0.051881243
97	0xbd779aba	-0.060450293
98	0xbe878822	-0.2647105
99	0xbdb7b9af	-0.08970963
100	0x3e9d595b	0.30732235
101	0x3dea42d8	0.11438531
102	0xbe97062f	-0.29496905
103	0xbe06a7f0	-0.1315
104	0x3aa48d06	0.0012554235
105	0x3d949c3b	0.07256361
106	0xbdeeb3c1	-0.11655379
107	0xbe4b81bc	-0.19873708
108	0xbd271a13	-0.04079635
109	0xbe42cafc	-0.19022745
110	0xbced79d2	-0.028988753
111	0x3db69288	0.08914667
112	0xbe7088c0	-0.23489666
113	0xbe94e51e	-0.29081053
114	0x3e76e03e	0.24108979
115	0x3e82fc4b	0.2558311
116	0xbea05a01	-0.31318668
117	0x3d6b3939	0.05742762
118	0xbda7eba1	-0.081992395
119	0x3d2265b2	0.039647765
120	0xbb89fe20	-0.0042112023
121	0xbe41e1e2	-0.18933824
122	0x3e9eae2e	0.30992264
123	0xbe531b4e	-0.20615885
124	0xbc231ae3	-0.009955141
125	0xbe557060	-0.20843649
126	0xbe4b2860	-0.1983962
127	0x3e3c668e	0.18398497
128	0x3e5be7b3	0.21475105
129	0xbe9cfea7	-0.30663034
130	0x3e7f7611	0.24947383
131	0xbe004f52	-0.12530258
132	0xbe7e0db1	-0.2480991
133	0xbd59b919	-0.05315504
134	0xbe8e293f	-0.27765843
135	0x3d20e803	0.039283764
136	0x3e9118ee	0.28339332
137	0x3d5c40df	0.053772803
138	0x3e160138	0.14648902
139	0x3d91eeee	0.0712565
140	0x3e5b8a88	0.21439564
141	0xbe8ecf40	-0.27892494
142	0xbd121f52	-0.0356744
143	0xbe2902f1	-0.16505028
144	0xbd1ebc91	-0.03875405
145	0x3ea00f94	0.31261885
146	0x3c0aeb16	0.0084789
147	0xbe5f4476	-0.2180346
148	0xbe594f80	-0.21221733
149	0xbe4f3ce7	-0.20238076
150	0xbe217b05	-0.15769584
151	0x3da8dc29	0.08245117
152	0xbe0ab96d	-0.13547297
153	0xbd8e7d4c	-0.06957492
154	0x3e8709a8	0.26374555
155	0xbe5109f3	-0.20413952
156	0xbdd318c6	-0.103074595
157	0xbe1b86cb	-0.15188138
158	0xbe561dde	-0.20909831
159	0xbdfd05f0	-0.12354648
160	0xbe34c157	-0.17651878
161	0x3e11ce20	0.14238787
162	0x3e3ede08	0.18639386
163	0x3e244d00	0.16044998
164	0x3e5c733a	0.2152833
165	0xbe7adaec	-0.24497575
166	0xbe266af4	-0.16251737
167	0x3b11144f	0.002213735
168	0xbe514aa1	-0.20438625
169	0xbe8ade95	-0.27122942
170	0x3e3c29ff	0.18375395
171	0xbd7dc55c	-0.061955795
172	0x3e9eecd2	0.31040055
173	0xbe854cef	-0.26035258
174	0x3e9b8425	0.30374256
175	0x3e9e9507	0.30973074
176	0xbdafe8aa	-0.08589299
177	0xbe8a2603	-0.26982126
178	0xbdb75381	-0.08951474
179	0x3e46295d	0.19351716
180	0xbe58ef09	-0.21184935
181	0x3e1f9a0b	0.15586106
182	0x3e934fdc	0.28771865
183	0xbe4704e9	-0.19435467
184	0xbe318542	-0.1733599
185	0x3e1df318	0.15424764
186	0x3e2bf5a6	0.16792926
187	0x3d2a2c24	0.041546002
188	0xbdff8d15	-0.12478081
189	0xbe240917	-0.16019093
190	0x3c157300	0.009121656
191	0xbe319322	-0.17341283
192	0x3c7a6ed8	0.015285216
193	0xbd49c1bd	-0.04925703
194	0x3e4836ab	0.19552104
195	0x3d96c316	0.073614284
196	0xbe3e583f	-0.1858835
197	0x3ca38f63	0.019965833
198	0xbd976e03	-0.0739403
199	0x3dca03cd	0.09864006
200	0x3de49f06	0.11163144
201	0x3d3c399a	0.04595337
202	0x3cc5a85c	0.024128132
203	0x3d830b6b	0.06398662
204	0x3e8e348c	0.27774465
205	0xbd9efbd6	-0.07762878
206	0x3c6234c2	0.013806524
207	0xbe2d84cf	-0.16945194
208	0xbe1e90ba	-0.15484896
209	0x3e8801a1	0.26563743
210	0x3db83a09	0.08995444
211	0x3e184291	0.14869143
212	0x3e859331	0.2608886
213	0x3e8113e1	0.2521048
214	0xbe8b44c8	-0.27200913
215	0x3de101a5	0.10986642
216	0x3e7817d6	0.24227843
217	0x3d834cf9	0.06411166
218	0x3e9cded4	0.30638754
219	0x3e36e4e5	0.17860754
220	0xbd000455	-0.03125413
221	0x3e86570b	0.26238284
222	0xbd1c3def	-0.038145002
223	0xbe7b7df2	-0.24559763
224	0x3e47a169	0.19495167
225	0xbe920fbb	-0.28527626
226	0xbe2fdc6d	-0.1717393
227	0x3d8b3bf4	0.067985445
228	0xbd7bcff4	-0.061477616
229	0xbdc4d963	-0.09611776
230	0x3e59953a	0.21248332
231	0xbce41258	-0.027840778
232	0xbe56362c	-0.20919102
233	0x3e8df6a1	0.27727225
234	0x3e061ee2	0.13097718
235	0x3e35db47	0.17759429
236	0x3ce0b558	0.027430221
237	0x3e915d95	0.2839171
238	0x3e7b8858	0.2456373
239	0x3e53787a	0.20651427
240	0xbdc52832	-0.09626807
241	0xbe771f31	-0.24132992
242	0x3e430fbc	0.19048971
243	0x3deeb43e	0.11655472
244	0x3d2622d9	0.040560577
245	0x3e0fccea	0.14043012
246	0xbe6b08b1	-0.22952534
247	0xbd9417ba	-0.07231088
248	0x3b5b1321	0.003342815
249	0x3df637fb	0.12022396
250	0x3e71116e	0.23541805
251	0x3d0f1521	0.03493226
252	0xbe52c0ed	-0.20581408
253	0x3db6a481	0.089180954
254	0xbe9b2152	-0.3029886
255	0x3e43e080	0.19128609

encoder.convs.0.convs.<user___healthness___food>.lin_edge.weight f4 [44, 1]
0	0xbe99c94c	-0.3003639
1	0xbdd67e94	-0.104733616
2	0xbeaf6683	-0.34257898
3	0x3e85b44e	0.26114124
4	0x3db8e320	0.09027696
5	0x3e988e20	0.29795933
6	0x3de43d50	0.11144507
7	0xbe396636	-0.18105397
8	0x3d60e550	0.05490619
9	0x3e7d09a8	0.24710715
10	0xbe908a90	-0.28230715
11	0xbe797022	-0.24359182
12	0xbdbe374c	-0.09287891
13	0xbe699946	-0.22812375
14	0xbd87daa4	-0.06633499
15	0x3eb10aa6	0.34578437
16	0x3e4fea08	0.2030412
17	0xbe979318	-0.2960441
18	0xbe49c2c0	-0.19703197
19	0x3e960856	0.29303235
20	0xbce56890	-0.02800396
21	0xbe1d7137	-0.1537522
22	0x3d923454	0.07138887
23	0xbd6d7528	-0.057973057
24	0x3dfbf46c	0.12302479
25	0x3bdc6c80	0.0067268014
26	0x3e549ad4	0.20762187
27	0x3e4dd4a4	0.20100647
28	0x3e0345fc	0.12819666
29	0x3de7a3c0	0.1131053
30	0xbdc00aa8	-0.093770325
31	0xbead081f	-0.33795258
32	0xbd0ffe00	-0.035154343
33	0xbe8dfdd6	-0.27732724
34	0xbe958d19	-0.2920921
35	0xbea49fc1	-0.32153133
36	0xbdbae02c	-0.09124789
37	0xbe8a4194	-0.27003157
38	0x3d7ce0e0	0.061737895
39	0x3e217868	0.15768588
40	0x3e5e237c	0.21693224
41	0xbeb472b2	-0.35243756
42	0x3e9d4e08	0.30723596
43	0x3dde82ec	0.10864815

encoder.convs.0.convs.<user___eats___food>.att_src f4 [1, 1, 44]
0	0x3c8d8fa9	0.017280417
1	0x3e03754d	0.12837715
2	0x3e6ef7aa	0.23336664
3	0x3ebc1fcc	0.3674301
4	0x3e4478e3	0.1918674
5	0xbe2c0b47	-0.16801177
6	0xbd467010	-0.048446715
7	0xbe4409fa	-0.19144431
8	0x3e58d0c5	0.2117339
9	0x3de75f95	0.11297528
10	0x3e307927	0.17233716
11	0xbe7e8227	-0.24854337
12	0x3e94c24d	0.2905449
13	0xbea66e30	-0.3250594
14	0x3e40ac3b	0.188157
15	0xbea5809a	-0.32324678
16	0x3e8c7567	0.2743332
17	0xbe618c62	-0.22026208
18	0xbe94b540	-0.29044533
19	0x3e3a3602	0.18184665
20	0x3ea474bc	0.3212031
21	0xbd064cc8	-0.032788068
22	0x3e1f6453	0.15565614
23	0x3ea8646b	0.32889113
24	0xbe96267c	-0.29326236
25	0x3e12dbd8	0.14341676
26	0x3db0e03a	0.08636518
27	0xbe504ba3	-0.20341353
28	0x3e60baaf	0.21946214
29	0x3eab1364	0.3341323
30	0x3e90c821	0.28277686
31	0xbe8918d6	-0.2677676
32	0x3ea7987d	0.32733527
33	0x3e9fcd22	0.3121119
34	0x3e11b75d	0.14230104
35	0xbd585cf1	-0.05282301
36	0x3e8d3b77	0.2758443
37	0xbe73e038	-0.23816001
38	0xbe5e03c9	-0.21681131
39	0x3e4724df	0.19447659
40	0x3e75be58	0.23998392
41	0xbd031833	-0.0320055
42	0x3eaa2400	0.3323059
43	0x3e40d5bc	0.18831533

encoder.convs.0.convs.<user___eats___food>.att_dst f4 [1, 1, 44]
0	0x3e3447bf	0.17605494
1	0x3e976ba6	0.29574317
2	0x3eb8f574	0.36124766
3	0x3e816d2a	0.25278598
4	0x3e97154d	0.2950844
5	0x3d147925	0.036248345
6	0x3e9229b8	0.28547454
7	0x3e4881ec	0.19580811
8	0xbe355b93	-0.17710714
9	0x3e4ed040	0.20196629
10	0x3cc2231f	0.023698388
11	0xbe029467	-0.12751924
12	0x3e8d294d	0.27570572
13	0x3dc0052f	0.09375989
14	0x3e93064c	0.28715742
15	0x3da0e7ac	0.07856688
16	0x3de48431	0.11158026
17	0x3e5f66dc	0.21816581
18	0xbdbaebb5	-0.09126989
19	0x3e6847ae	0.22683594
20	0xbe3f4ef7	-0.18682466
21	0xbd538fc7	-0.05165079
22	0x3d13fae9	0.03612796
23	0x3e8215ae	0.25407165
24	0x3e26f482	0.1630421
25	0x3eb321b2	0.34986645
26	0xbe479a4d	-0.19492455
27	0xbcfb9e20	-0.030715048
28	0xbd00f99f	-0.031488057
29	0x3e975cfb	0.29563126
30	0x3eb0df29	0.34545258
31	0x3dbfb139	0.093599744
32	0xbe96ab42	-0.29427534
33	0xbe8819dc	-0.2658223
34	0x3d8b60e2	0.06805588
35	0xbea3d2bf	-0.31996724
36	0xbe004064	-0.12524563
37	0xbe8c728b	-0.2743114
38	0x3e3fd012	0.18731716
39	0xbd4963d8	-0.049167484
40	0xbe930bdb	-0.28719983
41	0x3e74c861	0.23904563
42	0xbea64b34	-0.3247925
43	0xbd0c94e2	-0.034321673

encoder.convs.0.convs.<user___eats___food>.bias f4 [44]
0	0x32bd6bb1	2.2051468e-08
1	0xb31c2b0a	-3.6360724e-08
2	0x331b21ca	3.611948e-08
3	0xb20729fa	-7.867579e-09
4	0xb2179525	-8.823268e-09
5	0xb294ea1b	-1.7335926e-08
6	0xb40d4947	-1.3158306e-07
7	0x3096c14b	1.0968874e-09
8	0x33a01ee7	7.456202e-08
9	0x346e4437	2.2190294e-07
10	0x3298c0ac	1.7782746e-08
11	0xb264e327	-1.3322995e-08
12	0x31bb6783	5.454184e-09
13	0x3278a0a2	1.4472024e-08
14	0x34d6337a	3.989806e-07
15	0x329b2081	1.8059156e-08
16	0x3277c901	1.4422995e-08
17	0x33794f16	5.804676e-08
18	0xb1be7017	-5.542471e-09
19	0xb2c1e9c8	-2.2574469e-08
20	0xb0d92cca	-1.5801558e-09
21	0x31a99192	4.9350968e-09
22	0xb2dae48e	-2.5482475e-08
23	0xb10e4d21	-2.0707562e-09
24	0x324982ec	1.1729508e-08
25	0xb21eed57	-9.250775e-09
26	0xb39c1d95	-7.269697e-08
27	0xb28c919d	-1.6364362e-08
28	0xb16da461	-3.4581478e-09
29	0x33c0e2fd	8.9819856e-08
30	0x327ef8ef	1.4841347e-08
31	0x3135fa8d	2.6481388e-09
32	0x3150db99	3.039281e-09
33	0xb13595c8	-2.6424107e-09
34	0x348698ec	2.507071e-07
35	0x3206f64c	7.855828e-09
36	0x31816569	3.765923e-09
37	0x32e791a6	2.6958173e-08
38	0x319d6228	4.5804605e-09
39	0x3139bfdd	2.7030105e-09
40	0x31208351	2.335771e-09
41	0xb192cdd7	-4.2725605e-09
42	0xb2912f5a	-1.6901755e-08
43	0x31b84024	5.3623967e-09

encoder.convs.0.convs.<user___eats___food>.lin_src.weight f4 [44, 29]
0	0x3e06837b	0.13136093
1	0xbe659b81	-0.22422601
2	0xbe82788f	-0.25482604
3	0xbe1bf0ab	-0.15228526
4	0xbe30f069	-0.17279209
5	0x3da33775	0.07969562
6	0x3e225a57	0.15854774
7	0x3d422a76	0.047403775
8	0x3d548508	0.05188468
9	0xbe7db921	-0.24777652
10	0x3e6fd7a7	0.23422109
11	0xbe205280	-0.15656471
12	0x3cdf5f39	0.027267085
13	0xbd775248	-0.060381204
14	0xbd450fca	-0.04811076
15	0x3e2e5c5c	0.1702742
16	0xbe8117a6	-0.25213355
17	0x3e7f42cb	0.24927823
18	0xbe51ed8a	-0.2050077
19	0x3d8e9208	0.06961447
20	0x3e8be394	0.27322066
21	0xbe070d7b	-0.13188736
22	0x3d9ea8eb	0.07747062
23	0xbe1ef3a4	-0.15522629
24	0xbdd74bec	-0.10512528
25	0xbd042649	-0.032263074
26	0x3d76884d	0.06018858
27	0xbe8df919	-0.2772911
28	0x3d48e756	0.049048744
29	0xbe3bf5bb	-0.18355457
30	0xbe58932d	-0.21149893
31	0xbc9d4d77	-0.019201977
32	0xbcc33064	-0.023826785
33	0xbe39d7f3	-0.18148784
34	0x3e6194c1	0.22029401
35	0xbc1cb6b6	-0.009565046
36	0x3d36da6c	0.044641897
37	0xbe18877a	-0.1489543
38	0xbda24d26	-0.07924871
39	0xbe120cfc	-0.14262766
40	0xbe76136a	-0.24030843
41	0x3d3d80c6	0.046265386
42	0xbe8efeee	-0.2792887
43	0x3e04feab	0.12987773
44	0x3d3edc95	0.046597082
45	0x3e14a397	0.1451553
46	0x3e49e8e1	0.19717743
47	0x3e584805	0.21121223
48	0x3df0b8d0	0.11754
49	0xbe021bfa	-0.12705985
50	0x3e50dd3f	0.20396899
51	0xbe1eb71b	-0.15499537
52	0xbd2b9891	-0.041893546
53	0x3b42dd7f	0.0029734073
54	0xbe43dc5d	-0.1912703
55	0x3b057e8e	0.0020369622
56	0x3df78c3e	0.12087296
57	0xbe80c8ff	-0.25153348
58	0x3e942aa8	0.28938794
59	0x3e865435	0.2623612
60	0xbe81d6db	-0.25359234
61	0x3d191eca	0.03738288
62	0xbe4b4f34	-0.19854432
63	0x3d190e98	0.037367433
64	0x3d9a119e	0.075228915
65	0xbd9f22b5	-0.07770292
66	0x3e3acd24	0.18242317
67	0xbda6f23f	-0.081516735
68	0xbe1a50a4	-0.15069824
69	0x3cda72ae	0.026666012
70	0xbdd84371	-0.105597384
71	0xbd905ebd	-0.0704932
72	0xbe15c851	-0.14627196
73	0x3d82dc36	0.06389658
74	0xbe21c667	-0.1579834
75	0x3d87cacb	0.066304766
76	0x3e3c783f	0.18405245
77	0xbd8967ae	-0.067092285
78	0xbe07c9ce	-0.13260576
79	0xbe1b04a8	-0.15138495
80	0x3c69eb97	0.01427736
81	0xbdd27ff5	-0.10278312
82	0x3e220b7f	0.15824698
83	0x3d835a41	0.06413699
84	0xbe479fc3	-0.19494538
85	0x3d9f5804	0.077804595
86	0x3e1f0f13	0.15533094
87	0x3e04e743	0.12978844
88	0x3d9ff482	0.07810308
89	0xbd79c010	-0.06097418
90	0xbe71f210	-0.23627496
91	0x3e05804a	0.1303722
92	0xbe207f81	-0.15673639
93	0x3d2c4c32	0.042064853
94	0xbe675dc5	-0.22594364
95	0x3d0dcdb4	0.034620002
96	0x3d518440	0.051151514
97	0x3e3bdfb4	0.18347055
98	0xbe61f522	-0.22066167
99	0x3db5b781	0.08872891
100	0xbe8c46b9	-0.27397707
101	0xbdab7820	-0.083725214
102	0x3ce5d162	0.028053943
103	0x3e3e0fd0	0.1856072
104	0xbe9118dc	-0.2833928
105	0xbe37bead	-0.17943831
106	0xbe012d9c	-0.12615055
107	0xbc4c449e	-0.0124675315
108	0xbe5fe217	-0.2186359
109	0xbe49d77c	-0.19711107
110	0x3e645059	0.22296275
111	0x3cc34fc6	0.02384175
112	0xbe719768	-0.23592913
113	0x3dfeaaeb	0.12434944
114	0x3e5fd5cd	0.21858902
115	0x3e26fffe	0.16308591
116	0x3e3ff240	0.18744755
117	0x3e0578ca	0.13034359
118	0xbe8d4c52	-0.2759729
119	0xbd9e4e74	-0.077298075
120	0x3e875b7d	0.26436988
121	0xbe81cf95	-0.25353685
122	0x3d39f562	0.04540003
123	0xbdf3bf6c	-0.11901745
124	0x3e332ac3	0.17496781
125	0xbdb8d312	-0.090246335
126	0xbd2fa643	-0.04288317
127	0xbe469e3c	-0.19396299
128	0x3d5c6e0a	0.05381588
129	0x3e7c8865	0.24661405
130	0x3dff1f08	0.124570906
131	0xbd338f35	-0.043837745
132	0xbe7b0520	-0.24513674
133	0x3dc005aa	0.0937608
134	0x3c9982dc	0.018739156
135	0xbb83ed46	-0.004026088
136	0xbe8de90c	-0.27716863
137	0x3e281206	0.16413125
138	0xbe1953a9	-0.1497332
139	0xbc74c6a1	-0.014939935
140	0x3bdc6ecc	0.006727075
141	0xbe802b50	-0.25033045
142	0xbdf97e04	-0.12182239
143	0x3e4cc925	0.19998606
144	0x3e4a1dd9	0.19737948
145	0xbe4317cf	-0.19052051
146	0xbd7d1326	-0.06178584
147	0x3d3c5094	0.045975283
148	0xbe7dcf01	-0.24785997
149	0xbdaac887	-0.08339029
150	0x3e5ab3d3	0.2135766
151	0xbdf85b26	-0.1212676
152	0xbe5193a5	-0.20466478
153	0x3e86e0a1	0.26343253
154	0x3e8ff997	0.2812011
155	0xbe278189	-0.16358007
156	0x3e7f37a7	0.24923573
157	0x3e01ef08	0.1268884
158	0xbe72787b	-0.23678772
159	0xbe272102	-0.16321185
160	0xbb3dee60	-0.0028981194
161	0xbd0c418a	-0.03424219
162	0xbe123526	-0.14278087
163	0x3d04cb0e	0.03242021
164	0x3d92bdbe	0.07165097
165	0x3ce9c845	0.028537879
166	0x3dd6b2a2	0.1048329
167	0x3db3c624	0.08778027
168	0xbdea9b5e	-0.11455415
169	0x3dc61154	0.09671274
170	0x3e16a355	0.14710744
171	0x3e4b5e27	0.19860135
172	0x3e56e973	0.20987491
173	0x3e0d1a4e	0.13779566
174	0xbcf11597	-0.02942924
175	0x3cdf6b88	0.027272955
176	0x3d80b5d0	0.06284678
177	0xbd34b7c0	-0.04412055
178	0xbe42057a	-0.18947402
179	0x3dcd623b	0.100285016
180	0xbe20fcd5	-0.15721448
181	0xbe251912	-0.16122845
182	0x3e813fd3	0.25244007
183	0xbe5b490c	-0.21414584
184	0xbdbe4e7f	-0.09292316
185	0xbcfd370a	-0.030910034
186	0xbe10ed49	-0.14153017
187	0x3de018dc	0.109422415
188	0xbd4cadcf	-0.049970444
189	0x3e81cf70	0.25353575
190	0xbe2c96d3	-0.1685441
191	0xbd845252	-0.06461014
192	0x3df0a82c	0.11750826
193	0x3e273d4d	0.16331978
194	0xbe5b985f	-0.21444844
195	0x3d0cfa86	0.034418605
196	0xbc73ecd7	-0.01488801
197	0xbe8c8450	-0.27444696
198	0xbda20b94	-0.079123646
199	0x3e67f826	0.22653255
200	0x3e1583a7	0.14601003
201	0x3d18cd6c	0.03730528
202	0x3e645ec3	0.22301774
203	0xbe9074a4	-0.2821399
204	0x3aac2a71	0.0013135207
205	0x3e803bdc	0.2504567
206	0xbdd7f4aa	-0.10544713
207	0x3da59c4e	0.080864534
208	0xbdd5d926	-0.104418084
209	0xbd82a31c	-0.06378767
210	0xbb163486	-0.002291949
211	0x3e8c3cb5	0.27390066
212	0xbe2be72a	-0.16787401
213	0x3e91390d	0.2836384
214	0xbe3c0c84	-0.1836415
215	0xbc821e1c	-0.015883498
216	0x3e0afbe6	0.13572654
217	0xbd01e0af	-0.031708416
218	0x3e31e0b4	0.17370874
219	0xbc9e2e35	-0.019309143
220	0xbe779681	-0.24178506
221	0x3e7963ec	0.24354523
222	0xbe22eaf7	-0.15909944
223	0x3de33e12	0.11095823
224	0xbe63f5e4	-0.22261769
225	0x3a4dadcb	0.00078460266
226	0x3e7023d9	0.23451175
227	0x3d7eb009	0.0621796
228	0xbe8ce405	-0.27517715
229	0x3e495510	0.19661355
230	0x3dbd5073	0.0924386
231	0xbd7dd9d9	-0.061975334
232	0xbca6454e	-0.020296719
233	0x3e378fc0	0.1792593
234	0x3e2635a7	0.16231404
235	0x3e1c89b6	0.15286908
236	0xbe6048f6	-0.21902832
237	0xbda3680f	-0.07978832
238	0x3da97963	0.08275106
239	0x3e1b521c	0.15168041
240	0x3d0528d0	0.032509625
241	0x3e107273	0.14106159
242	0x3db19e06	0.08672719
243	0x3db65a20	0.08903909
244	0x3e66ac44	0.22526652
245	0xbda973b3	-0.08274021
246	0x3d43f0e6	0.04783716
247	0xbcf8a2fa	-0.03035115
248	0xbd91710a	-0.071016386
249	0x3e0f32fd	0.13984294
250	0x3bdff4c5	0.0068345987
251	0x3d861742	0.06547405
252	0xbe434305	-0.19068535
253	0x3d3c44d7	0.04596409
254	0x3e59d94c	0.21274298
255	0xbe4a658f	-0.19765304

encoder.convs.0.convs.<user___eats___food>.lin_dst.weight f4 [44, 17]
0	0xbddefc8d	-0.10888014
1	0x3e9e9b50	0.3097787
2	0xbe89e496	-0.2693221
3	0xbe0757f6	-0.13217148
4	0x3b18d910	0.0023322739
5	0xbe665523	-0.22493415
6	0x3d4230c3	0.047409784
7	0x3e54f0da	0.20795003
8	0xbd4aaca5	-0.049481053
9	0xbe745896	-0.23861918
10	0xbe110b1f	-0.14164399
11	0x3ceb6b58	0.028737709
12	0x3e9a8f3f	0.30187413
13	0xbe4c7ac7	-0.19968711
14	0x3d1036a4	0.03520836
15	0xbe041903	-0.12900166
16	0xbd9909c0	-0.07472563
17	0xbd69e91a	-0.05710707
18	0x3d163da7	0.03667989
19	0x3e4d96bc	0.20077032
20	0xbe9ccd33	-0.30625305
21	0xbe8c74ca	-0.27432853
22	0x3e944072	0.28955418
23	0xbe549898	-0.20761335
24	0x3d69ea89	0.057108436
25	0x3e941351	0.28920987
26	0x3ce83345	0.02834476
27	0xbdbab51a	-0.09116574
28	0x3e744c96	0.2385734
29	0x3e5254e7	0.205402
30	0xbd203ab4	-0.039118484
31	0x3e1b5ed3	0.15172891
32	0x3d57aa15	0.052652437
33	0xbdee4f4e	-0.1163622
34	0xbe74121a	-0.2383503
35	0xbe705701	-0.2347069
36	0xbdedfdc2	-0.11620666
37	0xbd750189	-0.059815917
38	0x3da5cf96	0.080962345
39	0xbe13de0a	-0.1444017
40	0xbe0fed68	-0.14055407
41	0x3d296f5e	0.041365974
42	0x3dd8e062	0.105896726
43	0x3d7eb441	0.062183622
44	0xbc55e7cc	-0.013055753
45	0x3e127732	0.14303282
46	0xbe8ef1a2	-0.27918726
47	0x3e8f3688	0.27971292
48	0xbe247a62	-0.1606231
49	0xbc9a4e64	-0.018836208
50	0x3e87443b	0.26419243
51	0x3ddfb4ea	0.109231785
52	0x3e9c48ce	0.30524296
53	0xbdd89cb0	-0.10576761
54	0x3db27f31	0.08715666
55	0xbd081208	-0.03322032
56	0x3e5057f8	0.20346057
57	0xbe448d7d	-0.19194598
58	0x3d79eb14	0.061015204
59	0x3d883c39	0.066521116
60	0x3e404cdc	0.1877932
61	0xbd5a83ff	-0.053348538
62	0xbe058924	-0.13040596
63	0xbbdcbd16	-0.006736408
64	0xbe4ecfa3	-0.20196395
65	0xbe6478cc	-0.22311705
66	0xbe5ec538	-0.2175492
67	0xbe5f9989	-0.21835913
68	0x3e321e23	0.17394309
69	0x3e75fbf7	0.24021898
70	0xbdf39ecc	-0.118955225
71	0x3e80caf2	0.25154835
72	0x3e984775	0.29742017
73	0xbc5f71d4	-0.013637979
74	0xbe9c1927	-0.3048794
75	0xbe2fe90f	-0.17178749
76	0xbb48d547	-0.0030644701
77	0x3df83c79	0.12120909
78	0x3e80e9e3	0.2517844
79	0xbdd94410	-0.10608685
80	0xbd0a7fed	-0.033813406
81	0x3d5e3801	0.05425263
82	0xbde86c1a	-0.11348744
83	0xbe31546f	-0.17317365
84	0x3d7cff7a	0.06176708
85	0x3e8dd73b	0.2770327
86	0xbe6c215c	-0.230596
87	0x3d9188aa	0.07106145
88	0x3e26bbe6	0.16282615
89	0xbb775683	-0.0037740774
90	0x3dce1c7c	0.10064027
91	0xbe6aaea9	-0.2291819
92	0x3e7d1f87	0.24719058
93	0x3da8abc8	0.0823589
94	0xbe33ebbc	-0.17570394
95	0xbe9fa10d	-0.3117756
96	0xbe1e54d6	-0.1546205
97	0x3e953a14	0.29145873
98	0xbd471c1f	-0.048610803
99	0x3e88c5ca	0.267134
100	0x3e5fd0cb	0.21856992
101	0x3e2c56a7	0.1682993
102	0x3da51480	0.08060551
103	0x3d8b7daa	0.06811078
104	0x3de3bbf3	0.11119833
105	0x3c70326f	0.014660462
106	0x3e8098c6	0.25116557
107	0xbdad14e0	-0.08451247
108	0xbe0ede20	-0.13951921
109	0xbe90a257	-0.28248855
110	0x3c83ca6e	0.016087737
111	0x3e8163d7	0.25271484
112	0xbe89ba67	-0.26900026
113	0xbc8797ac	-0.016551815
114	0x3dc6a08f	0.09698593
115	0x3e0332d7	0.12812363
116	0xbe21ba72	-0.1579378
117	0x3d996cce	0.07491456
118	0xbe0d80a8	-0.1381861
119	0xbe2ca1e7	-0.16858636
120	0x3d20b323	0.039233338
121	0xbe8f401b	-0.27978596
122	0xbd0b15ac	-0.033956215
123	0x3e80a3ae	0.25124878
124	0xbd930f20	-0.07180619
125	0x3dfb006f	0.12255942
126	0x3e9908ea	0.29889613
127	0xbe0e719f	-0.1391053
128	0x3e9ffc87	0.3124735
129	0xbe87303d	-0.2640399
130	0xbe37e2b5	-0.17957576
131	0x3e3e0ee4	0.18560368
132	0x3e9519da	0.29121286
133	0xbdd4f577	-0.10398381
134	0xbdb69098	-0.08914298
135	0xbe758616	-0.23976931
136	0xbe894234	-0.2680832
137	0xbe99b1e6	-0.30018538
138	0x3e91dfc1	0.28491023
139	0xbe615c23	-0.22007804
140	0x3d52d0a6	0.051468514
141	0x3e225187	0.15851413
142	0x3e9fbccc	0.31198728
143	0xbe87ef8d	-0.2654995
144	0xbca51d95	-0.020155707
145	0xbe3823d1	-0.17982413
146	0xbe47dd0b	-0.19517915
147	0x3d7a5c61	0.061123256
148	0x3d936099	0.07196159
149	0xbcbb268c	-0.022845529
150	0x3e81900b	0.2530521
151	0x3e2d0e28	0.16899931
152	0x3e5f5b6c	0.21812218
153	0x3e07b201	0.13251497
154	0x3e606ad5	0.21915753
155	0xbe469c7d	-0.19395633
156	0x3e53c872	0.20681933
157	0xbe4f3885	-0.20236404
158	0x3d1edc32	0.038784213
159	0x3e6de89d	0.23233266
160	0x3e2402dd	0.16016717
161	0x3e80a411	0.25125173
162	0x3c48bb7c	0.012251731
163	0x3d96cd08	0.07363325
164	0xbdc07e4c	-0.09399089
165	0xbe1009f5	-0.14066298
166	0xbda8617b	-0.08221718
167	0xbe446948	-0.19180787
168	0x3e176f1a	0.14788476
169	0xbdc65484	-0.09684089
170	0xbe9a363d	-0.30119506
171	0x3e637aa2	0.2221475
172	0xbe669525	-0.22517832
173	0x3e822fd5	0.25427118
174	0xbe940a9a	-0.28914338
175	0x3e2f3503	0.17110066
176	0xbe89866c	-0.26860368
177	0xbe8ba63d	-0.27275267
178	0x3dfbb252	0.12289871
179	0x3e5b4d26	0.21416149
180	0xbea0036e	-0.31252617
181	0x3e3e3736	0.18575749
182	0xbe976241	-0.2956715
183	0xbe43193a	-0.19052592
184	0x3de50787	0.11183076
185	0x3c710d90	0.014712706
186	0x3d85d7ac	0.06535277
187	0xbe19d6af	-0.15023302
188	0x3e1c9478	0.15291011
189	0x3e7c05f0	0.2461164
190	0x3e1e57e7	0.1546322
191	0xbe4e049f	-0.2011895
192	0xbe8121b0	-0.25221014
193	0xbe7e5ae0	-0.24839354
194	0x3e33811b	0.17529719
195	0x3e6bd446	0.23030195
196	0x3e0db5e5	0.13838919
197	0xbd41880f	-0.047248896
198	0xbe5690cf	-0.20953678
199	0xbe2ee699	-0.17080154
200	0x3e906fd2	0.28210312
201	0xbc7e747f	-0.0155307045
202	0x3e6764c6	0.22597036
203	0x3e8094a2	0.25113398
204	0xbcec28ed	-0.028828109
205	0xbe4e4142	-0.20142081
206	0xbe9cd49f	-0.30630967
207	0xbe121dbf	-0.1426916
208	0xbdacabbb	-0.084311925
209	0xbddf249f	-0.10895657
210	0xbdeae7c5	-0.11469988
211	0x3df27845	0.11839346
212	0xbda07f16	-0.0783674
213	0x3dd52908	0.10408217
214	0xbea07f06	-0.3134691
215	0xbd9afb06	-0.0756741
216	0x3e5280e2	0.20556977
217	0xbe7e5c77	-0.2483996
218	0xbd159257	-0.036516514
219	0xbdeec38e	-0.11658393
220	0x3c6125cb	0.013741921
221	0xbd533dec	-0.051572725
222	0x3e3ccc9a	0.18437424
223	0x3de78f74	0.113066584
224	0x3deff9f7	0.11717599
225	0xbdf50e71	-0.11965645
226	0x3db0dc24	0.086357385
227	0x3cdba472	0.026811812
228	0x3e7e9170	0.24860168
229	0xbddaabc5	-0.10677294
230	0x3d8c3af6	0.068471834
231	0x3e9d74a4	0.30753052
232	0x3cbf6674	0.023364283
233	0xbd034c0c	-0.032054946
234	0xbe1f2573	-0.1554163
235	0x3d15583b	0.036461096
236	0x3dd256a2	0.1027043
237	0xbe559650	-0.20858121
238	0xbe4255f0	-0.18978095
239	0xbe925761	-0.2858229
240	0x3d59cad6	0.053171955
241	0x3e99689b	0.2996262
242	0x3de9b3f0	0.114112735
243	0x3d79cc66	0.060985945
244	0x3e7aaedb	0.24480765
245	0xbe3f6b69	-0.18693317
246	0x3e95ad13	0.29233608
247	0x3e71d09b	0.23614733
248	0x3d753c71	0.059872095
249	0xbd2af1f2	-0.041734643
250	0x3e3653fa	0.17805472
251	0x3e8d21cf	0.27564856
252	0x3e182a0a	0.14859787
253	0xbcdbf4c6	-0.026850116
254	0x3df81e60	0.121151686
255	0x3e39b620	0.18135881

encoder.convs.0.convs.<food___contains___ingredient>.att_src f4 [1, 1, 44]
0	0x3eb18cbb	0.3467768
1	0x3e362847	0.17788802
2	0xbea450b2	-0.32092816
3	0x3d0bc18f	0.03412014
4	0xbd70a276	-0.058748685
5	0x3e210529	0.15724625
6	0x3eaa65ba	0.33280736
7	0x3e9cf41f	0.30655
8	0xbd01b79f	-0.031669255
9	0x3e319b9b	0.17344515
10	0xbeb562f1	-0.3542705
11	0x3e95d8b0	0.29266882
12	0x3e4195ec	0.18904847
13	0xbe8586ee	-0.26079506
14	0xbde260ce	-0.1105362
15	0xbe16fd96	-0.14745173
16	0xbe6070ce	-0.21918032
17	0x3e1f699e	0.15567634
18	0xbde5c068	-0.11218339
19	0x3e15ff07	0.14648066
20	0xbdd9bec6	-0.1063209
21	0x3e8e4b60	0.27791882
22	0xbe16904f	-0.14703487
23	0xbd73bb47	-0.059504773
24	0xbddfe2ef	-0.10931956
25	0x3c3c5121	0.011493952
26	0xbe0f1216	-0.13971743
27	0xbe85eb3a	-0.26156026
28	0xbeaf75ed	-0.34269658
29	0x3e6d3b92	0.23167256
30	0x3d5f9f70	0.05459541
31	0xbe77a9b8	-0.24185836
32	0x3e46eee9	0.19427074
33	0x3d3389b0	0.04383248
34	0xbe01d46e	-0.12678692
35	0xbc96fc0c	-0.018430732
36	0x3d32194b	0.043481153
37	0x3e890393	0.2676054
38	0xbea8c56c	-0.3296312
39	0xbe93de68	-0.2888062
40	0xbe93f907	-0.2890093
41	0xbe94d79a	-0.2907074
42	0x3be6fa19	0.007048857
43	0x3e499a4d	0.19687767

encoder.convs.0.convs.<food___contains___ingredient>.att_dst f4 [1, 1, 44]
0	0x3dc380b1	0.0954603
1	0x3e1e69d8	0.15470064
2	0x3d33e80c	0.04392247
3	0xbbe2f2db	-0.0069259233
4	0xbea95e43	-0.33079728
5	0x3ea6de50	0.32591486
6	0x3eb4ab5a	0.3528698
7	0xbb070bfb	-0.0020606506
8	0x3d871315	0.065954365
9	0x3d8a67e8	0.067581
10	0x3eb902ba	0.36134893
11	0xba373f58	-0.0006990335
12	0xbd760508	-0.060063392
13	0xbe4b8c58	-0.19877756
14	0x3dc1596c	0.09440884
15	0x3e2c5fb8	0.16833389
16	0xbe9dca32	-0.30818325
17	0x3dffcb71	0.12489975
18	0x3dbac8e5	0.09120349
19	0x3e25d992	0.16196278
20	0x3e2f4c80	0.17119026
21	0xbdc3bf7c	-0.09558007
22	0x3d487737	0.048941817
23	0xbe82ff60	-0.2558546
24	0x3e610553	0.21974687
25	0xbe9d4956	-0.30720013
26	0xbea401db	-0.32032666
27	0xbe8aa970	-0.27082396
28	0xbe509e59	-0.20372905
29	0x3c79ac38	0.015238814
30	0x3e7562b9	0.23963441
31	0xbd450518	-0.04810056
32	0x3e8640fc	0.26221454
33	0xbd7453e5	-0.05965032
34	0x3e9e87f3	0.30963096
35	0x3e810663	0.25200185
36	0x3e6c229d	0.23060079
37	0x3e18a357	0.14906059
38	0xbe7bd86c	-0.24594277
39	0x3eb73678	0.35783744
40	0xbeb1ecf3	-0.3475109
41	0xbe830d85	-0.25596252
42	0xbe61f492	-0.22065952
43	0xbdc556a7	-0.09635668

encoder.convs.0.convs.<food___contains___ingredient>.bias f4 [44]
0	0x33cee135	9.6335874e-08
1	0x33863cc2	6.250913e-08
2	0xb1819f9f	-3.772541e-09
3	0x32068417	7.82986e-09
4	0xb3bc3e8e	-8.765811e-08
5	0x329e5117	1.8430496e-08
6	0x328a48ba	1.6098387e-08
7	0xb2db5c34	-2.5536885e-08
8	0xb3a28153	-7.567237e-08
9	0x32b5a064	2.114411e-08
10	0xb31e54bd	-3.686431e-08
11	0xb44479be	-1.8298212e-07
12	0xb129e6e4	-2.4723983e-09
13	0xb331fd29	-4.144127e-08
14	0xb2ab91b2	-1.9973275e-08
15	0x32788c28	1.4467368e-08
16	0xb35f0a13	-5.1930396e-08
17	0xb2204aa8	-9.330201e-09
18	0xb2b6e474	-2.1291477e-08
19	0xb3d5f613	-9.963346e-08
20	0xb1dec7c0	-6.4837593e-09
21	0xb39039f5	-6.716065e-08
22	0xb34c799f	-4.7608065e-08
23	0xb3c99a35	-9.387842e-08
24	0xb44e257f	-1.9198886e-07
25	0xb3d2bced	-9.8132524e-08
26	0x3221be67	9.414726e-09
27	0x320a52e5	8.051505e-09
28	0x33ccb52e	9.532447e-08
29	0x35122b07	5.445185e-07
30	0xb12106b4	-2.3432394e-09
31	0x3423451d	1.5205701e-07
32	0xb3b8579c	-8.584104e-08
33	0xb3546e5d	-4.946047e-08
34	0x31bdf4db	5.528461e-09
35	0x32c9ebf2	2.3506775e-08
36	0xb5654e94	-8.5423494e-07
37	0xb3bb7d10	-8.730615e-08
38	0x34bfdc49	3.57368e-07
39	0x3007590f	4.9239274e-10
40	0x3419602b	1.4284221e-07
41	0xb1e60938	-6.694929e-09
42	0x34883b74	2.5375232e-07
43	0xb43f4294	-1.7812482e-07

encoder.convs.0.convs.<food___contains___ingredient>.lin_src.weight f4 [44, 17]
0	0xbdb25954	-0.08708444
1	0xbdff72a2	-0.12473036
2	0xbddbdf53	-0.10735955
3	0xbd869f97	-0.06573408
4	0x3dbb63df	0.09149908
5	0xbd6c24fb	-0.057652455
6	0xbe2a0f04	-0.1660729
7	0x3e467954	0.1938222
8	0xbe0ece08	-0.13945782
9	0x3e90131b	0.28139576
10	0x3e26ff16	0.16308245
11	0x3e99954e	0.29996723
12	0x3e6ff828	0.23434508
13	0x3e0b0b2a	0.13578478
14	0xbe2f4aa7	-0.17118321
15	0xbe74df5b	-0.23913328
16	0xbe7a5efc	-0.24450296
17	0x3dfdb4ef	0.12388026
18	0xbe78ebce	-0.24308702
19	0xbc873401	-0.01650429
20	0x3e8c79d3	0.27436695
21	0xbd66a5d4	-0.05631049
22	0xbdb9fa53	-0.09080949
23	0xbe186506	-0.14882287
24	0x3cca3a61	0.02468604
25	0xbe0237ce	-0.127166
26	0x3d6c1d5d	0.05764519
27	0xbe7fdb2d	-0.24985953
28	0xbd9724a2	-0.07380034
29	0x3e343dd1	0.17601706
30	0xbdbe30bf	-0.09286641
31	0x3d8a3a31	0.067493804
32	0xbe6b305a	-0.22967663
33	0xbaf96ca9	-0.0019029576
34	0xbe9db660	-0.30803204
35	0xbe9e239b	-0.3088654
36	0xbd9bc030	-0.07605016
37	0xbd2dbfa4	-0.04241909
38	0x3e0f1a62	0.13974908
39	0x3e945ec7	0.2897856
40	0xbe7f9367	-0.24958573
41	0x3ddd1364	0.10794714
42	0xbdd30625	-0.10303906
43	0xbdf2c165	-0.11853293
44	0x3e3878bb	0.18014805
45	0x3e081490	0.13289094
46	0x3cc777aa	0.024349052
47	0x3df6e514	0.12055412
48	0xbc4e9519	-0.01260879
49	0xbe9f60ef	-0.31128642
50	0xbe927665	-0.28605953
51	0xbe0b643b	-0.13612454
52	0xbe9cb45f	-0.30606362
53	0x3e6e8701	0.23293687
54	0xbd1d309d	-0.03837644
55	0xbe8934d5	-0.2679812
56	0xbd19c450	-0.037540734
57	0xbe434c19	-0.19071998
58	0xbe0a0ca7	-0.13481389
59	0x3e60c81f	0.2195134
60	0x3c2ad8a6	0.01042763
61	0x3e7fd1e3	0.24982409
62	0xbe8d81db	-0.27638134
63	0x3e306470	0.17225814
64	0xbc98e52a	-0.018663961
65	0xbe5a0585	-0.21291168
66	0xbdb2699a	-0.08711548
67	0x3e5d4374	0.21607763
68	0xbe56da12	-0.20981625
69	0xbde346fc	-0.110975236
70	0x3db9f296	0.09079473
71	0x3e742286	0.23841295
72	0x3d727cf9	0.059201214
73	0x3dbc1afe	0.09184836
74	0xbe28e946	-0.16495237
75	0x3e105da5	0.14098223
76	0x3c43ae85	0.011943464
77	0xbdd368f2	-0.10322751
78	0x3e7592bf	0.2398176
79	0x3e72dc5f	0.23716877
80	0x3db35332	0.087561026
81	0xbe69a3f3	-0.22816448
82	0x3e6cf2dc	0.23139518
83	0x3d008b41	0.031382803
84	0xbddd8e53	-0.10818162
85	0xbe049643	-0.12947945
86	0xbddd8923	-0.108171724
87	0xbe6e7785	-0.2328778
88	0xbdcf70c8	-0.10128933
89	0x3ea29c0f	0.31759688
90	0x3e509214	0.20368224
91	0x3e1008cc	0.14065856
92	0xbe364a35	-0.17801745
93	0x3e0f1b7a	0.13975325
94	0x3d3046bb	0.043036204
95	0x3d6f0796	0.058356844
96	0x3dd0b5b8	0.1019091
97	0xbe275484	-0.16340834
98	0x3d8639c0	0.06553984
99	0x3d5d4112	0.054017134
100	0xbe935bde	-0.28781027
101	0xbca3446f	-0.019930093
102	0x3d8a6abd	0.0675864
103	0xbd8aa126	-0.06769018
104	0xbd7fe32f	-0.06247252
105	0xbbd030fa	-0.0063534947
106	0x3e8e051b	0.2773827
107	0xbda4d716	-0.08048837
108	0xbe80a86a	-0.2512849
109	0xbd72a65a	-0.059240676
110	0xbe1e9608	-0.1548692
111	0x3dbd7d3e	0.09252404
112	0x3daa67b5	0.08320562
113	0xbe8bbfa1	-0.2729464
114	0x3d7b7054	0.06138642
115	0x3e804af4	0.25057185
116	0x3e842550	0.25809717
117	0x3ba8937c	0.0051445346
118	0xbd81ef3d	-0.06344459
119	0xbe964180	-0.29346848
120	0xbe958b0f	-0.29207656
121	0x3e77b0f7	0.241886
122	0xbd5fdcef	-0.054654058
123	0x3e1cf376	0.15327248
124	0x3dd52f3a	0.104093984
125	0xbe4234a6	-0.18965396
126	0xbe83eb9c	-0.25765693
127	0x3e9ab526	0.3021633
128	0xbe6f4483	-0.23365979
129	0x3dafd7c1	0.08586074
130	0x3d351cc3	0.044216882
131	0x3d699504	0.057026878
132	0x3e3b5bf2	0.18296793
133	0xbe31339c	-0.17304844
134	0xbe77b9af	-0.24191926
135	0xbe0267f3	-0.12734966
136	0xbe92083d	-0.2852191
137	0x3dca385a	0.098740295
138	0xbe4b827d	-0.19873996
139	0xbe41854c	-0.18898505
140	0xbea2c756	-0.31792706
141	0x3ddce1a4	0.10785225
142	0xbe726ddd	-0.23674722
143	0xbdeeb7bc	-0.11656138
144	0xbbc4a82a	-0.006001492
145	0x3e7058e2	0.23471406
146	0xbb5ebe36	-0.0033987886
147	0x3aad45c8	0.0013219649
148	0xbc3c184b	-0.011480401
149	0x3e3b00ee	0.18262073
150	0xbddac523	-0.10682132
151	0xbe90f4a1	-0.28311637
152	0x3e62ef7a	0.22161666
153	0x3e37fbe2	0.1796718
154	0x3e7f7f5a	0.24950925
155	0x3db1ee22	0.08687998
156	0xbe9612b4	-0.29311144
157	0x3df77920	0.1208365
158	0xbe1f4ae0	-0.15555906
159	0xbdf72650	-0.120678544
160	0x3e6f1c34	0.23350602
161	0x3e4b8cb4	0.19877893
162	0x3e69fbbf	0.2284994
163	0x3e02d854	0.12777835
164	0x3e98edc0	0.2986889
165	0xbe832dda	-0.2562092
166	0xbe8cb34c	-0.27480543
167	0x3e2c4df1	0.16826607
168	0x3e52f181	0.20599939
169	0xbdf0b6f8	-0.117536485
170	0xbd211f00	-0.039336205
171	0x3e550068	0.20800936
172	0xbe70db82	-0.23521236
173	0xbe9ab7fd	-0.30218497
174	0xbdcc0388	-0.09961611
175	0x3e133da4	0.14378983
176	0x3e56152c	0.20906514
177	0xbe22d770	-0.15902495
178	0xbe3806c2	-0.17971328
179	0x3e11d320	0.14240694
180	0x3e932f73	0.28747138
181	0xbd963edb	-0.073362075
182	0xbe3eccb3	-0.18632774
183	0xbe07de2d	-0.13268347
184	0xbe483911	-0.19553019
185	0xbe63e2da	-0.22254506
186	0x3e300975	0.17191108
187	0xbbb92c49	-0.005651031
188	0x3d7e4420	0.062076688
189	0x3dff9137	0.124788694
190	0x3e634e63	0.22197871
191	0xbd3b2fc8	-0.045699865
192	0x3e55ac4a	0.20866504
193	0x3d16bf95	0.0368038
194	0x3e5895ec	0.2115094
195	0xbe25492b	-0.16141193
196	0xbe128bd4	-0.14311153
197	0x3d867c92	0.06566729
198	0x3e428a2a	0.18998018
199	0xbd896a23	-0.06709697
200	0xbe9a4ab8	-0.3013513
201	0xbea14258	-0.3149593
202	0xbc9c4c59	-0.019079374
203	0xbd8c747e	-0.068581566
204	0xbde3749c	-0.11106226
205	0xbe09fcea	-0.13475385
206	0x3b836613	0.004009971
207	0xbe2ad55e	-0.16682956
208	0x3dc7f815	0.09764115
209	0xbe5f9dbe	-0.21837518
210	0x3d11231a	0.035433866
211	0x3de10579	0.10987372
212	0xbbc88488	-0.0061193146
213	0x3e77434c	0.24146765
214	0x3e1da17c	0.15393633
215	0x3e430dbd	0.1904821
216	0xbe31474c	-0.17312354
217	0x3c34f1c8	0.011043973
218	0x3e44fa0f	0.19236015
219	0xbe2776f3	-0.1635397
220	0xbe0a6a74	-0.13517171
221	0x3d4ec70e	0.050482802
222	0xbe492f3a	-0.19646922
223	0xbddfe640	-0.109325886
224	0xbc9ff229	-0.01952465
225	0x3e9a87c2	0.301817
226	0xbe1c18e8	-0.15243876
227	0xbe954ced	-0.29160252
228	0x3e3c6cba	0.18400851
229	0x3e3cede6	0.18450126
230	0xbd57a3d3	-0.05264647
231	0xba35d854	-0.00069368375
232	0xbe9a2239	-0.30104235
233	0xbd3a9dd4	-0.045560673
234	0x3e37af7a	0.17938033
235	0xbe3f115a	-0.18658963
236	0xbd9d2247	-0.076725535
237	0xbe5fce6a	-0.21856084
238	0xbe7ceda7	-0.24700032
239	0xbe7cddb8	-0.24693954
240	0x3dd68989	0.104754515
241	0x3d816cfd	0.06319616
242	0x3da424bd	0.0801482
243	0x3da7e0d9	0.08197183
244	0x3e9d9273	0.30775794
245	0x3da57f2e	0.08080898
246	0x3e3d4230	0.1848228
247	0xbe6693fa	-0.22517386
248	0x3e689caa	0.22716013
249	0xbcb8d51f	-0.022562562
250	0xbcadcb6d	-0.021215165
251	0x3e956338	0.2917726
252	0x3e3eb3a6	0.18623218
253	0x3e259a00	0.16172028
254	0x3e9622ac	0.29323328
255	0xbd4b1707	-0.049582507
